backup_before_cleanup/artifacts/models/best/gru_fold_0.pt (torch, 190524 bytes, 9 tensors)

gru.weight_ih_l0 f4 [192, 48]
-0.016745795 -0.038377028 0.022286993 0.09970578 -0.11694046 -0.046824064 0.0030678192 0.13322973
-0.015164437 0.10671105 0.14366549 0.073783234 -0.10997621 -0.076534875 -0.0012686517 -0.041713536
0.1331581 0.06423354 -0.0059759454 0.11306157 0.15391865 -0.072084725 0.09285322 -0.030428518
0.15512766 0.017466312 0.039142966 -0.14923355 0.093057625 0.027974008 0.004531156 0.041129187
0.098526254 -0.0625311 0.15006432 0.03909093 0.043732196 0.14391068 -0.02874821 -0.024042184
0.11814668 -0.05245707 0.030022657 0.13676298 0.093628824 0.15336408 0.074808136 0.1212096
0.095304735 0.15392652 -0.06331428 -0.10001864 0.023779573 0.06563377 -0.11792734 -0.05186497
0.076147825 -0.03696766 -0.051429518 0.083076194 -0.028146941 -0.040757783 -0.094119735 0.0017155848
-0.042553674 -0.06763398 -0.043663885 -0.06777737 -0.022206211 0.13562724 -0.027322149 -0.068816066
-0.049288064 -0.05736673 -0.06850352 -0.1321 0.12488628 -0.09196896 0.08823702 0.11901799
0.07109229 0.06501758 0.07987882 -0.116996124 -0.14632644 -0.14051823 0.035649035 0.0608632
0.037982143 -0.118704505 -0.032820117 -0.009630714 0.14624551 0.057939235 -0.044069998 -0.095479414
-0.14123973 -0.009445803 0.100903735 -0.024427371 0.052935705 -0.013662845 -0.08423511 0.07341002
0.087839074 0.14134362 -0.113119975 -0.043887 0.121104196 -8.915912e-05 0.120771326 0.070382625
0.04994769 -0.11581012 0.14489079 -0.05493065 -0.14400229 -0.11040836 0.03317268 0.15416738
0.11640691 -0.025491752 0.04395805 -0.04092109 -0.020770907 -0.0041011632 0.1499856 -0.11598138
-0.048606597 -0.0023748355 -0.060203627 -0.038127474 -0.0690781 0.04909468 -0.14468277 0.008927566
0.041435335 0.11512451 0.03968906 0.016583009 -0.05147928 -0.15016538 -0.07135578 0.022615412
0.023956303 -0.1287634 0.0064662723 0.009862923 0.07884267 0.102796726 0.008791878 -0.028297365
0.10205518 0.087134205 -0.11710012 0.12923196 -0.012597545 0.14184256 0.10241556 -0.11831464
0.122895494 -0.15448244 0.11308317 -0.10159966 -0.0019991435 0.07772083 0.10815065 0.043486398
-0.02706132 -0.12553336 0.15541162 0.113671534 -0.1069146 -0.054645102 -0.13286155 0.07693454
-0.1397368 -0.12833127 -0.070017956 0.08584957 -0.14657608 0.058124203 -0.15574901 0.011015203
0.019295866 -0.108894736 0.0010491738 0.13299417 -0.12294575 -0.061864447 -0.016886204 -0.09976386
0.07914437 -0.09720348 0.11494713 0.015642714 -0.022780558 -0.10820156 0.017084006 0.0816147
0.12815648 -0.10500612 0.03228117 -0.111743316 -0.113577895 0.010509536 -0.10130509 0.082999356
0.09718926 0.00526574 -0.01756314 -0.0569965 0.049728464 0.14761727 -0.14400089 0.06932589
0.14478472 0.15294899 -0.10919913 -0.0110945795 -0.024723934 0.13009284 -0.09254566 -0.14216435
-0.04932943 0.081000045 0.15028408 -0.10182259 -0.11947585 0.15344103 0.10509794 0.061106462
-0.010462767 -0.15694074 0.067122646 -0.14679193 -0.08099111 -0.13297649 0.11158853 0.14606439
0.079420894 0.11469662 0.03139883 0.057664085 0.014770513 0.03687851 0.15541114 0.019738603
-0.07163306 -0.03680184 0.14774135 0.05604476 -0.08062405 -0.14339647 0.041503623 -0.079674445
00000000: 7a2e 89bc 3b31 1dbd 3693 b63c 8b32 cc3d
00000010: 7b7e efbd 97ca 3fbd 770d 493b 606d 083e
00000020: 4274 78bc 538b da3d 0c1d 133e aa1b 973d
00000030: 353b e1bd 51be 9cbd e348 a6ba d0db 2abd
00000040: 995a 083e e08c 833d ddd1 c3bb d38c e73d
00000050: da9c 1d3e 28a1 93bd d429 be3d 3a45 f9bc
00000060: c9d9 1e3e 8315 8f3c 6054 203d aed0 18be
00000070: ff94 be3d bf29 e53c 177a 943b 1477 283d
00000080: 22c8 c93d 4e10 80bd 76aa 193e d01d 203d
00000090: 8820 333d 525d 133e 5e81 ebbc 1df4 c4bc
000000a0: e3f6 f13d 3add 56bd 13f2 f53c 980b 0c3e
000000b0: 78c0 bf3d 790b 1d3e 0235 993d bd3c f83d
000000c0: 212f c33d ea9e 1d3e ebaa 81bd 93d6 ccbd
000000d0: 61cd c23c ff6a 863d e483 f1bd 5d70 54bd
000000e0: 64f3 9b3d 676b 17bd c2a7 52bd da23 aa3d
000000f0: 6a94 e6bc a2f1 26bd d9c1 c0bd 79dd e03a
00000100: c34c 2ebd af83 8abd e7d8 32bd ddce 8abd
00000110: cde9 b5bc dee1 0a3e b3d2 dfbc 70ef 8cbd
00000120: 48e2 49bd 60f9 6abd 934b 8cbd 3945 07be
00000130: 61c4 ff3d 395a bcbd 9cb5 b43d b4bf f33d
00000140: d698 913d f027 853d 8297 a33d aa9b efbd
00000150: 99d6 15be 03e4 0fbe b904 123d b14b 793d
00000160: 2a93 1b3d 591b f3bd 636e 06bd 24ca 1dbc
00000170: 62c1 153e b151 6d3d be82 34bd b68a c3bd
00000180: 26a1 10be 92c2 1abc 9ea6 ce3d e91b c8bc
00000190: 1cd3 583d 20da 5fbc 7583 acbd fe57 963d
000001a0: f9e4 b33d 62bc 103e 72ab e7bd dbc2 33bd
000001b0: 7a05 f83d f0fa bab8 f556 f73d c424 903d
000001c0: f395 4c3d db2d edbd 405e 143e f6fe 60bd
000001d0: 5675 13be c71d e2bd 13e0 073d 0ede 1d3e
000001e0: bf66 ee3d 14d4 d0bc 5b0d 343d df9c 27bd
000001f0: c027 aabc 0d63 86bb d395 193e a587 edbd
00000200: b617 47bd 21a3 1bbb 1498 76bd 8e2b 1cbd
00000210: d278 8dbd 8117 493d b827 14be ed44 123c
00000220: 19b8 293d 66c6 eb3d ff90 223d 17d9 873c
00000230: f0db 52bd f4c4 19be fb22 92bd f543 b93c
00000240: 0240 c43c 8dda 03be 06e3 d33b 1998 213c
00000250: 4478 a13d 1787 d23d cf0b 103c e0cf e7bc
00000260: 4e02 d13d 6b73 b23d 30d2 efbd 6255 043e
00000270: ef65 4ebc 2d3f 113e 40bf d13d f24e f2bd
00000280: a2b0 fb3d a530 1ebe 2698 e73d 7c13 d0bd
00000290: 1004 03bb 192c 9f3d 177e dd3d cb1e 323d
000002a0: b4af ddbc d18b 00be 3924 1f3e 9fcc e83d
000002b0: 0bf6 dabd 8bd3 5fbd dc0c 08be db8f 9d3d
000002c0: 2a17 0fbe 4669 03be 9365 8fbd e6d1 af3d
000002d0: 0a18 16be a513 6e3d ab7c 1fbe 1c79 343c
000002e0: 5d12 9e3c 3404 dfbd 6e84 893a a02f 083e
000002f0: fbca fbbd 9365 7dbd f054 8abc ff50 ccbd
00000300: 7216 a23d 9e12 c7bd 6769 eb3d 2625 803c
00000310: 4b9e babc c898 ddbd c2f3 8b3c 9c25 a73d
00000320: 743b 033e 730d d7bd 4339 043d aed9 e4bd
00000330: 879b e8bd 3030 2c3c 0b79 cfbd 91fb a93d
00000340: 2a0b c73d 3b8c ac3b 93e0 8fbc 2975 69bd
00000350: 13b0 4b3d fb28 173e f874 13be bbfa 8d3d
00000360: 7242 143e a99e 1c3e cba3 dfbd 0ac6 35bc
00000370: d989 cabc 0f37 053e 9488 bdbd 8893 11be
00000380: a80d 4abd 5ae3 a53d 12e4 193e 5d88 d0bd
00000390: c1af f4bd a51f 1d3e 973d d73d c54a 7a3d
000003a0: 076c 2bbc 13b5 20be 9977 893d a050 16be
000003b0: abde a5bd fd2a 08be 8788 e43d e791 153e
000003c0: 6ca7 a23d 10e6 ea3d 0f9c 003d 2d31 6c3d
000003d0: 0600 723c ec0d 173d 1924 1f3e dab2 a13c
000003e0: 5bb4 92bd 87bd 16bd 8249 173e 318f 653d
000003f0: 391e a5bd 86d6 12be b4ff 293d 5b2c a3bd

gru.weight_hh_l0 f4 [192, 64]
0.025488019 0.14653674 0.014039173 -0.07437376 -0.119358145 -0.038564336 0.034524232 0.083316796
0.113022074 0.10786831 -0.062925816 -0.040125553 0.105239615 -0.0037908466 0.07632095 -0.15076631
-0.12588803 0.077253446 0.11249123 0.059835464 -0.14730169 -0.043439474 -0.15283503 0.08736978
0.09368381 -0.0045292475 -0.13387795 -0.031239703 -0.07103947 -0.10594965 -0.09824889 0.041167673
-0.050727803 0.0893221 -0.08447698 0.08993286 -0.13731878 -0.08275341 0.005555307 0.10998598
-0.0019768656 -0.1439049 0.120669596 -0.040099226 0.032271173 -0.104079805 -0.11809337 -0.107546285
-0.0020177371 0.08354251 0.058063403 -0.07337975 0.09263946 -0.03183505 -0.13706678 0.15142374
-0.014651078 -0.08470086 -0.085133046 0.1273328 -0.055354755 -0.07326168 0.018578766 -0.095379025
0.03619208 0.106749766 0.14142752 -0.027990771 -0.12791348 -0.036777914 -0.11790266 0.14857903
-0.14101289 0.13037068 -0.15258968 -0.12968433 0.09951678 -0.14219148 0.13919985 -0.059044797
-0.14601342 0.114800125 0.061466828 0.07366988 -0.10717972 0.13780311 -0.14660208 -0.010447686
-0.12979107 0.08810661 0.036768064 -0.14960961 0.07694754 0.018594792 0.09780172 -0.0424156
0.12472656 0.025768636 -0.10964024 0.042227894 0.018656578 0.051707964 -0.07786017 0.054339454
0.08926949 -0.117772155 0.037908122 0.034246624 -0.118716024 -0.057769895 -0.032493304 -0.123800896
-0.04989975 -0.05132966 -0.049164556 0.06173871 -0.10284875 -0.0011562316 0.027505219 -0.0031271891
-0.0014292342 -0.114028476 0.029350892 0.056868162 0.040723577 0.07675155 -0.07111116 -0.016934872
0.00892031 0.014440498 0.10075317 -0.12988098 0.11066125 0.022801213 -0.087744735 -0.09069207
-0.10157307 -0.07924914 0.14363036 0.014149752 -0.05931013 0.05388112 -0.050571553 -0.12715791
-0.054786988 -0.00290256 0.09594265 -0.14624709 -0.022571845 0.10491573 -0.14701568 0.109868
0.10570419 -0.03681962 -0.00054845144 -0.077862546 -0.0520082 -0.00055392337 -0.13343036 0.06406991
-0.12046524 -0.12446399 0.1516797 -0.056210592 0.097993836 -0.025000973 -0.10829466 -0.13127102
0.04208008 0.0072632814 -0.13276999 0.10236729 0.06225964 -0.094158605 -0.07807109 0.08379922
0.0013806153 -0.0071751145 -0.11653503 -0.050997842 -0.019682206 0.11769747 -0.13261594 0.05373647
0.14710398 0.060293913 -0.027558502 0.058491334 -0.04385194 -0.068842806 -0.02479985 0.10968369
0.031693257 0.002785804 0.048004046 -0.04072574 0.066008836 0.08197838 0.056855865 -0.008653362
0.007816504 0.10544982 -0.05206621 0.117702395 -0.119845495 -0.0039987927 -0.09394106 -0.039084807
0.046281163 0.099440865 0.10149277 0.12200611 0.07294849 -0.015187012 -0.13906597 -0.15152293
-0.09060076 -0.030703178 0.008692468 -0.10464247 -0.13487329 -0.01803198 0.035399165 -0.013053248
-0.047666088 0.09788889 -0.078623526 -0.13947754 -0.1507015 0.1130958 0.0344213 -0.011104315
0.13817093 -0.07446101 -0.07401083 -0.10300503 -0.090909794 0.06108067 0.0055376436 -0.057165258
0.09452833 -0.012161122 0.05242671 0.10320939 -0.010097728 0.04033513 -0.08588203 0.01411576
0.09739438 0.011115546 0.01995149 0.039966743 -0.11412264 -0.066192664 0.08786424 0.14386001
00000000: 40cc d03c ba0d 163e 8f04 663c 4551 98bd
00000010: 0b72 f4bd a3f5 1dbd 4869 0d3d ffa1 aa3d
00000020: 1e78 e73d 0fea dc3d 40df 80bd b15a 24bd
00000030: de87 d73d da6f 78bb 294e 9c3d 7c62 1abe
00000040: cbe8 00be 0e37 9e3d cd61 e63d 0816 753d
00000050: 41d6 16be 97ed 31bd c980 1cbe edee b23d
00000060: 4cdd bf3d 156a 94bb 4d17 09be 68ea ffbc
00000070: 247d 91bd 21fc d8bd b736 c9bd 6f9f 283d
00000080: f5c7 4fbd 81ee b63d 4402 adbd b82e b83d
00000090: 4b9d 0cbe 9f7a a9bd 4b09 b63b 5440 e13d
000000a0: 4d8e 01bb ce5b 13be 9f21 f73d 163f 24bd
000000b0: c72e 043d cb27 d5bd f0da f1bd 3a41 dcbd
000000c0: 033c 04bb 5618 ab3d e4d3 6d3d 1f48 96bd
000000d0: c2b9 bd3d 7865 02bd 3c5b 0cbe d30e 1b3e
000000e0: 130b 70bc a577 adbd 3c5a aebd 8863 023e
000000f0: abbb 62bd 380a 96bd 7f32 983c 1456 c3bd
00000100: 253e 143d 9f9f da3d 60d2 103e e74c e5bc
00000110: c0fb 02be 70a4 16bd f376 f1bd 1a25 183e
00000120: af65 10be e47f 053e 7840 1cbe f8cb 04be
00000130: 74cf cb3d a59a 11be 688a 0e3e f5d8 71bd
00000140: 8b84 15be 541c eb3d a4c4 7b3d 3ce0 963d
00000150: 0b81 dbbd 421c 0d3e db1e 16be c52c 2bbc
00000160: f3e7 04be 3d71 b43d 1c9a 163d 4333 19be
00000170: ac96 9d3d 1b54 983c 454c c83d fbbb 2dbd
00000180: a470 ff3d bf18 d33c 108b e0bd 28f7 2c3d
00000190: aed5 983c bbcb 533d 2775 9fbd 0c93 5e3d
000001a0: ecd2 b63d 8732 f1bd 8c45 1b3d 3046 0c3d
000001b0: 6321 f3bd 20a0 6cbd b317 05bd 538b fdbd
000001c0: ae63 4cbd 0d3f 52bd c660 49bd bbe1 7c3d
000001d0: 5ea2 d2bd b28c 97ba a052 e13c 87f1 4cbb
000001e0: 2455 bbba c387 e9bd 4871 f03c 97ee 683d
000001f0: c4cd 263d eb2f 9d3d baa2 91bd 00bb 8abc
00000200: 7e26 123c d797 6c3c ae57 ce3d 85ff 04be
00000210: 5ea2 e23d 9cc9 ba3c 83b3 b3bd c4bc b9bd
00000220: 8b05 d0bd 604d a2bd d613 133e 5dd4 673c
00000230: 2eef 72bd 73b2 5c3d 1e24 4fbd af35 02be
00000240: 5268 60bd e038 3ebb 957d c43d ccc1 15be
00000250: 97e8 b8bc 0fde d63d 478b 16be 7902 e13d
00000260: 707b d83d 2bd0 16bd f4c5 0fba 6676 9fbd
00000270: 8d06 55bd 2b35 11ba f8a1 08be 1637 833d
00000280: 7bb6 f6bd fae6 febd ec51 1b3e 143d 66bd
00000290: feb0 c83d d7ce ccbc 97c9 ddbd e96b 06be
000002a0: 295c 2c3d d200 ee3b dbf4 07be f1a5 d13d
000002b0: f703 7f3d 3ad6 c0bd bce3 9fbd ed9e ab3d
000002c0: c3f5 b43a 391d ebbb eba9 eebd 1de3 50bd
000002d0: 943c a1bc 5f0b f13d 79cc 07be c61a 5c3d
000002e0: 6da2 163e c0f6 763d 5ec2 e1bc 9c94 6f3d
000002f0: 189e 33bd 75fd 8cbd 0e29 cbbc d8a1 e03d
00000300: cad0 013d 0992 363b e49f 443d 09d0 26bd
00000310: a42f 873d 48e4 a73d b2e1 683d d5c6 0dbc
00000320: cb10 003c 13f6 d73d 6143 55bd f40d f13d
00000330: 8e71 f5bd 4e08 83bb 2c64 c0bd 6417 20bd
00000340: 5191 3d3d a7a7 cb3d 71db cf3d 57de f93d
00000350: 0566 953d f2d2 78bc 4f67 0ebe d428 1bbe
00000360: e48c b9bd 3b85 fbbc da6a 0e3c cb4e d6bd
00000370: 391c 0abe ceb7 93bc b7fe 103d 4add 55bc
00000380: 843d 43bd f879 c83d 5f05 a1bd 33d3 0ebe
00000390: 7e51 1abe c59e e73d 59fd 0c3d dfee 35bc
000003a0: ae7c 0d3e 047f 98bd fd92 97bd 4df4 d2bd
000003b0: ea2e babd ba2f 7a3d 1f75 b53b 1e26 6abd
000003c0: 1298 c13d 713f 47bc 64bd 563d 725f d33d
000003d0: f170 25bc 7336 253d ebe2 afbd ca45 673c
000003e0: b476 c73d fb1d 363c 4f71 a33c 2bb4 233d
000003f0: 21b9 e9bd 0590 87bd 2bf2 b33d 0a50 133e

gru.bias_ih_l0 f4 [192]
0.00017843657 -0.0016486672 0.00022696883 0.001014076 -0.0008671483 0.0007158173 -0.0013728117 -0.00019043192
0.0013297909 -0.00045416187 -0.0017117955 -0.0015373253 -0.0008541664 0.0001281145 0.0011102369 -9.548763e-05
0.0014962819 -0.00052289077 0.0022494455 -0.0009143129 -0.0008796912 -0.0015563237 -0.00077643356 0.00073555217
-0.00011469606 -0.0012232547 -0.0019831287 -0.0022180264 -8.6658714e-05 0.0005219618 0.00028643693 -0.00061134546
-0.00021297399 -0.0011678988 -0.0016176271 -0.000803891 0.0011385723 0.0001689667 0.00018570169 -0.00017407058
0.000812241 -9.385021e-05 0.001079591 -0.0016606681 -0.00032088018 0.00018088362 -0.0011375658 -0.00095787033
0.0001295265 0.001112129 0.0006448325 -0.0005121665 1.3036188e-05 0.00032166895 0.00032763142 -0.0011646379
0.00039765087 -0.0002646993 -0.0012378889 -0.00030298493 0.0012743073 -0.0017116705 -0.0013926689 -0.00047048816
-0.00022591565 0.001301682 -0.0008963345 0.0008753559 0.0002833242 0.0009388021 0.002109783 -0.00047530493
0.0016942669 0.0010311952 0.00066265155 0.00060563785 -0.0008480847 0.00083083595 -0.00056851876 0.0006716637
-0.00022393998 0.00069239206 -0.00057742395 0.0009510523 0.0010066803 0.0012645446 -0.00017291015 0.0012604917
5.9804515e-05 -0.00017447934 0.00082302804 0.00047365171 0.0013940042 0.0012587161 -0.00042727406 -0.0008013876
-0.0005672134 -0.0001793868 -0.00036389582 0.00011615113 -4.6551293e-05 -0.00046237226 -0.00016748223 0.00015024334
-2.5167355e-05 0.00019435117 -0.00095597847 -0.0007987326 0.0010463147 0.00095838687 -8.030887e-05 -0.00037988942
-0.00092074764 0.00064353383 5.0313567e-05 -0.0005676288 -0.0009438638 -0.00025653339 -0.0014350164 3.6656787e-05
1.699336e-05 0.000584835 0.00046550727 -0.00056184543 -9.3694125e-06 -0.00025446218 0.0005360085 -0.0006432995
0.0010464588 -0.0007647655 -0.0006396676 -0.0005501246 -0.0013217676 0.0013842301 0.0008443573 0.00041164897
-0.0007864562 -0.00070447556 0.0016319827 -0.0011204373 -0.0009132182 -0.0009243812 1.123812e-05 0.0012744439
-0.000535955 0.0006837667 0.0015686225 0.0014655151 -0.00055913354 -1.05520985e-05 -0.00023382301 0.0004030372
9.473451e-05 0.0010047471 -0.0017222572 -0.0011942734 -0.0014688419 -0.0014673149 0.00165621 0.0010391463
7.536037e-05 0.0015759692 -0.0012253531 -0.0011913653 0.0014375433 0.0009353988 0.0013792806 -0.00132063
-0.00026541375 -0.0014616331 -0.0007786429 -0.0012274043 0.0007462759 0.00034667863 -0.00033225917 -0.00041412175
0.00118138 -0.0011535608 -0.00044353056 0.00091484975 0.0011224783 0.00087075314 -0.0008751675 -0.00033222637
-0.00017522338 -0.0010180678 7.359618e-05 -0.000428402 0.0016403206 -0.0014600289 0.001085334 0.0006483353
00000000: b41a 3b39 1718 d8ba 7bfe 6d39 bfea 843a
00000010: 5651 63ba b0a5 3b3a ebef b3ba aeae 47b9
00000020: 614c ae3a 931c eeb9 535e e0ba 1480 c9ba
00000030: 23ea 5fba 7956 0639 5e85 913a 8840 c8b8
00000040: e41e c43a 9b12 09ba 6f6b 133b 80ae 6fba
00000050: 149b 66ba 8ffd cbba 9389 4bba 12d2 403a
00000060: fa88 f0b8 9e55 a0ba 61f7 01bb 4f5c 11bb
00000070: 8bbc b5b8 43d4 083a ea2c 9639 b342 20ba
00000080: c551 5fb9 2e14 99ba 8f06 d4ba 36bc 52ba
00000090: 263c 953a a72c 3139 ebb8 4239 b786 36b9
000000a0: 92ec 543a 73d1 c4b8 1081 8d3a c6aa d9ba
000000b0: cf3b a8b9 94ab 3d39 601a 95ba 9719 7bba
000000c0: 81d1 0739 dbc4 913a fa09 293a e942 06ba
000000d0: 00b6 5a37 ada5 a839 f2c5 ab39 c3a6 98ba
000000e0: cc7b d039 57c7 8ab9 a940 a2ba f3d9 9eb9
000000f0: a806 a73a 225a e0ba 378a b6ba daab f6b9
00000100: c5e3 6cb9 339d aa3a fdf7 6aba 2478 653a
00000110: 218b 9439 f119 763a 4944 0a3b 5932 f9b9
00000120: 2a12 de3a 2b29 873a cbb5 2d3a abc3 1e3a
00000130: 0052 5eba 75cc 593a a608 15ba 9712 303a
00000140: 6ed1 6ab9 a581 353a 445e 17ba 0a50 793a
00000150: 96f2 833a 13bf a53a 374f 35b9 1537 a53a
00000160: 9cd6 7a38 71f4 36b9 7ac0 573a 7554 f839
00000170: 05b7 b63a 81fb a43a c103 e0b9 3614 52ba
00000180: 0cb1 14ba c719 3cb9 45c9 beb9 2a96 f338
00000190: 1240 43b8 8e6a f2b9 2b9e 2fb9 a48a 1d39
000001a0: 7c1e d3b7 bfca 4b39 a19a 7aba 0a62 51ba
000001b0: 7f24 893a 413c 7b3a 7f6b a8b8 e52b c7b9
000001c0: 545e 71ba d3b2 283a c807 5338 edcc 14ba
000001d0: a16d 77ba 547f 86b9 2917 bcba edbf 1938
000001e0: f68c 8e37 9d4f 193a 540f f439 cf48 13ba
000001f0: 5231 1db7 5669 85b9 ec82 0c3a 19a3 28ba
00000200: 5529 893a 8b7a 48ba 5eaf 27ba 3d36 10ba
00000210: 293f adba 0e6f b53a dc57 5d3a 97d2 d739
00000220: 2f2a 4eba 8eac 38ba 41e8 d53a a3db 92ba
00000230: 0965 6fba 2c52 72ba 5c8b 3c37 3e0b a73a
00000240: 557f 0cba ce3e 333a 3d9a cd3a 8716 c03a
00000250: d192 12ba eb08 31b7 632e 75b9 bd4e d339
00000260: 34ac c638 b8b1 833a 5dbd e1ba 2a89 9cba
00000270: 2886 c0ba eb52 c0ba 3015 d93a f733 883a
00000280: ca0a 9e38 c090 ce3a 079c a0ba 9627 9cba
00000290: f36b bc3a 8d35 753a fac8 b43a fd18 adba
000002a0: 3b27 8bb9 4594 bfba d71d 4cba dbe0 a0ba
000002b0: baa1 433a 6bc2 b539 1233 aeb9 7b1e d9b9
000002c0: 89d8 9a3a 1433 97ba aa89 e8b9 87d2 6f3a
000002d0: 1f20 933a 4143 643a 7f6b 65ba ab2e aeb9
000002e0: 2bbc 37b9 b070 85ba a657 9a38 259b e0b9
000002f0: 0700 d73a 715e bfba c441 8e3a 0cf5 293a

gru.bias_hh_l0 f4 [192]
0.00017843657 -0.0016486672 0.00022696883 0.001014076 -0.0008671483 0.0007158173 -0.0013728117 -0.00019043192
0.0013297909 -0.00045416187 -0.0017117955 -0.0015373253 -0.0008541664 0.0001281145 0.0011102369 -9.548763e-05
0.0014962819 -0.00052289077 0.0022494455 -0.0009143129 -0.0008796912 -0.0015563237 -0.00077643356 0.00073555217
-0.00011469606 -0.0012232547 -0.0019831287 -0.0022180264 -8.6658714e-05 0.0005219618 0.00028643693 -0.00061134546
-0.00021297399 -0.0011678988 -0.0016176271 -0.000803891 0.0011385723 0.0001689667 0.00018570169 -0.00017407058
0.000812241 -9.385021e-05 0.001079591 -0.0016606681 -0.00032088018 0.00018088362 -0.0011375658 -0.00095787033
0.0001295265 0.001112129 0.0006448325 -0.0005121665 1.3036188e-05 0.00032166895 0.00032763142 -0.0011646379
0.00039765087 -0.0002646993 -0.0012378889 -0.00030298493 0.0012743073 -0.0017116705 -0.0013926689 -0.00047048816
-0.00022591565 0.001301682 -0.0008963345 0.0008753559 0.0002833242 0.0009388021 0.002109783 -0.00047530493
0.0016942669 0.0010311952 0.00066265155 0.00060563785 -0.0008480847 0.00083083595 -0.00056851876 0.0006716637
-0.00022393998 0.00069239206 -0.00057742395 0.0009510523 0.0010066803 0.0012645446 -0.00017291015 0.0012604917
5.9804515e-05 -0.00017447934 0.00082302804 0.00047365171 0.0013940042 0.0012587161 -0.00042727406 -0.0008013876
-0.0005672134 -0.0001793868 -0.00036389582 0.00011615113 -4.6551293e-05 -0.00046237226 -0.00016748223 0.00015024334
-2.5167355e-05 0.00019435117 -0.00095597847 -0.0007987326 0.0010463147 0.00095838687 -8.030887e-05 -0.00037988942
-0.00092074764 0.00064353383 5.0313567e-05 -0.0005676288 -0.0009438638 -0.00025653339 -0.0014350164 3.6656787e-05
1.699336e-05 0.000584835 0.00046550727 -0.00056184543 -9.3694125e-06 -0.00025446218 0.0005360085 -0.0006432995
0.0011995737 -0.00083694904 -0.00032448195 -0.00065404346 -0.0014373705 0.0011481806 0.00073390093 0.00038859126
-0.00035990786 -0.0009895769 0.0011867938 -0.001341733 -0.001144425 -0.0013132347 0.00015065925 0.0013771912
-0.0005571124 0.00057149836 0.0017868995 0.0012663963 -0.0004969289 -0.00032495995 -0.0005501119 0.00033936492
8.498992e-05 0.00052640395 -0.0019025793 -0.0006711338 -0.0013925091 -0.0017586718 0.001511936 0.0015419351
-1.0273904e-05 0.0016763766 -0.0011057366 -0.0011133204 0.0013983775 0.000693846 0.0014779115 -0.0014214277
-1.4863114e-05 -0.0008636504 -0.00088977226 -0.0010660436 0.0004307549 0.0001494752 -7.069648e-05 2.3753699e-05
0.0014383029 -0.0010290602 -0.0004851638 0.00048739158 0.0011124598 0.0011464629 -0.0008862295 -0.00048648802
-0.00026177216 -0.0013415128 -0.000120182696 -1.9705667e-05 0.0015593836 -0.00142193 0.0011401535 -1.607026e-05
00000000: b41a 3b39 1718 d8ba 7bfe 6d39 bfea 843a
00000010: 5651 63ba b0a5 3b3a ebef b3ba aeae 47b9
00000020: 614c ae3a 931c eeb9 535e e0ba 1480 c9ba
00000030: 23ea 5fba 7956 0639 5e85 913a 8840 c8b8
00000040: e41e c43a 9b12 09ba 6f6b 133b 80ae 6fba
00000050: 149b 66ba 8ffd cbba 9389 4bba 12d2 403a
00000060: fa88 f0b8 9e55 a0ba 61f7 01bb 4f5c 11bb
00000070: 8bbc b5b8 43d4 083a ea2c 9639 b342 20ba
00000080: c551 5fb9 2e14 99ba 8f06 d4ba 36bc 52ba
00000090: 263c 953a a72c 3139 ebb8 4239 b786 36b9
000000a0: 92ec 543a 73d1 c4b8 1081 8d3a c6aa d9ba
000000b0: cf3b a8b9 94ab 3d39 601a 95ba 9719 7bba
000000c0: 81d1 0739 dbc4 913a fa09 293a e942 06ba
000000d0: 00b6 5a37 ada5 a839 f2c5 ab39 c3a6 98ba
000000e0: cc7b d039 57c7 8ab9 a940 a2ba f3d9 9eb9
000000f0: a806 a73a 225a e0ba 378a b6ba daab f6b9
00000100: c5e3 6cb9 339d aa3a fdf7 6aba 2478 653a
00000110: 218b 9439 f119 763a 4944 0a3b 5932 f9b9
00000120: 2a12 de3a 2b29 873a cbb5 2d3a abc3 1e3a
00000130: 0052 5eba 75cc 593a a608 15ba 9712 303a
00000140: 6ed1 6ab9 a581 353a 445e 17ba 0a50 793a
00000150: 96f2 833a 13bf a53a 374f 35b9 1537 a53a
00000160: 9cd6 7a38 71f4 36b9 7ac0 573a 7554 f839
00000170: 05b7 b63a 81fb a43a c103 e0b9 3614 52ba
00000180: 0cb1 14ba c719 3cb9 45c9 beb9 2a96 f338
00000190: 1240 43b8 8e6a f2b9 2b9e 2fb9 a48a 1d39
000001a0: 7c1e d3b7 bfca 4b39 a19a 7aba 0a62 51ba
000001b0: 7f24 893a 413c 7b3a 7f6b a8b8 e52b c7b9
000001c0: 545e 71ba d3b2 283a c807 5338 edcc 14ba
000001d0: a16d 77ba 547f 86b9 2917 bcba edbf 1938
000001e0: f68c 8e37 9d4f 193a 540f f439 cf48 13ba
000001f0: 5231 1db7 5669 85b9 ec82 0c3a 19a3 28ba
00000200: 043b 9d3a b366 5bba 3b1f aab9 1d74 2bba
00000210: 2766 bcba 8c7e 963a 4263 403a d6bb cb39
00000220: 04b2 bcb9 b1b4 81ba 318e 9b3a 17dd afba
00000230: 8800 96ba d820 acba 49fa 1d39 de82 b43a
00000240: 2e0b 12ba 9bd0 153a 6636 ea3a 35fd a53a
00000250: 5544 02ba 635f aab9 6235 10ba caec b139
00000260: 9e3c b238 5ffe 093a f85f f9ba 07ef 2fba
00000270: da84 b6ba 3c83 e6ba 272c c63a c21a ca3a
00000280: 155e 2cb7 ddb9 db3a 5dee 90ba d5ec 91ba
00000290: c349 b73a 38e3 353a 7bb6 c13a 334f baba
000002a0: 975c 79b7 9966 62ba 9b3f 69ba 7dba 8bba
000002b0: f2d6 e139 72bc 1c39 e242 94b8 ae42 c737
000002c0: 7085 bc3a 88e1 86ba 955d feb9 9788 ff39
000002d0: f5cf 913a e944 963a db51 68ba 510f ffb9
000002e0: 773e 89b9 b3d5 afba 980a fcb8 994d a5b7
000002f0: 3b64 cc3a 0e60 baba 3471 953a 9fce 86b7

gru.weight_ih_l1 f4 [192, 64]
0.07003113 0.12292023 -0.0856622 0.0001429793 -0.12703243 0.020379728 0.054548237 0.029728383
0.09544429 -0.12091578 0.059425805 -0.07415194 0.14899771 -0.14411725 -0.017536765 0.052467786
0.077642545 0.12958187 -0.08009691 -0.049489073 0.13665862 -0.10896905 0.0064647184 -9.933921e-05
-0.067913234 0.026286941 -0.034131076 0.09781039 -0.123592496 -0.15243936 0.04212185 0.010038265
-0.13951975 -0.10176589 -0.06854567 0.05978385 -0.03925961 -0.13831623 0.022671476 0.016187299
-0.10455886 0.08568767 0.104249366 -0.018299393 0.040050037 -0.10099821 0.09481067 0.023561398
0.1225702 0.14891028 -0.07998122 0.0643808 0.030027604 -0.063123845 -0.11294347 0.09419458
-0.09373818 0.108743384 0.14605394 -0.019131027 -0.13057841 -0.1085343 -0.0361068 -0.03550588
-0.1436406 0.074611135 -0.005138761 0.056302596 -0.04698973 -0.08610477 0.13798817 0.03418072
0.03668557 0.106782936 0.07004662 0.029206911 -0.072261 0.048971932 0.11305619 0.12713642
0.000113180016 -0.14253686 -0.08854852 0.08536547 0.13911337 0.09562393 0.085918374 0.14548323
-0.04379575 0.10930884 -0.021523954 0.11114167 0.07021214 -0.008643455 -0.016651273 0.06735041
-0.035394058 -0.007486725 0.05386548 -0.07589975 -0.031991474 0.08256254 0.034525257 0.11358681
0.04393694 0.0774742 0.005416209 -0.04341273 -0.042373393 0.08061613 0.013661094 -0.038281567
-0.12278122 -0.07630976 0.11125784 0.011684349 0.07661007 -0.12492821 0.14164841 0.051466104
0.12451751 -0.041104198 0.11896475 -0.10580142 0.027026607 0.02383519 -0.06966041 -0.013639816
0.051349428 -0.07091466 0.014613813 0.04172322 -0.13710696 -0.05616836 0.09807108 -0.107531354
0.0047399737 0.1096844 -0.04141648 0.10136361 0.07632726 -0.076798484 0.13177542 0.12206208
0.11893854 0.041158948 0.102117926 -0.06514431 -0.0032048007 0.116212554 -0.13092427 0.026405778
0.13510147 0.0023541164 -0.066446535 -0.11046945 -0.07653839 -0.035503957 0.014382863 0.063588075
-0.08848033 -0.13004251 -0.009320518 -0.047229014 -0.063359134 -0.10546214 0.0067058415 0.001018127
0.04123735 0.0031346725 -0.07355074 -0.07251484 0.004887961 -0.04498626 -0.026703352 -0.041785765
-0.042715173 0.13902034 0.02054356 0.11695527 0.08754167 0.12079581 -0.021829255 -0.12962845
-0.08725847 -0.017420407 0.035949536 -0.037852462 -0.13932838 -0.08456109 0.12624198 -0.08876096
-0.10162518 0.10324342 -0.07272871 -0.008013673 0.13926913 0.13295104 0.13052712 -0.10202693
0.015915848 -0.0052643334 0.0035256355 0.14622088 0.08673902 -0.13396361 0.1502901 0.14336483
-0.1183326 -0.12819605 0.12152291 -0.0490363 -0.12183378 0.0628896 0.011678891 0.093507834
-0.10666509 0.14027621 -0.052451216 -0.090738036 0.056737255 -0.12500368 -0.12343938 -0.027936583
0.014312872 -0.054501083 -0.01229746 -0.14172673 0.10697598 -0.015078634 0.024225537 0.09092218
0.081405416 0.1265194 0.08782833 0.03908272 -0.09258471 0.10943385 -0.030036453 0.066808484
0.14644499 -0.08709901 -0.017732294 -0.10649536 -0.012242981 -0.03708583 -0.1061534 -0.050338693
0.058830578 -0.111987345 -0.01628864 0.11131033 0.12952511 -0.14560755 0.09313872 0.022869939
00000000: 7b6c 8f3d 9abd fb3d aa6f afbd b7ec 1539
00000010: ca14 02be 63f3 a63c f96d 5f3d f088 f33c
00000020: 4c78 c33d b1a2 f7bd 7968 733d f9dc 97bd
00000030: db92 183e 7993 13be 43a9 8fbc 76e8 563d
00000040: 0e03 9f3d 1cb1 043e d909 a4bd 0eb5 4abd
00000050: 3df0 0b3e 2a2b dfbd fdd5 d33b 5554 d0b8
00000060: 1816 8bbd b657 d73c 07cd 0bbd d050 c83d
00000070: 101e fdbd 1019 1cbe f687 2c3d 8977 243c
00000080: 44de 0ebe a36a d0bd ac61 8cbd e9df 743d
00000090: afce 20bd c5a2 0dbe 88b9 b93c 3a9b 843c
000000a0: f522 d6bd 047d af3d b180 d53d 9ce8 95bc
000000b0: 820b 243d 26d8 cebd 192c c23d d503 c13c
000000c0: 1606 fb3d f07b 183e 32cd a3bd 15da 833d
000000d0: 73fc f53c 1347 81bd e84e e7bd 17e9 c03d
000000e0: cef9 bfbd dab4 de3d 2a8f 153e acb8 9cbc
000000f0: 59b6 05be 3b47 debd b9e4 13bd 9d6e 11bd
00000100: 8516 13be b9cd 983d 0d63 a8bb 8d9d 663d
00000110: 4e78 40bd b357 b0bd c54c 0d3e 1501 0c3d
00000120: 9c43 163d 03b1 da3d 9a74 8f3d 5543 ef3c
00000130: 93fd 93bd cb96 483d 018a e73d 0d30 023e
00000140: 0f5b ed38 2ff5 11be ed58 b5bd 17d4 ae3d
00000150: bc73 0e3e 7bd6 c33d f9f5 af3d 8ef9 143e
00000160: 2c63 33bd 50dd df3d 0153 b0bc 3e9e e33d
00000170: 62cb 8f3d 479d 0dbc 4068 88bc 03ef 893d
00000180: 5cf9 10bd 3453 f5bb 0da2 5c3d 5471 9bbd
00000190: 7e09 03bd 8d16 a93d 5b6a 0d3d 34a0 e83d
000001a0: 39f7 333d cbaa 9e3d 747a b13b 8cd1 31bd
000001b0: b98f 2dbd 121a a53d c8d2 5f3c 22cd 1cbd
000001c0: b874 fbbd 4b48 9cbd 27db e33d b66f 3f3c
000001d0: bee5 9c3d 5dda ffbd 480c 113e 1fce 523d
000001e0: 0903 ff3d e05c 28bd caa3 f33d 6aae d8bd
000001f0: e766 dd3c 0442 c33c 1eaa 8ebd 8979 5fbc
00000200: c753 523d b53b 91bd c66e 6f3c f8e5 2a3d
00000210: c465 0cbe cb10 66bd 7ed9 c83d 6639 dcbd
00000220: c851 9b3b 37a2 e03d 54a4 29bd b997 cf3d
00000230: 7751 9c3d 8648 9dbd 23f0 063e affb f93d
00000240: 0d96 f33d 4996 283d 3423 d13d 616a 85bd
00000250: a207 52bb d900 ee3d 0311 06be ee50 d83c
00000260: 0a58 0a3e 8547 1a3b 1f15 88bd cf3d e2bd
00000270: 29c0 9cbd 996c 11bd 1aa6 6b3c 773a 823d
00000280: 2d35 b5bd dd29 05be 16b5 18bc 3673 41bd
00000290: 6fc2 81bd 89fc d7bd adbc db3b ac72 853a
000002a0: 7fe8 283d 146f 4d3b c5a1 96bd a982 94bd
000002b0: 302b a03b 8343 38bd fdc0 dabc 8d27 2bbd
000002c0: 1bf6 2ebd 595b 0e3e f84a a83c 3f86 ef3d
000002d0: 0c49 b33d cb63 f73d 44d3 b2bc 52bd 04be
000002e0: 92b4 b2bd 3eb5 8ebc d23f 133d 2f0b 1bbd
000002f0: 19ac 0ebe 5d2e adbd 9445 013e 4ec8 b5bd
00000300: dd20 d0bd 4971 d33d caf2 94bd c84b 03bc
00000310: 919c 0e3e 5124 083e e7a8 053e 7ff3 d0bd
00000320: f461 823c 6e80 acbb 590e 673b edba 153e
00000330: 3aa4 b13d c22d 09be a6e5 193e 3bce 123e
00000340: 5d58 f2bd d345 03be 01e1 f83d 4ada 48bd
00000350: fd83 f9bd 43cc 803d d258 3f3c 0981 bf3d
00000360: 3a73 dabd 91a4 0f3e 16d7 56bd ddd4 b9bd
00000370: 5365 683d f700 00be c9cd fcbd 43db e4bc
00000380: 8980 6a3c 873c 5fbd 497b 49bc d020 11be
00000390: 3916 db3d 600c 77bc a274 c63c 6835 ba3d
000003a0: e2b7 a63d 4d8e 013e 57df b33d 3415 203d
000003b0: 0d9d bdbd db1e e03d 020f f6bc e3d2 883d
000003c0: adf5 153e f760 b2bd 5143 91bc 3d1a dabd
000003d0: c996 48bc 50e7 17bd f466 d9bd f22f 4ebd
000003e0: 55f8 703d 9f59 e5bd c16f 85bc acf6 e33d
000003f0: 3ba2 043e 251a 15be 83bf be3d bd59 bb3c

gru.weight_hh_l1 f4 [192, 64]
0.05172094 -0.10805238 -0.036400408 0.118190125 0.12254792 -0.08023644 0.090599865 -0.055565417
-0.14358422 0.14927448 0.027937934 0.06629013 0.0771571 0.08551965 -0.034813613 0.13440427
-0.057285357 0.07789169 0.12432251 0.14362605 -0.15160584 0.08382839 -0.083410144 -0.0033563839
0.06881474 0.049495395 0.14179969 -0.034853097 -0.054879893 0.117631465 0.0056332666 0.058697183
0.093206696 0.12229634 0.02224797 -0.03130558 0.1350779 -0.053514928 -0.029458646 -0.14252819
0.0083304765 -0.1398647 -0.07964134 -0.123404816 -0.062408905 0.044725478 -0.01192471 -0.032299414
-0.11144356 -0.029761242 0.075514495 -0.090923935 0.14832179 -0.01277463 -0.094936095 0.045597035
0.030976236 0.015355838 -0.0629721 0.1129631 0.10077968 0.094693206 -0.065610774 -0.06869262
0.14038585 0.12300461 0.14505513 -0.12937677 0.050451975 -0.07620756 -0.07824854 0.11687362
0.04521412 -0.13921691 0.11404983 0.051957835 -0.12782536 -0.106756054 -0.038941868 0.11501964
-0.07816723 0.018681467 0.13240151 0.007792606 -0.02452524 0.031391587 -0.09595122 -0.10454903
-0.07916478 -0.089975074 -0.051044077 0.14496352 0.05628247 -0.023053424 -0.015383307 -0.11403677
-0.113849826 -0.009437753 -0.118007354 -0.08700196 -0.005435201 0.07216852 0.09618217 0.1478542
0.051881026 0.14905106 -0.06689722 -0.09471619 0.0875145 0.036436513 0.02413822 -0.10191161
-0.12322904 -0.14995338 -0.095900185 -0.10273431 -0.09520287 -0.076489 -0.027577417 -0.04901035
-0.11100679 -0.019365828 0.009712293 -0.05834378 -0.15084432 -0.15207125 -0.097321674 0.115437925
-0.06029951 -0.042738978 0.034192517 -0.04870928 -0.13025992 -0.05565214 -0.118715964 0.009514992
-0.025436597 -0.13968171 0.12737732 -0.0017640357 0.035001203 -0.10214914 0.016690906 -0.019988403
-0.015777545 -0.024092758 0.050951093 -0.0067212037 0.05989225 -0.052976973 0.08849452 -0.0193281
-0.08274073 -0.15010437 0.065351926 -0.018303815 0.007315165 0.042359024 0.148291 -0.14640617
-0.14931431 0.049868852 -0.0053412938 -0.015257122 0.071944 -0.057815704 -0.13109268 -0.065318756
-0.13769384 0.037505455 -0.006769079 0.13307452 -0.084282145 0.08718377 -0.08483289 0.09878297
0.043954376 -0.08287044 -0.07052476 0.040458106 -0.067639425 0.041344862 0.08855503 -0.116089515
-0.10224597 0.08251397 -0.1244867 -0.04892295 -0.1338857 -0.026801271 0.123188004 -0.114511035
-0.026749022 0.087350436 0.04466538 0.13460203 -0.11363143 -0.087752916 0.13173398 -0.06785355
0.025252603 -0.13769661 -0.04988734 -0.042109083 -0.12802199 0.018707639 0.15075396 0.06207532
-0.13347687 0.013601851 0.029643828 -0.079792134 0.06972044 -0.07988413 -0.05983266 -0.048913255
-0.059223507 -0.104603425 -0.057834614 -0.08254657 0.058351174 0.04182681 -0.005086042 -0.0492692
-0.12231386 0.14897433 0.016824415 0.11627963 -0.035642464 -0.02119934 -0.045855004 0.019898403
-0.091300644 0.14691289 0.06471582 -0.0077164373 0.14429772 -0.052832287 -0.112751745 0.012313856
-0.0039148983 0.023919765 0.12763093 -0.03139648 0.06950437 0.009411249 -0.091668814 0.0709511
0.06126717 0.07672175 -0.038339872 -0.048264977 0.15232544 0.06138282 -0.07310913 -0.01640143
00000000: 56d9 533d 914a ddbd 9818 15bd aa0d f23d
00000010: 67fa fa3d 0153 a4bd 6c8c b93d 9098 63bd
00000020: be07 13be 69db 183e 18de e43c 1fc3 873d
00000030: 8b04 9e3d ed24 af3d b898 0ebd 46a1 093e
00000040: 0da4 6abd ae85 9f3d cd9c fe3d b512 133e
00000050: 903e 1bbe 38ae ab3d f0d2 aabd c7f6 5bbb
00000060: beee 8c3d afbb 4a3d f033 113e 1fc2 0ebd
00000070: bdc9 60bd c4e8 f03d 4497 b83b 756c 703d
00000080: 27e3 be3d 8176 fa3d 6041 b63c 483a 00bd
00000090: dc51 0a3e 7832 5bbd 4253 f1bc e9f2 11be
000000a0: 8d7c 083c b138 0fbe 001b a3bd aabb fcbd
000000b0: 7ba0 7fbd 1032 373d dc5f 43bc 644c 04bd
000000c0: 853c e4bd d9cd f3bc 58a7 9a3d 5436 babd
000000d0: abe1 173e af4c 51bc db6d c2bd f5c3 3a3d
000000e0: e0c1 fd3c 0e97 7b3c 84f7 80bd 3359 e73d
000000f0: 9465 ce3d 83ee c13d f15e 86bd b7ae 8cbd
00000100: 4fc1 0f3e d7e9 fb3d 5589 143e 587b 04be
00000110: bba6 4e3d b612 9cbd c540 a0bd 705b ef3d
00000120: 7132 393d e18e 0ebe f592 e93d bdd1 543d
00000130: a7e4 02be eba2 dabd 8281 1fbd 6b8f eb3d
00000140: 2416 a0bd e009 993c 4394 073e 1e59 ff3b
00000150: 28e9 c8bc 7794 003d 1382 c4bd cd1d d6bd
00000160: 2521 a2bd da44 b8bd 9813 51bd 5171 143e
00000170: 7288 663d 89da bcbc 440a 7cbc 1c8c e9bd
00000180: 192a e9bd cea0 1abc d7ad f1bd 152e b2bd
00000190: c519 b2bb 17cd 933d 28fb c43d 1767 173e
000001a0: 3381 543d d7a0 183e 6901 89bd 90fa c1bd
000001b0: cd3a b33d 743e 153d 84bd c53c 09b7 d0bd
000001c0: 825f fcbd 618d 19be 5167 c4bd 5e66 d2bd
000001d0: b9f9 c2bd 44a6 9cbd 09ea e1bc 14bf 48bd
000001e0: 8757 e3bd 16a5 9ebc 4f20 1f3c e3f9 6ebd
000001f0: ef76 1abe 91b8 1bbe 9650 c7bd b86a ec3d
00000200: 9efc 76bd 110f 2fbd 740d 0c3d 6283 47bd
00000210: db62 05be 80f3 63bd 5b21 f3bd c5e4 1b3c
00000220: 6960 d0bc b908 0fbe 336f 023e 3737 e7ba
00000230: 6c5d 0f3d 9133 d1bd 5ebb 883c b8be a3bc
00000240: e93f 81bc 2d5e c5bc 18b2 503d 8b3d dcbb
00000250: 9351 753d 62fe 58bd 9d3c b53d f755 9ebc
00000260: f973 a9bd f6b4 19be 3bd7 853d e2f1 95bc
00000270: 0db4 ef3b a880 2d3d 99d9 173e 80eb 15be
00000280: dae5 18be 4843 4c3d 0506 afbb 02f9 79bc
00000290: 6057 933d 29d0 6cbd 293d 06be d7c5 85bd
000002a0: 9dff 0cbe 529f 193d 26cf ddbb b044 083e
000002b0: 1e9c acbd 688d b23d debc adbd ba4e ca3d
000002c0: 8109 343d fab7 a9bd 496f 90bd 66b7 253d
000002d0: 8a86 8abd 3b59 293d 575c b53d 57c0 edbd
000002e0: 5666 d1bd 16fd a83d e2f2 febd 6e63 48bd
000002f0: 5519 09be 578e dbbc fe49 fc3d c384 eabd
00000300: c420 dbbc c9e4 b23d 0cf3 363d 1dd5 093e
00000310: 98b7 e8bd cdb7 b3bd 46e5 063e cdf6 8abd
00000320: 8cde ce3c 5700 0dbe ab56 4cbd 937a 2cbd
00000330: 3218 03be c340 993c 3f5f 1a3e b142 7e3d
00000340: 29ae 08be 4cda 5e3c 9dd7 f23c 0f6a a3bd
00000350: 97c9 8e3d 4a9a a3bd 1713 75bd 4459 48bd
00000360: 5994 72bd 523a d6bd fde3 6cbd 2d0e a9bd
00000370: a401 6f3d 9752 2b3d d0a8 a6bb 80ce 49bd
00000380: b07f fabd ba8c 183e 5bd3 893c 0424 ee3d
00000390: d5fd 11bd 3daa adbc 75d2 3bbd fa01 a33c
000003a0: d5fb babd 5570 163e ba89 843d 2bda fcbb
000003b0: c8c2 133e ab66 58bd 63ea e6bd 0ec0 493c
000003c0: 8c48 80bb 62f3 c33c afb1 023e 9899 00bd
000003d0: 4f58 8e3d a431 1a3c dcbc bbbd cf4e 913d
000003e0: 49f3 7a3d 4b20 9d3d 450a 1dbd 7fb1 45bd
000003f0: 33fb 1b3e 8d6c 7b3d 3dba 95bd 4b5c 86bc

gru.bias_ih_l1 f4 [192]
0.00035507066 -0.0016707077 0.00049221417 0.00010739799 -0.00018167697 0.000825568 -0.0025444569 -0.0018779505
-0.0016515047 0.00021900736 5.98887e-05 0.0012070294 0.00205624 -0.0014305933 -0.0010277663 -0.00032561165
-0.0007512684 0.0018001414 -0.0012352229 -0.001103519 -0.0019687712 0.0001364079 0.000571125 0.0007042579
-0.0005136628 -0.001386955 -0.00043151688 -0.00030379216 -0.0010217436 -0.0018682815 -0.0013992452 -0.0007957028
-0.0005216711 0.0010456946 -0.000540698 0.001565067 -0.001266833 0.0009110821 -0.00018697427 -0.00025586344
3.698304e-05 0.0010590529 0.0011153488 -0.0012303033 0.0012676363 0.0007311953 -0.001196033 0.00035028174
0.000649085 -0.00046914004 -0.00034153272 0.00015877365 0.00065497553 0.0013228387 -0.00046298717 -0.0018513006
0.0005570697 -0.0012014935 0.0010536875 -0.0013703366 0.0010990727 0.00034404278 0.0003472344 0.00025955186
0.0005927976 0.0008431964 -0.00064399105 0.00019949739 0.00020146764 0.0016225156 0.00047616888 0.0011704523
0.00017259427 0.00095537363 0.0010468718 0.0003339586 0.0013731014 0.0010802404 0.0008790524 0.0008258013
0.0016579202 -2.977864e-05 0.00097461214 0.0005717194 0.0013598605 0.0004404318 -0.0011610445 0.00097633136
0.001243735 4.290458e-05 -0.0006603577 0.0015491772 0.0021196455 -0.0006926621 0.0012739159 0.0014451584
-0.00053964823 0.0002243205 0.00040029085 -0.0005218835 0.0017678139 0.00036628547 0.0017151423 0.0012536014
1.9123772e-05 -0.0002158706 0.00011859942 0.0007791078 0.0012230218 -0.00073737506 0.00021996445 0.00036265727
0.00016011375 -0.00036343263 0.0007061102 0.0019824414 0.002562682 -0.00012844906 0.0023806973 0.0005590248
-0.00024485387 9.845878e-05 0.00043194796 7.694891e-05 0.0004886441 -0.00014772634 9.116012e-06 0.00046073602
0.001306638 -0.00058332994 -0.0017159794 0.0013190154 -0.0011222374 0.0015750527 -0.0016240097 0.0015893924
0.00033053345 0.0015263093 -0.0012562893 -0.0007015505 0.0012793634 -0.0015985324 0.0018217231 0.0016272509
-0.0017730091 -0.0017417056 -0.0017546763 0.0011499503 -0.0013161056 0.0005864602 -0.0014339426 0.0015466363
-0.0016841416 -0.0010131237 -0.001050696 -0.0017615978 0.001444214 0.0016246438 0.0015117514 0.0016292619
0.0015346081 0.0012831928 -0.00021626418 0.0016712109 -0.0014939549 0.0013746934 -0.0014988352 0.001626559
-0.00038924723 -0.0016273606 0.0014851192 -0.0009121507 -0.001179832 0.001582257 0.0012408814 0.00041359683
0.0018368178 0.0010671967 -0.0014877341 -0.0016087331 0.0013757126 0.00042542702 -0.00115161 0.0015653205
0.0015577693 0.00032488347 -0.0015498183 -0.0014380118 -0.0015751078 -0.0015757352 -0.00047389485 -0.0012104207
00000000: c728 ba39 a6fb daba ef07 013a db3a e138
00000010: 8a80 3eb9 ee6a 583a e7c0 26bb 9025 f6ba
00000020: 4d77 d8ba 57a5 6539 0131 7b38 3035 9e3a
00000030: fcc1 063b bf82 bbba 1db6 86ba dbb6 aab9
00000040: c5f0 44ba b9f2 eb3a 34e7 a1ba f4a3 90ba
00000050: 8006 01bb b808 0f39 8db7 153a f39d 383a
00000060: 54a7 06ba 7dca b5ba 373d e2b9 4b46 9fb9
00000070: 07ec 85ba 20e1 f4ba e166 b7ba b696 50ba
00000080: c1c0 08ba b00f 893a a1bd 0dba ef22 cd3a
00000090: dd0b a6ba afd5 6e3a 860e 44b9 6925 86b9
000000a0: 3d1e 1b38 ebcf 8a3a e530 923a 2142 a1ba
000000b0: d126 a63a b0ad 3f3a 35c4 9cba 05a6 b739
000000c0: 5b27 2a3a e9f6 f5b9 bf0f b3b9 7a7c 2639
000000d0: aab2 2b3a 1a63 ad3a 16bd f2b9 57a7 f2ba
000000e0: 5108 123a 6f7b 9dba e31b 8a3a de9c b3ba
000000f0: c30e 903a a460 b439 030d b639 7614 8839
00000100: f965 1b3a f409 5d3a 82d1 28ba 2c30 5139
00000110: 0f41 5339 97aa d43a 4ea6 f939 dd69 993a
00000120: 6cfa 3439 0a72 7a3a 3037 893a 2a17 af39
00000130: a3f9 b33a da96 8d3a 3570 663a 967a 583a
00000140: 924e d93a 24cd f9b7 1d7d 7f3a 71df 153a
00000150: 593d b23a c1e9 e639 302e 98ba 7df0 7f3a
00000160: d204 a33a 71f4 3338 db1b 2dba c30d cb3a
00000170: c0e9 0a3b c493 35ba 86f9 a63a 786b bd3a
00000180: 2e77 0dba 9337 6b39 21de d139 02cf 08ba
00000190: feb5 e73a 010a c039 a0ce e03a e24f a43a
000001a0: fd6b a037 535b 62b9 94b8 f838 0a3d 4c3a
000001b0: cd4d a03a 674c 41ba 42a6 6639 0923 be39
000001c0: 35e4 2739 1a8b beb9 411a 393a d9eb 013b
000001d0: abf2 273b 48b0 06b9 7905 1c3b 858b 123a
000001e0: bb5f 80b9 a87b ce38 1377 e239 a25f a138
000001f0: 5a18 003a fde6 1ab9 f9f0 1837 f18e f139
00000200: 7f43 ab3a 9cea 18ba b7ea e0ba d0e2 ac3a
00000210: 0a18 93ba 0072 ce3a b9dc d4ba 2953 d03a
00000220: 734b ad39 710e c83a 13aa a4ba 42e8 37ba
00000230: 50b0 a73a d985 d1ba e2c6 ee3a 7b49 d53a
00000240: 5064 e8ba f149 e4ba 2bfd e5ba eeb9 963a
00000250: 2d81 acba aebc 193a 21f3 bbba 81b8 ca3a
00000260: 6abe dcba caca 84ba 82b7 89ba 6ae5 e6ba
00000270: c84b bd3a 00f2 d43a f625 c63a f58c d53a
00000280: e724 c93a ce30 a83a f9c4 62b9 880c db3a
00000290: cfd0 c3ba 0e2f b43a 9074 c4ba 4332 d53a
000002a0: e113 ccb9 294d d5ba 55a8 c23a 661d 6fba
000002b0: 98a4 9aba bc63 cf3a 12a5 a23a 07d8 d839
000002c0: 61c1 f03a 2ee1 8b3a 1300 c3ba 20dc d2ba
000002d0: 4151 b43a d90b df39 9ff1 96ba 712b cd3a
000002e0: 102e cc3a 1f55 aa39 4623 cbba ab7b bcba
000002f0: d973 ceba e688 ceba 1775 f8b9 fba6 9eba

gru.bias_hh_l1 f4 [192]
0.00035507066 -0.0016707077 0.00049221417 0.00010739799 -0.00018167697 0.000825568 -0.0025444569 -0.0018779505
-0.0016515047 0.00021900736 5.98887e-05 0.0012070294 0.00205624 -0.0014305933 -0.0010277663 -0.00032561165
-0.0007512684 0.0018001414 -0.0012352229 -0.001103519 -0.0019687712 0.0001364079 0.000571125 0.0007042579
-0.0005136628 -0.001386955 -0.00043151688 -0.00030379216 -0.0010217436 -0.0018682815 -0.0013992452 -0.0007957028
-0.0005216711 0.0010456946 -0.000540698 0.001565067 -0.001266833 0.0009110821 -0.00018697427 -0.00025586344
3.698304e-05 0.0010590529 0.0011153488 -0.0012303033 0.0012676363 0.0007311953 -0.001196033 0.00035028174
0.000649085 -0.00046914004 -0.00034153272 0.00015877365 0.00065497553 0.0013228387 -0.00046298717 -0.0018513006
0.0005570697 -0.0012014935 0.0010536875 -0.0013703366 0.0010990727 0.00034404278 0.0003472344 0.00025955186
0.0005927976 0.0008431964 -0.00064399105 0.00019949739 0.00020146764 0.0016225156 0.00047616888 0.0011704523
0.00017259427 0.00095537363 0.0010468718 0.0003339586 0.0013731014 0.0010802404 0.0008790524 0.0008258013
0.0016579202 -2.977864e-05 0.00097461214 0.0005717194 0.0013598605 0.0004404318 -0.0011610445 0.00097633136
0.001243735 4.290458e-05 -0.0006603577 0.0015491772 0.0021196455 -0.0006926621 0.0012739159 0.0014451584
-0.00053964823 0.0002243205 0.00040029085 -0.0005218835 0.0017678139 0.00036628547 0.0017151423 0.0012536014
1.9123772e-05 -0.0002158706 0.00011859942 0.0007791078 0.0012230218 -0.00073737506 0.00021996445 0.00036265727
0.00016011375 -0.00036343263 0.0007061102 0.0019824414 0.002562682 -0.00012844906 0.0023806973 0.0005590248
-0.00024485387 9.845878e-05 0.00043194796 7.694891e-05 0.0004886441 -0.00014772634 9.116012e-06 0.00046073602
0.0011213523 -0.000691098 -0.0016206966 0.0012939338 -0.0013536308 0.001337722 -0.001683169 0.0015410265
0.0004914489 0.0014845752 -0.0014029074 -0.00073130894 0.0010465762 -0.0017883873 0.0019816954 0.0014207598
-0.0012368382 -0.0016900003 -0.0015752593 0.0012116134 -0.0012512163 0.00067305786 -0.0016062051 0.0015497536
-0.001708283 -0.0010847595 -0.00094575447 -0.0015842756 0.001213961 0.0014573081 0.0013868522 0.0018592832
0.0014782564 0.0012957958 -0.00013218919 0.0018919342 -0.0013856712 0.0017172795 -0.0014201497 0.001421018
-0.00049904484 -0.0016058867 0.0017044933 -0.0008997746 -0.0012805231 0.0017404411 0.001161953 0.0003546837
0.001652643 0.0011901895 -0.0011157424 -0.0013661262 0.0013643721 0.0005538339 -0.0009897476 0.0016072867
0.0015195092 0.00037975857 -0.0014864707 -0.0015307711 -0.0017765972 -0.0018646806 -0.00039464692 -0.001179845
00000000: c728 ba39 a6fb daba ef07 013a db3a e138
00000010: 8a80 3eb9 ee6a 583a e7c0 26bb 9025 f6ba
00000020: 4d77 d8ba 57a5 6539 0131 7b38 3035 9e3a
00000030: fcc1 063b bf82 bbba 1db6 86ba dbb6 aab9
00000040: c5f0 44ba b9f2 eb3a 34e7 a1ba f4a3 90ba
00000050: 8006 01bb b808 0f39 8db7 153a f39d 383a
00000060: 54a7 06ba 7dca b5ba 373d e2b9 4b46 9fb9
00000070: 07ec 85ba 20e1 f4ba e166 b7ba b696 50ba
00000080: c1c0 08ba b00f 893a a1bd 0dba ef22 cd3a
00000090: dd0b a6ba afd5 6e3a 860e 44b9 6925 86b9
000000a0: 3d1e 1b38 ebcf 8a3a e530 923a 2142 a1ba
000000b0: d126 a63a b0ad 3f3a 35c4 9cba 05a6 b739
000000c0: 5b27 2a3a e9f6 f5b9 bf0f b3b9 7a7c 2639
000000d0: aab2 2b3a 1a63 ad3a 16bd f2b9 57a7 f2ba
000000e0: 5108 123a 6f7b 9dba e31b 8a3a de9c b3ba
000000f0: c30e 903a a460 b439 030d b639 7614 8839
00000100: f965 1b3a f409 5d3a 82d1 28ba 2c30 5139
00000110: 0f41 5339 97aa d43a 4ea6 f939 dd69 993a
00000120: 6cfa 3439 0a72 7a3a 3037 893a 2a17 af39
00000130: a3f9 b33a da96 8d3a 3570 663a 967a 583a
00000140: 924e d93a 24cd f9b7 1d7d 7f3a 71df 153a
00000150: 593d b23a c1e9 e639 302e 98ba 7df0 7f3a
00000160: d204 a33a 71f4 3338 db1b 2dba c30d cb3a
00000170: c0e9 0a3b c493 35ba 86f9 a63a 786b bd3a
00000180: 2e77 0dba 9337 6b39 21de d139 02cf 08ba
00000190: feb5 e73a 010a c039 a0ce e03a e24f a43a
000001a0: fd6b a037 535b 62b9 94b8 f838 0a3d 4c3a
000001b0: cd4d a03a 674c 41ba 42a6 6639 0923 be39
000001c0: 35e4 2739 1a8b beb9 411a 393a d9eb 013b
000001d0: abf2 273b 48b0 06b9 7905 1c3b 858b 123a
000001e0: bb5f 80b9 a87b ce38 1377 e239 a25f a138
000001f0: 5a18 003a fde6 1ab9 f9f0 1837 f18e f139
00000200: 57fa 923a cd2a 35ba 8e6d d4ba 3799 a93a
00000210: 506c b1ba 8056 af3a c89d dcba 45fc c93a
00000220: 94d4 003a 1496 c23a c3e1 b7ba 50b5 3fba
00000230: 452d 893a 5268 eaba 55df 013b ca38 ba3a
00000240: 671d a2ba 0083 ddba ee78 ceba 00cf 9e3a
00000250: daff a3ba 2670 303a 4d87 d2ba 1a21 cb3a
00000260: 77e8 dfba 7d2e 8eba 82ec 77ba 78a7 cfba
00000270: c61d 9f3a 2503 bf3a 0ac7 b53a 31b3 f33a
00000280: 0ec2 c13a b1d7 a93a 449c 0ab9 c7fa f73a
00000290: 699f b5ba 5716 e13a 5124 baba 7441 ba3a
000002a0: 55d2 02ba 9e7c d2ba 4e69 df3a dade 6bba
000002b0: 3ad7 a7ba 831f e43a ac4c 983a d7f4 b939
000002c0: 7f9d d83a 2200 9c3a 1a3e 92ba 970f b3ba
000002d0: bbd4 b23a 2a2f 113a 6bba 81ba 98ab d23a
000002e0: 452a c73a 551a c739 aed5 c2ba 28a4 c8ba
000002f0: b6dc e8ba 4c68 f4ba 9de8 ceb9 07a5 9aba

fc.weight f4 [1, 64]
0.22550036 -0.030471977 -0.0696347 0.2050673 0.055853143 0.15312582 -0.28711495 0.15387174
-0.0041706143 0.15391749 -0.25895128 0.06951356 0.23245348 -0.25686288 0.11751166 0.07323008
-0.2238986 -0.09836179 -0.21995649 0.12821716 -0.29359472 0.06257443 -0.09961108 0.2713174
-0.21515565 -0.22830944 0.044407353 -0.2944959 0.19306962 -0.0031519567 0.23020774 0.069956645
-0.027301721 0.24564077 -0.021887017 0.1785954 -0.06441476 0.10107105 -0.27282873 0.28524637
0.026415056 -0.037357718 0.026598312 -0.17272703 -0.09162072 0.09890784 0.19088149 -0.009853974
0.08476921 0.008122307 -0.28781432 -0.05499588 0.2759437 0.029119814 -0.21921302 0.14356893
0.10572501 0.008139547 -0.15211357 -0.29626986 -0.119255066 -0.024343805 -0.04548257 -0.25037873
00000000: 91e9 663e 5ea0 f9bc a39c 8ebd 2afd 513e
00000010: 44c6 643d 04cd 1c3e bb00 93be 8e90 1d3e
00000020: a6a9 88bb 8c9c 1d3e 4395 84be 205d 8e3d
00000030: 4908 6e3e 8883 83be f4a9 f03d a7f9 953d
00000040: ad45 65be e871 c9bd 463c 61be 5c4b 033e
00000050: 0c52 96be 0627 803d e500 ccbd 1dea 8a3e
00000060: c351 5cbe f3c9 69be 7ce4 353d 2bc8 96be
00000070: 0bb4 453e 0f91 4ebb 94bb 6b3e 6e45 8f3d
00000080: dca7 dfbc 4189 7b3e 674c b3bc b6e1 363e
00000090: e3eb 83bd 57fe ce3d 35b0 8bbe d00b 923e
000000a0: 6364 d83c 6804 19bd b4e4 d93c 5bdf 30be
000000b0: a5a3 bbbd 3290 ca3d 7076 433e 9072 21bc
000000c0: 7b9b ad3d 6d13 053c 665c 93be 5c43 61bd
000000d0: 7e48 8d3e ad8c ee3c 6179 60be bc03 133e
000000e0: 5b86 d83d bc5b 053c a9c3 1bbe afb0 97be
000000f0: 003c f4bd a96c c7bc ee4b 3abd a431 80be
