backup_before_cleanup/artifacts/models/simple_optimized/simple_lstm_fold_2.pt (torch, 292005 bytes, 15 tensors)

lstm.weight_ih_l0 f4 [256, 10]
0	0xbcc07bdc	-0.02349656
1	0x3d74ef7d	0.059798706
2	0x3ded6185	0.11590866
3	0x3dd4a0c3	0.10382225
4	0x3debf2e3	0.11520936
5	0xbd3dc9b5	-0.04633494
6	0x3b5fbeea	0.0034140893
7	0x3d625ee0	0.05526626
8	0x3de46a82	0.11153127
9	0xbdc904f3	-0.09815397
10	0x3bb5564f	0.0055339704
11	0x3d103da4	0.035215035
12	0x3de9aad0	0.11409533
13	0x3dee4b34	0.116354376
14	0x3cb35253	0.021889841
15	0x3b228ab2	0.0024801907
16	0xbd7fffc0	-0.06249976
17	0x3dd21183	0.10257246
18	0x3d6b6868	0.057472616
19	0xbd062463	-0.032749545
20	0xbdc76b87	-0.09737306
21	0x3de014ad	0.109414436
22	0xbddd7a76	-0.10814373
23	0x3dbffa5d	0.09373925
24	0x3c2f6c67	0.0107069975
25	0xbd6a37aa	-0.05718199
26	0xbd709142	-0.05873228
27	0x3ced8503	0.028994089
28	0xbdb813c5	-0.08988146
29	0x3da80dbc	0.082057446
30	0x3beb71b4	0.0071851853
31	0xbd60aec9	-0.054854188
32	0x3d9242de	0.0714166
33	0xbd8b1adb	-0.06792232
34	0xbb7e09ad	-0.0038763091
35	0x3dab74e1	0.08371902
36	0x3c30dbde	0.010794608
37	0xbe0257d2	-0.12728813
38	0x3d1f3786	0.03887131
39	0xbd8a1bde	-0.067435965
40	0x3bec5d4f	0.0072132717
41	0x3de9fd64	0.114252836
42	0xbbfd8bc4	-0.0077376086
43	0xbb40773a	-0.002936794
44	0x3d66165e	0.056173675
45	0x3dae100d	0.08499155
46	0x3d837eca	0.064206675
47	0x3ddb8164	0.10718039
48	0x3d86d1a9	0.06582958
49	0xbcfa7b82	-0.030576471
50	0x3d50d803	0.050987255
51	0x3b8f1782	0.004366816
52	0x3db49fa7	0.08819514
53	0x3dd77771	0.105208285
54	0x3df464ab	0.119332634
55	0x3d249b84	0.040187374
56	0x3d2dc1bf	0.0424211
57	0x3dc7533a	0.09732671
58	0xbd8eff6a	-0.0698231
59	0x3df18685	0.11793236
60	0x3d99e411	0.07514203
61	0x3d673647	0.056448247
62	0xbc96535c	-0.018350296
63	0xbc52c775	-0.012864937
64	0x3dda2493	0.10651507
65	0xbd0f9bb5	-0.035060603
66	0x3df9e570	0.12201965
67	0x3dec217b	0.115298234
68	0xbdb089ba	-0.08620019
69	0xbdde93a7	-0.10868006
70	0x3dc573c8	0.09641224
71	0x3de0a0c2	0.10968162
72	0x3dcdd7f4	0.100509554
73	0xbd8f2b3a	-0.06990667
74	0xbc774951	-0.015093164
75	0x3def8a1d	0.11696265
76	0xbd84144f	-0.06449186
77	0x3dcf166f	0.10111701
78	0xbc73fb4b	-0.014891456
79	0x3dbd41e8	0.09241086
80	0xbc2cc2ca	-0.010544488
81	0xbd88d6cf	-0.066815965
82	0x3dbdc144	0.09265378
83	0x3a492bae	0.000767405
84	0xbe00959a	-0.12557068
85	0xbdd5498f	-0.10414421
86	0xbdb2065e	-0.08692621
87	0xbe0d89b1	-0.13822056
88	0xbd87c04b	-0.06628474
89	0x3ca53681	0.020167591
90	0xbdd774a1	-0.10520292
91	0xbd8f55bd	-0.06998775
92	0x3d7a8498	0.061161608
93	0x3d0a981f	0.03383648
94	0x3d93fd88	0.072260916
95	0xbc542f71	-0.012950764
96	0xbd2da5fa	-0.042394616
97	0x3c95f3c3	0.018304711
98	0xbdfc389d	-0.123154856
99	0xbdddfb4a	-0.10838945
100	0xba8a4737	-0.0010549788
101	0xbdb5ae9d	-0.088711955
102	0x3b8d5493	0.0043130605
103	0xbd71d6f4	-0.059042886
104	0x3dd3b5c1	0.10337401
105	0x3ac81145	0.0015263936
106	0x3dd77761	0.105208166
107	0xbb631393	-0.0034649118
108	0x3db880fa	0.09008975
109	0x3cbc0a05	0.022953996
110	0x3de5a222	0.11212565
111	0x3da21319	0.07913799
112	0x3d93aed1	0.07211078
113	0x3da04683	0.07825949
114	0x3d9f28b8	0.07771438
115	0xbe08342d	-0.13301153
116	0x3df3db2d	0.11907039
117	0xba50d9de	-0.0007967035
118	0x3daf5637	0.08561366
119	0xbd08ebf8	-0.033428162
120	0x3cf0f242	0.029412393
121	0x3dc2f3a4	0.09519127
122	0xbe0e3a19	-0.1388935
123	0xbc96a35e	-0.018388446
124	0xbd098fe1	-0.03358448
125	0xbd730b77	-0.059337106
126	0x3dcaae7f	0.09896564
127	0xbd99f620	-0.07517648
128	0xbaf820ee	-0.0018930712
129	0x3dc8d493	0.0980617
130	0x3d7d70c4	0.06187512
131	0x3de4ca7c	0.11171433
132	0xbd29ad61	-0.041425113
133	0x3c12355e	0.008923857
134	0x3d0df1b7	0.034654345
135	0x3cfa8a16	0.030583423
136	0x3e0ca40d	0.13734455
137	0x3da145b7	0.07874625
138	0xbddf06f0	-0.10889995
139	0x3da27612	0.079326764
140	0xbd444a79	-0.047922585
141	0xbc935170	-0.017983168
142	0xbc866374	-0.016404845
143	0xbb16fb32	-0.0023037908
144	0xbd907f92	-0.07055582
145	0xbd010e7e	-0.03150796
146	0x3dc32d01	0.09530068
147	0x3dbd8d70	0.09255493
148	0x3e0be47c	0.13661379
149	0x3d1f4e16	0.038892828
150	0x3d97dac1	0.07414771
151	0xbd074a9f	-0.03303015
152	0x3df4d50d	0.11954699
153	0x3d303c51	0.043026272
154	0x3de72d45	0.11287931
155	0x3d9a48b9	0.07533402
156	0xbdb7e77f	-0.08979701
157	0x3d59bee4	0.053160563
158	0x3d868842	0.06568958
159	0xbdc51aae	-0.09624229
160	0xbdbb6427	-0.09149962
161	0xbd55dfc8	-0.052215368
162	0x3dc48c6e	0.09597097
163	0x3dfaa80d	0.122390844
164	0x3b02a13a	0.0019932524
165	0xbd36d509	-0.04463676
166	0x3e072471	0.13197495
167	0xbde5f9ec	-0.112293094
168	0xbd9bcd4e	-0.07607518
169	0x3df026a6	0.117261216
170	0x3db91580	0.09037304
171	0xbbe82963	-0.007085012
172	0x3ddbe016	0.107361004
173	0xbbdf40cd	-0.006813145
174	0xbccc2c40	-0.024923444
175	0x3cfa1597	0.030527873
176	0x3dc9d4ba	0.098550275
177	0x3c8e5497	0.01737432
178	0xbcf72b5d	-0.030172044
179	0x3de41cd9	0.11138315
180	0xbdc63e9e	-0.09679912
181	0x3c8c2dd4	0.017111696
182	0xbcf88e2d	-0.030341232
183	0xbe02c727	-0.12771283
184	0xbc821c46	-0.015882622
185	0xbd8bda89	-0.06828792
186	0x3dd9ab12	0.10628332
187	0xbde7a427	-0.113106064
188	0xbe00af6e	-0.12566921
189	0xbde704c7	-0.11280208
190	0xbdbaaaa7	-0.091145806
191	0xbc970334	-0.018434145
192	0xbcc4fc4f	-0.024046091
193	0x3dcbddfd	0.0995445
194	0xbc13f185	-0.009029751
195	0xbdabe89d	-0.08393977
196	0xbdb8d0a6	-0.090241715
197	0x3d9cfec5	0.07665781
198	0xbdd631c6	-0.10458712
199	0xbe0cb0e7	-0.13739358
200	0x3ddf76fd	0.10911367
201	0x3d863609	0.06553275
202	0xbd5b1a73	-0.05349202
203	0xbb6c42fc	-0.0036050668
204	0xbda9a221	-0.08282877
205	0x3de88512	0.11353506
206	0x3dd0f926	0.10203771
207	0x3c8ec335	0.017427066
208	0x3ca752a9	0.020425158
209	0x3cc2294a	0.023701329
210	0x3d0b516e	0.034013204
211	0xbd23679f	-0.039893743
212	0xbd7df3dd	-0.062000144
213	0xbcc383d6	-0.023866575
214	0x3b7387e7	0.0037159862
215	0xbc17b45f	-0.009259312
216	0xbda77846	-0.08177237
217	0x3d8de589	0.06928546
218	0xbd9743fc	-0.07386014
219	0xbdd5ac3f	-0.10433244
220	0x3debf87c	0.11522004
221	0x3d8612c9	0.06546552
222	0xbe036c00	-0.12834167
223	0xbc0296d7	-0.007970533
224	0x3da135c5	0.07871584
225	0xbdb5275c	-0.08845398
226	0x3d55c6f4	0.05219169
227	0x3c3b5cf4	0.011435736
228	0x3dd8e4ff	0.105905525
229	0xbdc7df69	-0.09759409
230	0x3cc7c32d	0.02438506
231	0xbdc0e7f7	-0.09419244
232	0xbd7f8f64	-0.062392607
233	0x3d7fbe5d	0.062437404
234	0xbdb7fc67	-0.08983689
235	0xbdac9024	-0.0842593
236	0xbd3ae9e8	-0.045633227
237	0x3dc125f8	0.0943107
238	0xbbd55e07	-0.006511453
239	0x3b8e4926	0.004342216
240	0x3def4993	0.11683955
241	0x3dab1014	0.08352676
242	0x3dc46d2d	0.09591136
243	0xbdde565f	-0.10856318
244	0xbdea0467	-0.11426621
245	0xbd899542	-0.06717922
246	0xbc5e991e	-0.013586311
247	0xbce80f7a	-0.028327692
248	0x3d53c9c3	0.051706087
249	0x3d888991	0.06666864
250	0xbd54f18c	-0.05198817
251	0xbcd1dcac	-0.02561792
252	0x3deaca01	0.114643104
253	0x3da5444c	0.08069667
254	0xbc8acd32	-0.016943548
255	0x3d742bbf	0.059612032

lstm.weight_hh_l0 f4 [256, 64]
0	0xbd5e91d0	-0.054338276
1	0x3d353855	0.044243176
2	0xbc1ca2e7	-0.009560323
3	0x3cd78015	0.026306191
4	0xbdae54cf	-0.0851227
5	0x3dc50bf9	0.09621424
6	0x3df62e3d	0.12020538
7	0xbdc2e888	-0.09517008
8	0xbd6a64ca	-0.057225026
9	0x3dd103b9	0.10205788
10	0xbc8dae44	-0.01729501
11	0x3d88b85e	0.0667579
12	0x3d3f02dd	0.04663359
13	0xbda8faa7	-0.08250933
14	0x3dbe030b	0.09277924
15	0x3d94af1d	0.07259963
16	0x3dcf8650	0.1013304
17	0x3c6fd775	0.014638771
18	0x3d036514	0.032078817
19	0x3d26e2dc	0.040743694
20	0xbcef7e91	-0.029235156
21	0x3dcdbbf5	0.100456156
22	0x3c1f7008	0.0097313
23	0xbd4343a6	-0.047671936
24	0xbc336ab0	-0.010950729
25	0x3be651f9	0.007028815
26	0x3bbdcb9b	0.005792094
27	0x3d287288	0.04112485
28	0xbd498648	-0.049200326
29	0x3cffa4fd	0.031206602
30	0xbbcebbeb	-0.0063090227
31	0xba962a84	-0.0011456762
32	0xbcf9ee3e	-0.03050911
33	0x3db4f559	0.08835859
34	0x3d35198e	0.044213824
35	0x3db98fe1	0.09060646
36	0xbd775eb2	-0.060393043
37	0x3cb723e8	0.022355989
38	0x3ce637a9	0.028102713
39	0x3d901796	0.07035749
40	0x3dd2a6e9	0.10285742
41	0xbd99f0fa	-0.07516666
42	0x3d54e9ff	0.05198097
43	0xbddfacb6	-0.10921614
44	0xbd5fdc28	-0.054653317
45	0xbc89459d	-0.016756827
46	0xbe08ac6a	-0.13347021
47	0x3d508451	0.050907437
48	0xbcea7b93	-0.028623378
49	0x3ccfb174	0.025353171
50	0xbcf0be85	-0.029387722
51	0x3dd227ac	0.10261473
52	0xbd3d146d	-0.046162058
53	0xbbf302af	-0.0074160914
54	0xbcf35f23	-0.02970845
55	0x3db495ac	0.0881761
56	0xbdeef613	-0.11668029
57	0x3da681da	0.08130236
58	0xba580f6a	-0.0008242043
59	0x3d1ec33d	0.038760412
60	0xbd501942	-0.050805338
61	0xbd3a9b9a	-0.04555855
62	0x3c0da990	0.008646384
63	0x3d81d46f	0.063393466
64	0xbd6d6d37	-0.057965484
65	0xbcdf86f2	-0.027286027
66	0x3d139462	0.03603018
67	0x3dfae626	0.122509286
68	0xbcbe7531	-0.02324924
69	0xbcf8f075	-0.030388096
70	0xbdca72d2	-0.098851815
71	0x3be3202b	0.006931325
72	0x3d9ebf84	0.077513725
73	0x3dae7904	0.08519176
74	0x3e00457a	0.12526503
75	0xbd2c0012	-0.041992255
76	0x3dadd36f	0.084875934
77	0x3ceb159f	0.028696833
78	0x3d170a75	0.036875207
79	0x3c67f966	0.014158582
80	0xbc519e78	-0.01279413
81	0x3cb470e5	0.022026489
82	0xbd8b493e	-0.06801079
83	0xbde3f1aa	-0.11130078
84	0x3d9bcd5c	0.076075286
85	0x3dea701b	0.11447164
86	0x3d2d03e8	0.042240053
87	0xbdc42712	-0.095777646
88	0xbd9d0bd9	-0.076682754
89	0xbdc5f76e	-0.09666334
90	0xbca5d98a	-0.020245332
91	0x3dd62900	0.10457039
92	0xbd5a86fa	-0.05335138
93	0xbdcdebd7	-0.100547485
94	0xbd2179dd	-0.03942286
95	0xbd82252c	-0.06354746
96	0xbd7aa328	-0.061190754
97	0xbe0a01e4	-0.13477284
98	0xbddf08c0	-0.10890341
99	0x3bf55a7d	0.0074875937
100	0x3d7efcb2	0.062252708
101	0xbdb5f479	-0.0888452
102	0x3dcf8111	0.10132039
103	0xbddccbe8	-0.107810795
104	0xbd67b6b5	-0.056570727
105	0x3dbee50a	0.093210295
106	0x3d0c11c4	0.03419663
107	0x3dcdbfc7	0.10046344
108	0x3dc9e736	0.09858553
109	0x3d15ff3b	0.03662036
110	0x3bc5aaa4	0.006032305
111	0x3d110d83	0.035413276
112	0x3dce6f69	0.100798436
113	0x3dd9a460	0.10627055
114	0xbdb96c0e	-0.09053813
115	0x3d29a446	0.04141643
116	0x3dda78dc	0.10667583
117	0x3dc19f39	0.094541974
118	0x3d6fe0d8	0.058564037
119	0x3dfd13d2	0.12357296
120	0x3dd151f4	0.102207094
121	0xbda0f68d	-0.07859526
122	0xbbf9b827	-0.0076208296
123	0xbd5c49be	-0.053781264
124	0x3dd423bb	0.103583775
125	0xbba88e49	-0.005143915
126	0x3ddb7d84	0.107172996
127	0x3d15a3d7	0.036533203
128	0x3d9f6526	0.077829644
129	0xbc71bbf1	-0.014754281
130	0x3dad8a99	0.08473701
131	0x3da48723	0.08033588
132	0xbc4f7953	-0.012663203
133	0xbd08ee6f	-0.033430513
134	0x3c42f2b6	0.011898687
135	0xbd48124b	-0.04884557
136	0x3c80d161	0.01572484
137	0xbbf4a431	-0.007465862
138	0x3db52140	0.088442326
139	0x3dbbf98b	0.09178456
140	0x3cbd3a53	0.0230991
141	0xba8e2af4	-0.0010846541
142	0xbc79d2e6	-0.015248036
143	0x3c3cffdd	0.011535612
144	0x3d024577	0.031804528
145	0x3d74bef1	0.05975241
146	0xbd933a7d	-0.0718889
147	0x3da34bce	0.07973443
148	0xbd8070f7	-0.06271546
149	0x3c298bb8	0.010348253
150	0xbde95864	-0.11393812
151	0x3c63b865	0.013898944
152	0x3da20f94	0.079131275
153	0xbcec166c	-0.028819285
154	0x3c9b80c5	0.0189823
155	0x3d9efc63	0.07762983
156	0x3dbe614c	0.09295902
157	0xbd794343	-0.06085516
158	0xbdffc3e8	-0.12488538
159	0xbc875b59	-0.01652305
160	0x3c82847b	0.015932312
161	0xbdf2d7c1	-0.11857558
162	0xbd4b5e64	-0.049650565
163	0xbdf2ef70	-0.11862075
164	0x3dde438f	0.108527295
165	0xbd895098	-0.06704825
166	0x3da3b932	0.079943076
167	0xbd8aa6c1	-0.06770087
168	0xbdaf5006	-0.08560185
169	0x3d680934	0.0566494
170	0x3d844300	0.06458092
171	0xbdabe3b0	-0.08393037
172	0xbda69ccf	-0.081353776
173	0xbda1fe86	-0.079098746
174	0xbd9323f7	-0.07184594
175	0xbbee0622	-0.0072639147
176	0xbde9f2a8	-0.11423236
177	0x3d871ce9	0.06597311
178	0x3e01adc8	0.12663949
179	0x3d8c4235	0.068485655
180	0xbd04ea01	-0.032449726
181	0xbd1f234f	-0.038852032
182	0xbc832f3e	-0.016013738
183	0x3bddd005	0.0067691826
184	0xbdbca581	-0.09211255
185	0xba325aa3	-0.0006803667
186	0x3ce4dd14	0.02793745
187	0x3d119671	0.035543863
188	0xbc521ea6	-0.01282469
189	0xbce64bb6	-0.028112274
190	0x3df1da15	0.11809174
191	0xbd2120fc	-0.039338097
192	0x3de4de44	0.11175206
193	0x3ccdff09	0.025146024
194	0xbdb92230	-0.09039724
195	0x3a05d21e	0.0005104857
196	0x3de1f9da	0.110339835
197	0x3d340833	0.043953132
198	0xbc3e0fcd	-0.011600447
199	0x3dd738fd	0.105089165
200	0xbde8cf06	-0.113676116
201	0xbd85df39	-0.06536717
202	0x3dbe45df	0.092906706
203	0xbcfa6483	-0.030565506
204	0xbdcf9ff4	-0.101379305
205	0xbd26e541	-0.040745977
206	0xbcaacc6d	-0.020849431
207	0xbd545d1d	-0.051846612
208	0x3cb96fb4	0.022636272
209	0xbdf55709	-0.11979491
210	0xbd947b81	-0.07250119
211	0x3d9b29a5	0.075763024
212	0x3d5f3cc3	0.054501306
213	0xbcb2a548	-0.021807328
214	0x3d3de54c	0.046361253
215	0xbc602038	-0.013679557
216	0x3d5b9f71	0.053618852
217	0x3b00c2dc	0.0019647395
218	0x3d8a7a3c	0.067615956
219	0x3dc83fa5	0.09777764
220	0x3e01d410	0.12678552
221	0xbc90212d	-0.017593944
222	0x3d7c83b8	0.061649054
223	0x3adcc0a0	0.0016842075
224	0xbd8d44b1	-0.068978675
225	0xbd488724	-0.048957005
226	0xbe0e1cef	-0.13878225
227	0x3d15f53d	0.03661083
228	0x3d8cc89e	0.06874202
229	0x3da0444c	0.078255266
230	0x3d447510	0.047963202
231	0xbdab2fee	-0.08358751
232	0xbda5849e	-0.08081935
233	0xbbe8946a	-0.0070977705
234	0x3cd80b30	0.026372522
235	0x3dc5fc41	0.09667254
236	0xbde84748	-0.11341721
237	0x3d399757	0.045310345
238	0xbd92d1e5	-0.071689405
239	0x3d483796	0.048881136
240	0x3d8d8945	0.06910948
241	0x3d993c8e	0.07482253
242	0xbe03ab3f	-0.12858294
243	0x3d7c6b09	0.061625514
244	0x3dfcd3f2	0.12345113
245	0x3d4e9acc	0.050440595
246	0xbda15833	-0.07878151
247	0xbcd3fd2b	-0.025877556
248	0x3ce457b5	0.027873853
249	0x3c19a83e	0.009378491
250	0x3daad563	0.083414815
251	0x3da1764d	0.07883892
252	0xbbcbf3ef	-0.0062241475
253	0x3da9082d	0.082535125
254	0xbdca72c9	-0.09885175
255	0xbd34accd	-0.04411011

lstm.bias_ih_l0 f4 [256]
0	0xbd42e236	-0.047579013
1	0x3db10307	0.086431555
2	0x3d630d3d	0.055432547
3	0x3de6f5b6	0.112773344
4	0x3c8a1019	0.01685338
5	0xbd862b3c	-0.06551215
6	0xbdaf813e	-0.08569573
7	0x3ca5c6be	0.02023637
8	0x3d2353ce	0.039874844
9	0x3de7fa54	0.11327043
10	0xbcc5b51d	-0.024134213
11	0x3d4b475e	0.049628608
12	0x3cb5a7e2	0.02217478
13	0x3ccf7241	0.025323035
14	0xbd96129a	-0.07327767
15	0x3db967c8	0.09052998
16	0xbcf41df5	-0.02979944
17	0x3c616214	0.013756294
18	0x3de7049e	0.112801775
19	0x3da716be	0.081586346
20	0x3c4dab27	0.012553013
21	0xbd0c4f98	-0.034255594
22	0x3b8fc7f0	0.004387848
23	0xbbe7b0ad	-0.007070622
24	0xbd207b2b	-0.039179962
25	0xbdec6470	-0.115425944
26	0x3d59a6a5	0.05313744
27	0xbdf25a02	-0.11833574
28	0x3de3421a	0.11096592
29	0x3d880e88	0.066433966
30	0xbc9c36a4	-0.019069023
31	0xbd47419c	-0.048646554
32	0xbd4dfd27	-0.050290253
33	0x3d1aa592	0.037755556
34	0x3cf2bfba	0.029632438
35	0xbcbf4f6d	-0.023353303
36	0x3d9f1072	0.077668086
37	0x3b95d2c4	0.0045722444
38	0xbc09fc55	-0.008421977
39	0xbdd1508b	-0.102204405
40	0x3c9a8b36	0.01886521
41	0xbd9b79be	-0.0759158
42	0xbe08143f	-0.13288973
43	0xbe0ae4fb	-0.13563912
44	0xbdc9d9c9	-0.09855992
45	0x3bc12a3c	0.0058949273
46	0xbd74d6f0	-0.059775293
47	0x3c53b3f5	0.012921323
48	0xbcfaf6b6	-0.030635219
49	0xbc73a878	-0.014871709
50	0xbd9da759	-0.07697935
51	0x3bcb41ec	0.006202927
52	0x3df91314	0.12161842
53	0x3de82a65	0.11336211
54	0xbdaff12b	-0.08590921
55	0xbd738749	-0.05945519
56	0xbd98610d	-0.07440386
57	0xbc2be4d4	-0.010491569
58	0x3c8a85d6	0.016909521
59	0x3d755790	0.05989796
60	0x3dd216af	0.10258233
61	0x3df48dd7	0.11941116
62	0xbd696cd1	-0.05698854
63	0xbc5b0aab	-0.013369243
64	0xbd84c0b9	-0.064820714
65	0xbd4c65d6	-0.049901806
66	0xbdba2721	-0.090894945
67	0x3d318210	0.043336928
68	0xbca7463c	-0.020419233
69	0xbc92503f	-0.01786053
70	0xbdd37d81	-0.10326672
71	0xbde6ef45	-0.11276106
72	0x3d73f1e0	0.05955684
73	0x3d1a29f2	0.03763766
74	0xbcf93e24	-0.030425139
75	0x3d95c4d2	0.07312931
76	0x3d335c6c	0.043789312
77	0x3d53efc7	0.05174234
78	0x3df3c4f1	0.11902798
79	0xbdc381f0	-0.09546268
80	0x3d7f0595	0.062261183
81	0xbd26a806	-0.040687583
82	0xbdb27999	-0.08714599
83	0xbd3adf53	-0.045623135
84	0x3d133037	0.035934653
85	0xbdc13361	-0.09433628
86	0xbd015458	-0.031574577
87	0xbd9ee4b6	-0.07758467
88	0xbd85765b	-0.06516715
89	0x3d35efc9	0.04441813
90	0x3daba12b	0.0838035
91	0xbd7b45f2	-0.061346002
92	0xbdb09026	-0.08621244
93	0xbdc6aeb9	-0.097012945
94	0xbdccc08e	-0.099976644
95	0x3d2b5bdb	0.041835647
96	0x3a2f525c	0.0006687993
97	0x3d6fb515	0.058522303
98	0x3d0de888	0.034645587
99	0x3d99810b	0.07495316
100	0xbb9f42d9	-0.004860264
101	0x3cffbb63	0.031217283
102	0xbd24926d	-0.040178705
103	0x3cf3999a	0.029736329
104	0xbd5756dd	-0.052573074
105	0x3d53f0e8	0.051743418
106	0x3dd9e334	0.10639039
107	0xbe0a110d	-0.13483067
108	0xbdc2051d	-0.094736315
109	0xbd7ac33d	-0.06122135
110	0xbd84b67d	-0.064801194
111	0xbd9add02	-0.07561685
112	0xbe0e06a1	-0.13869716
113	0x3d461862	0.048363097
114	0xbcec0b26	-0.02881391
115	0xbd5ddbc2	-0.054164656
116	0xbdd59fba	-0.10430856
117	0xbda5e5ef	-0.08100497
118	0x3db86591	0.09003747
119	0x3dda2d14	0.10653129
120	0x3ddae32e	0.10687862
121	0xbdb6d320	-0.08926988
122	0x3c2594cf	0.0101062795
123	0x3db5ddc5	0.0888019
124	0x3dd44626	0.10364942
125	0xbc8f80f0	-0.017517537
126	0xbda721c0	-0.08160734
127	0xbda3e09f	-0.080018274
128	0xbd3b3c43	-0.045711767
129	0xbe055c78	-0.13023555
130	0x3d0568d9	0.032570694
131	0x3daa328f	0.083104245
132	0x3dc3ba2c	0.09556994
133	0x3d326da5	0.043561596
134	0x3dd8c780	0.105849266
135	0x3d5188a7	0.051155712
136	0x3c64791d	0.013944891
137	0x3c373770	0.011182651
138	0xbc6afa03	-0.014341834
139	0x3dfdd9ae	0.12395035
140	0xbdfec2d9	-0.12439508
141	0xbdfff69b	-0.12498208
142	0x3de63a78	0.11241621
143	0x3dd48ac8	0.10378033
144	0xbd862c38	-0.06551403
145	0xbcf01ced	-0.029310668
146	0x3d2ac2f2	0.04168982
147	0x3d86fd26	0.06591253
148	0x3ddf045b	0.108895026
149	0x3dc146c4	0.094373256
150	0xbda6ed43	-0.08150723
151	0xbdeb0ad9	-0.114766784
152	0xbdabe37f	-0.08393001
153	0xbc2e4f29	-0.01063899
154	0xbd3b6db6	-0.045758925
155	0x3ddc11b5	0.10745565
156	0x3de1291f	0.10994171
157	0xbd86fb04	-0.06590846
158	0xbb1508bf	-0.0022740809
159	0x3df06673	0.11738291
160	0x3d40cca4	0.04707016
161	0xbd91416b	-0.070925556
162	0x3e06f73c	0.1318025
163	0xbcee2b15	-0.029073277
164	0x3c092e0d	0.008372796
165	0xbdf21581	-0.11820508
166	0x3d435dbd	0.047696818
167	0xbbe8e54e	-0.0071074134
168	0xbc991d83	-0.01869083
169	0x3c423a04	0.011854652
170	0xbd838785	-0.06422333
171	0xbd9d1f15	-0.07671944
172	0xbddabe34	-0.106808096
173	0x3d9c204b	0.07623347
174	0xbcac0aad	-0.021001184
175	0xbdb6a55c	-0.089182585
176	0xbd14ab71	-0.03629631
177	0x3e0bf475	0.13667472
178	0x3de454da	0.11148997
179	0xbe0d0320	-0.13770723
180	0xbdb7f3c2	-0.0898204
181	0x3d856559	0.06513471
182	0x38ac39de	8.212378e-05
183	0xbd7f6267	-0.062349703
184	0xbe0e2c5d	-0.13884111
185	0xbd665ed3	-0.056242775
186	0xbca18c9f	-0.019720374
187	0x3dd858b3	0.10563793
188	0x3dfe5282	0.12418081
189	0xbe0c08cc	-0.1367523
190	0xbda75d2a	-0.081720665
191	0xbde20709	-0.11036498
192	0xbcef6a89	-0.029225605
193	0xbd9d9756	-0.07694881
194	0xbb32185c	-0.0027175164
195	0x3dd1a97a	0.10237403
196	0xbb69be09	-0.0035666248
197	0x3dcd189a	0.10014458
198	0xbd78b646	-0.060720704
199	0xbe003c3f	-0.12522982
200	0xbd26cbb3	-0.040721606
201	0x3ddfcaa0	0.109273195
202	0x3dc98592	0.0983993
203	0xbd2d004c	-0.04223661
204	0x3cb7b352	0.022424374
205	0x3ceb1d94	0.028700627
206	0x3dd64f79	0.10464377
207	0x3d7e8d36	0.062146388
208	0xbd7d39c2	-0.06182266
209	0xbddcaed6	-0.10775535
210	0xbdc1c420	-0.09461236
211	0x3d63d712	0.05562503
212	0x3d017453	0.031605076
213	0x3dc08e57	0.09402149
214	0x3d8658df	0.065599196
215	0x3d96d8de	0.07365583
216	0xbd7a91b0	-0.061174095
217	0x3dd9bdfc	0.1063194
218	0x3dd24589	0.10267169
219	0xbce34ef5	-0.02774761
220	0x3dc7ec59	0.097618766
221	0xbda15a27	-0.07878523
222	0x3dcbdbb1	0.09954012
223	0xbdbde9c7	-0.09273105
224	0xbcbd8da2	-0.023138825
225	0x3dc5ea5e	0.096638426
226	0xbdf3941c	-0.11893484
227	0xbd070e50	-0.032972634
228	0xbdebe32b	-0.11517938
229	0xbd3fad61	-0.046796206
230	0x3d4d4ed3	0.050124
231	0xbd40134d	-0.046893407
232	0x3d22ae4e	0.03971701
233	0xbdef374a	-0.116804674
234	0xbdf9688a	-0.12178142
235	0x3d4c7251	0.049913708
236	0xbda265f4	-0.07929602
237	0xbd8645ef	-0.065563075
238	0x3e0679bc	0.13132375
239	0xbdcfa353	-0.101385735
240	0xbd85cd16	-0.06533258
241	0xbd04aaab	-0.032389324
242	0x3d943fbe	0.0723872
243	0x3db0838d	0.08618841
244	0xbd097de5	-0.033567328
245	0x3e0634bb	0.13106053
246	0x3d59ac26	0.05314269
247	0xbd0c8be4	-0.034313098
248	0xbd9582de	-0.073003516
249	0x3b712ac8	0.0036799181
250	0x3d4a84fb	0.049443226
251	0x3d7fdfce	0.062469296
252	0xbd7ef955	-0.0622495
253	0x3e054d4e	0.1301777
254	0x3ddc75e0	0.1076467
255	0xbd171159	-0.03688178

lstm.bias_hh_l0 f4 [256]
0	0x3ddb9e11	0.10723508
1	0x3db5bdcf	0.08874094
2	0xbcc875ae	-0.024470177
3	0xbd86f915	-0.065904774
4	0xbd27173b	-0.04079364
5	0xbdac004a	-0.08398493
6	0x3d35b89c	0.04436551
7	0xbda075e7	-0.07834988
8	0xbd5aad91	-0.053388182
9	0x3d0dad21	0.034588937
10	0x3dd21309	0.10257537
11	0xbd60e97c	-0.054910168
12	0xbcc87289	-0.024468677
13	0x3d0e781a	0.034782507
14	0x3dda6da2	0.10665442
15	0xbc46a982	-0.012125375
16	0xbd8d15f4	-0.06888953
17	0x3db7b54e	0.08970128
18	0xbd7cf3d8	-0.061755985
19	0xbba3e3c2	-0.005001516
20	0x3de41e2e	0.11138569
21	0x3dbc5215	0.091953434
22	0xbd4ea9fb	-0.050455075
23	0x3dbad25d	0.09122155
24	0x3cb08ecf	0.021552471
25	0xbc746b30	-0.014918134
26	0x3d855edc	0.065122336
27	0xbe0a9faf	-0.13537477
28	0x3d4061b3	0.046968173
29	0xbd6b7343	-0.05748297
30	0xbdbda73c	-0.09260413
31	0x3e09cb03	0.13456349
32	0xbdabd924	-0.08391026
33	0x3be4eb5a	0.006986064
34	0x3dcdb1d3	0.10043683
35	0x3de4a262	0.111637846
36	0xbcbdeb4b	-0.023183485
37	0xbcbc4feb	-0.022987327
38	0xbb180d46	-0.002320127
39	0xbd8b0af9	-0.06789202
40	0x3c46cb01	0.012133361
41	0x3d8f44b0	0.06995523
42	0x3d19165a	0.03737483
43	0x3cc83bb8	0.024442539
44	0x3dc65ea5	0.09686021
45	0x3d110d26	0.03541293
46	0x3d08a876	0.033363782
47	0xbc77cd00	-0.015124559
48	0x3d8474e1	0.064676054
49	0x3dd7f2bc	0.10544345
50	0x38afcba4	8.382581e-05
51	0x3ce14e4b	0.027503153
52	0x3d07e5c0	0.03317809
53	0xbd2a62ea	-0.041598238
54	0x3dacdb07	0.08440214
55	0x3dcbe6ae	0.09956108
56	0x3dc2c412	0.09510054
57	0x3dd0b99d	0.10191653
58	0x3db5b22f	0.088718764
59	0x3cc939b7	0.024563653
60	0xbd863162	-0.06552388
61	0x3d52014c	0.051270768
62	0xbcf5515d	-0.029946024
63	0xbe06baf9	-0.13157262
64	0xbce6a164	-0.028153129
65	0x3db19f4a	0.0867296
66	0xbd54abd5	-0.051921684
67	0x3ae2fe4d	0.0017318219
68	0xbd772b77	-0.060344186
69	0xbd109fbf	-0.035308596
70	0xbda64eb2	-0.08120479
71	0xbdcb3d73	-0.0992383
72	0xbdeac35e	-0.114630446
73	0xbcf3c8f9	-0.029758917
74	0x3c703689	0.01466144
75	0x3daaf548	0.08347565
76	0x3e0bbaa3	0.13645415
77	0xbdd4baca	-0.1038719
78	0x3c6fcf45	0.014636819
79	0xbde16258	-0.11005086
80	0x3d98d882	0.074631706
81	0x3d8ec507	0.06971174
82	0xbdb94cdd	-0.09047864
83	0x3e0ae523	0.13563971
84	0xbc0c2a02	-0.008554937
85	0xbde0c01f	-0.10974144
86	0xbded2aa6	-0.115804
87	0x3bf088d3	0.0073405295
88	0xbe044a52	-0.12918976
89	0xbd1e7764	-0.03868808
90	0xbce972c4	-0.028497107
91	0xbcc176de	-0.02361625
92	0x3dfd2227	0.1236003
93	0x3daef3ad	0.08542571
94	0x3d8db0be	0.069184765
95	0xbc2121f4	-0.009834755
96	0xbdcb0533	-0.09913101
97	0x3ddb5fd3	0.107116364
98	0x3d318157	0.04333624
99	0x3d328228	0.043581158
100	0x3d2fce4c	0.04292135
101	0xbdbd19be	-0.092334256
102	0xbcc0343d	-0.02346241
103	0xbdbbb53a	-0.091654256
104	0xbdd33725	-0.10313252
105	0xbe00201c	-0.12512249
106	0xbd83d9c3	-0.06438019
107	0xbd8451f7	-0.06460946
108	0xbdd96ef5	-0.106168665
109	0x3d577dc0	0.05261016
110	0x3c401a7c	0.011725064
111	0x3dcdd06f	0.10049521
112	0xbd2d28cc	-0.042275235
113	0x3d110384	0.035403743
114	0x3d628f37	0.05531236
115	0xbdb3215b	-0.087465964
116	0xbcb56ce7	-0.022146655
117	0x3dd38f53	0.10330071
118	0xbd7b2166	-0.061311148
119	0x3ccc3422	0.024927203
120	0x3c055654	0.008138258
121	0xbda6314e	-0.08114873
122	0x3d60b1db	0.054857116
123	0x3d67efa7	0.056625035
124	0xbd19e471	-0.037571374
125	0xbd26b85a	-0.040703155
126	0x3cee803f	0.029113887
127	0xbd246fbd	-0.040145624
128	0xbd83060a	-0.06397636
129	0xbd4e183e	-0.050316088
130	0xbdb3c7ec	-0.087783664
131	0xbd21a91c	-0.039467916
132	0xbd08bec4	-0.033385053
133	0xbdfc5045	-0.12319998
134	0x3daff0c8	0.08590847
135	0xbd08f93c	-0.033440813
136	0x3d5fdf9e	0.054656617
137	0x3d653c4b	0.055965703
138	0x3d9ac9de	0.07558034
139	0x3ba9cd19	0.0051819202
140	0x3da9ca7e	0.082905754
141	0xbd85f842	-0.06541492
142	0xbd4cc706	-0.04999449
143	0xbd879aa5	-0.06621293
144	0x3db2081e	0.086929545
145	0xbd8e95c9	-0.06962163
146	0x3d5b812f	0.053589996
147	0x3cc20d42	0.023687962
148	0xbae99e19	-0.0017823606
149	0x3c7b9f8c	0.015357863
150	0x3dde8787	0.108656935
151	0xbcd7b676	-0.026332121
152	0x3dccdd26	0.10003118
153	0xbcac2492	-0.021013532
154	0xbdd531b5	-0.104098715
155	0xbd4dea03	-0.050272
156	0x3e0bfed6	0.13671431
157	0xbd7b7df1	-0.061399404
158	0x3dc59f6a	0.096495464
159	0x3d823c1d	0.06359122
160	0xbca9f074	-0.02074454
161	0xbd0e65ad	-0.034764934
162	0xbdd1d639	-0.10245938
163	0xbd0ef1bf	-0.034898516
164	0xbdc5b314	-0.09653297
165	0xbdf69cc5	-0.1204162
166	0x3dec756e	0.115458354
167	0xbc028682	-0.0079666395
168	0x3c5a91a0	0.013340384
169	0xbdbce2da	-0.09222956
170	0x3d06febe	0.032957785
171	0x3d4ede99	0.050505254
172	0xbccf6d5c	-0.025320701
173	0xbd868e50	-0.06570113
174	0xbd6c60b0	-0.057709396
175	0xbdae72f4	-0.08518019
176	0x3da230eb	0.079194866
177	0x3c9f4898	0.019443795
178	0xbc2614a9	-0.010136762
179	0x3d9a0bfb	0.07521816
180	0x3b06b3ca	0.002055394
181	0x3dbcafc4	0.09213212
182	0xbd4336f0	-0.047659814
183	0x3ddb0969	0.10695154
184	0xbc9328d8	-0.017963812
185	0xbdf542e9	-0.11975653
186	0x3deee796	0.11665265
187	0xbc353b32	-0.011061477
188	0x3cfec3cf	0.031099228
189	0xbdf858a2	-0.1212628
190	0xbd89f8c6	-0.06736903
191	0x3df40b13	0.11916175
192	0x3c177c87	0.009245998
193	0x3d8f534c	0.069983095
194	0x3db5c345	0.08875135
195	0x3d918c7e	0.07106875
196	0xbca68c63	-0.020330613
197	0x3daea6df	0.08527922
198	0xbce0e451	-0.02745262
199	0x3d83e050	0.064392686
200	0x3d3956aa	0.045248665
201	0xbde2a990	-0.11067498
202	0xbd9b7f23	-0.07592609
203	0x3c75ec79	0.015009993
204	0x3e04d381	0.12971307
205	0x3da93b65	0.08263282
206	0x3d0787d2	0.033088513
207	0x3e03a9b2	0.12857702
208	0xbc87f03b	-0.016594043
209	0xbdf85d3f	-0.1212716
210	0xbddafa3d	-0.106922604
211	0x3df4c5a4	0.119517595
212	0xbd2371a3	-0.039903294
213	0x3bbdd0ef	0.005792729
214	0x3dd93c5d	0.106072165
215	0x3da2d07a	0.0794992
216	0xbd6a0b10	-0.057139456
217	0x3d9aa258	0.07550496
218	0x3ad31bbf	0.0016106291
219	0xbdfbdb11	-0.12297643
220	0x3dc3f39c	0.09567949
221	0x3dbb8559	0.091562934
222	0xbcf31b8a	-0.029676218
223	0xbb0e8dfc	-0.002175211
224	0x3d914fca	0.07095297
225	0x3d7f4dcb	0.06233005
226	0xbd99184c	-0.074753374
227	0xbd1290a4	-0.03578247
228	0xbdb2dcfb	-0.08733555
229	0xbd7e5543	-0.06209303
230	0xbd37b7c1	-0.044852976
231	0xbdec35cc	-0.115336984
232	0xbc8859e1	-0.01664442
233	0xbd7939eb	-0.06084625
234	0xbdb108bc	-0.08644244
235	0xbe0f5783	-0.13998227
236	0x3d89d985	0.06730942
237	0xbc065aeb	-0.0082003875
238	0xbdd0c8e4	-0.10194567
239	0x3d3bd07a	0.045853116
240	0x3d3e697a	0.04648731
241	0xbd7c1df7	-0.061552014
242	0x3d16903d	0.03675865
243	0x3d825416	0.06363694
244	0x3df019e6	0.1172369
245	0x3dd4ef69	0.10397226
246	0x3ddff607	0.10935598
247	0xbcc9c237	-0.024628742
248	0xbdd2e2d0	-0.10297167
249	0xbdc1e546	-0.094675586
250	0x3cde0c0a	0.02710535
251	0xbcb53db1	-0.022124143
252	0x3dc26abd	0.09493015
253	0x3cc03fcc	0.02346792
254	0xbdc3e9c5	-0.095660724
255	0x3d788142	0.060670145

lstm.weight_ih_l1 f4 [256, 64]
0	0x3db0bf84	0.08630279
1	0x3db88d10	0.090112805
2	0xbcada868	-0.021198466
3	0xbdacebe5	-0.08443431
4	0xbdafe930	-0.08589399
5	0x3d930564	0.071787626
6	0xbb9a06bb	-0.0047005094
7	0x3d5d3fac	0.0540158
8	0x3db4f8db	0.08836528
9	0x3e076dc7	0.1322547
10	0xbd4c8e92	-0.049940653
11	0xbd2dd412	-0.042438574
12	0x3da6a86c	0.08137593
13	0xbd24e2d7	-0.040255394
14	0xbd8c5a13	-0.06853118
15	0xbd8596eb	-0.06522926
16	0xbdad0efc	-0.08450124
17	0x3deec94f	0.1165949
18	0xbc93ef49	-0.018058436
19	0x3dbda731	0.09260405
20	0x3df07ea0	0.11742902
21	0x3d03a01e	0.03213512
22	0xbb72dd98	-0.003705835
23	0x3c8818da	0.016613413
24	0xbb7467f2	-0.0037293402
25	0xb8ceb894	-9.857226e-05
26	0xbbf6eb3e	-0.0075353673
27	0x3cd9f32e	0.026605215
28	0x3dc64c2a	0.09682496
29	0x3d8828f3	0.066484354
30	0xbcdac196	-0.026703637
31	0xbce44436	-0.027864557
32	0x3d267ab5	0.040644366
33	0x3dc74ed0	0.09731829
34	0x3ca6755c	0.020319633
35	0xbb96f331	-0.0046066274
36	0xbd8a9667	-0.06766968
37	0xb8bb0683	-8.918068e-05
38	0x3d9a3665	0.07529906
39	0xbc6169ea	-0.013758162
40	0xbdd19bd1	-0.10234798
41	0xbe0820f5	-0.13293822
42	0xbda24fde	-0.0792539
43	0x3dab8543	0.08375027
44	0xbd5d96a5	-0.054098744
45	0xbccea6c6	-0.025226008
46	0xbd37f3a7	-0.0449101
47	0xbc0836cc	-0.008313846
48	0xbd191033	-0.037368964
49	0xbc2ce9c7	-0.010553784
50	0x3d7d78d4	0.06188281
51	0xbd4600c5	-0.048340578
52	0x3c246869	0.010034659
53	0xbdadab4d	-0.08479939
54	0xbd3cbf2c	-0.046080753
55	0xbd88d614	-0.06681457
56	0x3cada495	0.021196643
57	0xbd3b7084	-0.0457616
58	0x3d73833e	0.059451334
59	0x3db701bc	0.08935878
60	0xbaaa1d9e	-0.0012978797
61	0xbe05ada5	-0.13054521
62	0xbd73d572	-0.05952973
63	0xbceded43	-0.0290438
64	0xbdbab84b	-0.09117182
65	0x3c700546	0.014649695
66	0x3da61eed	0.081113674
67	0xbe03ef82	-0.12884334
68	0xbdf8010f	-0.12109577
69	0xbda50c9d	-0.080590464
70	0x3db11dac	0.086482376
71	0xbdb0953c	-0.08622214
72	0x3db7911f	0.089632265
73	0xbe005858	-0.125337
74	0xbdb93dcf	-0.09044992
75	0xbdfa0c32	-0.12209357
76	0xbc79689d	-0.015222696
77	0xbbe75f91	-0.007060953
78	0xbc8f3df7	-0.017485602
79	0x3df31257	0.118687324
80	0xbdcef89b	-0.101060115
81	0xbd27f85f	-0.04100835
82	0x3df16e79	0.11788649
83	0xbd44f791	-0.04808766
84	0x3dc363af	0.095404975
85	0xbdc0535c	-0.093908995
86	0x3d58a7a2	0.052894242
87	0x3dbe692f	0.09297406
88	0x3dfa8d7f	0.122340195
89	0x3d47ce19	0.048780534
90	0xbde6df85	-0.11273102
91	0xbd0a95c6	-0.03383424
92	0x3c979225	0.018502304
93	0xbe0670ae	-0.13128921
94	0xbc8ed252	-0.017434273
95	0x3d9de681	0.07709981
96	0xbc026b60	-0.0079601705
97	0xbb688ef2	-0.0035485593
98	0xbd535079	-0.051590417
99	0xbdcf2206	-0.10113911
100	0x3db62f5c	0.08895752
101	0xbc8c22d1	-0.017106446
102	0xbd969cc1	-0.07354117
103	0x3dc0f870	0.09422386
104	0x3d882b9b	0.06648942
105	0x3de4e0cc	0.11175689
106	0x3db4978f	0.0881797
107	0xbdfbfef8	-0.12304491
108	0x3d91f90e	0.071275815
109	0x3cc25fd8	0.023727342
110	0x3dce35e8	0.100688756
111	0xbcd78802	-0.02630997
112	0x3d762352	0.060092278
113	0xbdfaf9e0	-0.12254691
114	0xbc1eec99	-0.009699964
115	0x3d7b705c	0.06138645
116	0xbdb2530c	-0.08707246
117	0xbe102bd5	-0.1407922
118	0x3ba04fb4	0.004892314
119	0xbd4cadf6	-0.04997059
120	0x3d94018a	0.07226856
121	0xbcf15b80	-0.029462576
122	0x3ce288ce	0.027653124
123	0x3de8476d	0.113417484
124	0x3b144fc0	0.0022630543
125	0xbcc59b6b	-0.02412196
126	0xbddefe9c	-0.10888407
127	0x3de40595	0.11133877
128	0xbdcd65d1	-0.100291856
129	0x3df9cc04	0.12197116
130	0x3df4e04f	0.11956846
131	0xbddf1631	-0.108929045
132	0x3c291306	0.010319477
133	0x3c7c47ec	0.015398007
134	0xbdc94e84	-0.09829429
135	0xbdc1927c	-0.09451768
136	0x3db44a00	0.08803177
137	0xbdce5668	-0.100750744
138	0x3dc19331	0.09451903
139	0x3dce04cb	0.10059508
140	0xbd9cbb9c	-0.07652971
141	0x3d6b3088	0.05741933
142	0x3d97fff6	0.074218675
143	0x3dd81e5b	0.10552665
144	0x3d4df404	0.05028154
145	0x3d937d03	0.072015785
146	0xbd1339ef	-0.03594392
147	0x3db03426	0.086036965
148	0x3c0d62a8	0.0086294785
149	0xbd921b17	-0.07134073
150	0x3d20b416	0.039234243
151	0x3db8a493	0.09015765
152	0x3dfa5730	0.12223661
153	0xbcb6736b	-0.022271832
154	0x3de9c370	0.1141423
155	0x3d853a62	0.06505276
156	0x3d44341b	0.047901254
157	0xbadd8bf6	-0.0016902674
158	0x3d037b24	0.032099858
159	0x3d02c59d	0.03192674
160	0x3d9a3f13	0.07531562
161	0xbd9f097f	-0.07765483
162	0x3dd00577	0.10157292
163	0x3daeb54e	0.08530675
164	0x3cb4354c	0.02199807
165	0x3dd6efbd	0.10494945
166	0xbd8b7c0d	-0.0681077
167	0x3d379615	0.044820864
168	0x3ca862e5	0.02055497
169	0x3d84caeb	0.06484016
170	0x3d11e8fe	0.03562259
171	0xbcf60b98	-0.030034825
172	0x3cadbb35	0.021207431
173	0x3d6d1261	0.057878856
174	0xbd9c067b	-0.076184236
175	0x3d8f678f	0.07002174
176	0xbdfb0d85	-0.12258438
177	0x3d5e4536	0.054265223
178	0xbd583ada	-0.0527905
179	0x3dac81c5	0.08423189
180	0x3df6dfaa	0.12054379
181	0x3ddc7cf1	0.10766018
182	0xbae59dce	-0.0017518343
183	0x3bbb13b7	0.0057091373
184	0x3d4dbede	0.050230853
185	0x3c97524f	0.018471865
186	0x3d54d7b6	0.05196353
187	0xbdc1a270	-0.094548106
188	0xbde368ce	-0.11103974
189	0xbcf7653f	-0.030199645
190	0xbbbaeda8	-0.0057046004
191	0x3dc28c3a	0.09499402
192	0xbdb1ee60	-0.086880445
193	0xbd785c1d	-0.06063472
194	0x3cf77885	0.030208835
195	0xbd4601bf	-0.04834151
196	0x3d23834a	0.03992013
197	0xbb7764fd	-0.0037749403
198	0xbd92d0d8	-0.0716874
199	0x3b993784	0.0046758074
200	0x3c83d4cd	0.016092682
201	0xbdc61aac	-0.09673056
202	0xbc396533	-0.011315632
203	0x3d437b47	0.04772499
204	0x3daa5920	0.083177805
205	0xbc8a798f	-0.016903667
206	0xbd0cf76e	-0.034415655
207	0xbde79131	-0.1130699
208	0x3db02055	0.08599917
209	0xbd1319dd	-0.035913337
210	0xbda3b379	-0.07993216
211	0xbc79db60	-0.015250057
212	0x3dac3b2c	0.08409724
213	0xbbda608f	-0.0066643427
214	0xbd9a6c5d	-0.075402
215	0x3d8ca105	0.068666495
216	0xbbe84b11	-0.0070890267
217	0xbc70d7ce	-0.014699889
218	0xbc344027	-0.011001623
219	0x3d8aca20	0.067768335
220	0xbc912ce9	-0.01772161
221	0xbd1f3d50	-0.03887683
222	0x3d576ef1	0.052596036
223	0xbda5f674	-0.08103648
224	0xbd468574	-0.048467115
225	0xbdec9ed4	-0.115537316
226	0x3dc5559c	0.09635469
227	0x3c23f3f2	0.010006892
228	0x3c9eb76f	0.019374577
229	0x3ccaa159	0.02473514
230	0xbce57f80	-0.028014898
231	0x3d996266	0.07489471
232	0xbddefbc2	-0.10887863
233	0x3d18d059	0.03730807
234	0xbe184df4	-0.14873487
235	0xbc861ded	-0.016371692
236	0x3b14ebf1	0.002272364
237	0xbd9ae1ae	-0.07562576
238	0xbcd1e8a0	-0.02562362
239	0x3ddb5007	0.107086234
240	0xbdf4c78a	-0.119521216
241	0x3cbcb24a	0.023034234
242	0x3cb224ac	0.021746002
243	0x3d0780b4	0.033081725
244	0xbd4bbb21	-0.049739007
245	0xbcae379d	-0.021266753
246	0xbde8d47f	-0.113686554
247	0xbb27e6f9	-0.0025619848
248	0xbdd1a2f0	-0.10236156
249	0xbd6fcf2e	-0.05854719
250	0x3dbf1512	0.09330191
251	0xbd58b806	-0.052909873
252	0xbca0d17e	-0.019631144
253	0xbd6ce250	-0.057833016
254	0xbd3d3841	-0.046196226
255	0x3db02ba6	0.08602075

lstm.weight_hh_l1 f4 [256, 64]
0	0x3d9cd149	0.076571055
1	0xbc799c1f	-0.015234976
2	0xbd4d849a	-0.050175287
3	0x3debea5b	0.11519309
4	0x3d4a480d	0.04938512
5	0xbd8f1585	-0.069865264
6	0xbcce8030	-0.025207609
7	0x3df0d42c	0.117592186
8	0xbd61cfc3	-0.055129778
9	0x3d7b0fed	0.061294485
10	0x3db48b9d	0.088156916
11	0xbd0ca7cd	-0.034339715
12	0x3c94ad91	0.01814917
13	0xbdc133f9	-0.09433741
14	0xbdeab757	-0.114607506
15	0x3cc30a5c	0.02380865
16	0xbd62f634	-0.05541058
17	0x3ce9a357	0.02852027
18	0x3dbcfda1	0.092280634
19	0x3d418003	0.047241222
20	0x3d0e6732	0.034766383
21	0xbd952727	-0.07282858
22	0x3d2c470b	0.04205994
23	0x3dbf4ff1	0.093414195
24	0x3dc9674b	0.09834155
25	0x3df356bb	0.11881777
26	0xbd8cd444	-0.06876424
27	0x3dfd12d0	0.12357104
28	0xbdf6c1fa	-0.12048717
29	0x3da8a9ea	0.082355335
30	0xbdd700ba	-0.104981855
31	0xbd867830	-0.06565893
32	0x3d2c73c0	0.042102575
33	0x3de115ec	0.109905094
34	0x3da2523d	0.07925842
35	0xbd5f7263	-0.054552447
36	0x3d2f7a1a	0.042841054
37	0x3dee4c7b	0.11635681
38	0x3d72e517	0.05930051
39	0x3d383a69	0.04497758
40	0x3d3aaf41	0.04557729
41	0x3dcac603	0.09901049
42	0x3c921dee	0.017836537
43	0xbd8656c8	-0.06559521
44	0x3df58a53	0.11989274
45	0x3de0ed3a	0.109827474
46	0x3d0d72d2	0.03453333
47	0x3d9d0448	0.07666832
48	0x3de84790	0.113417745
49	0x3bf06cec	0.0073372032
50	0xbd74902b	-0.0597078
51	0xbdd584b4	-0.10425702
52	0x3cdac170	0.026703566
53	0x3db32eaf	0.087491386
54	0xbcb00ea1	-0.02149135
55	0xbcf24046	-0.029571664
56	0x3db5ca77	0.08876508
57	0xbd298b65	-0.041392703
58	0x3dc50066	0.096192166
59	0xbd81bf2b	-0.063352905
60	0xbcd07e90	-0.025450975
61	0x3b80ba80	0.0039284825
62	0xbc744b2b	-0.0149105
63	0xbdc1740a	-0.09445961
64	0x3cab256f	0.020891873
65	0x3cd5b53f	0.026087401
66	0x3c6236dc	0.013807025
67	0x3cf4a55a	0.029864002
68	0xbbaf0f08	-0.005342368
69	0xbbb1663d	-0.005413799
70	0x3e0abcc3	0.1354857
71	0xbd9d352b	-0.076761566
72	0x3d5bc222	0.053651936
73	0x3dfc035a	0.12305327
74	0x3a9d2a61	0.0011990779
75	0xbd17847d	-0.036991585
76	0x3d5b6569	0.05356351
77	0x3df3d42d	0.11905704
78	0x3d9d1d18	0.07671565
79	0xbcb4646e	-0.022020545
80	0x3dc60a15	0.09669892
81	0xbdd1a891	-0.102372296
82	0x3ce19c8e	0.027540471
83	0x3dd7f262	0.10544278
84	0x3de7a5ef	0.11310946
85	0xbd5f7ad8	-0.054560512
86	0x3cf2488b	0.029575607
87	0xbe0b9c88	-0.1363393
88	0xbd20678f	-0.03916126
89	0xbdc52dda	-0.09627886
90	0xbcf21af0	-0.02955386
91	0x3daaa344	0.08331922
92	0x3dd0aee1	0.101896055
93	0xbc8a4b10	-0.016881496
94	0xbde9eac4	-0.11421731
95	0xbe094acc	-0.13407439
96	0xbdd57585	-0.10422806
97	0x3da03b75	0.078238405
98	0x3c660b4b	0.014040778
99	0xbdb5584c	-0.08854732
100	0xbcda5677	-0.026652558
101	0xbdbe4d5c	-0.09292099
102	0xbd5b6d5a	-0.053571083
103	0xbc668434	-0.014069606
104	0x3c14bfc1	0.009078921
105	0xbd46a0af	-0.048493084
106	0x3c86a51f	0.016436158
107	0x3a794bf4	0.0009509914
108	0xbcdce724	-0.026965685
109	0xbd9222cd	-0.07135544
110	0x3de53e59	0.111935325
111	0xbd996739	-0.07490391
112	0xbcc55976	-0.02409051
113	0x3da51fb2	0.08062686
114	0x3c8979e2	0.016781751
115	0xbdce092f	-0.100603454
116	0xbd29afaf	-0.04142731
117	0x3d0ef13f	0.03489804
118	0x3da1d3e3	0.07901742
119	0xbcc91d47	-0.024550093
120	0x3b8811bd	0.004152505
121	0x3d929f5c	0.07159302
122	0xbdbfaed0	-0.09359515
123	0x3d06ba3b	0.032892447
124	0x3db09a65	0.086231984
125	0x3dd6a5a6	0.10480814
126	0xbd15e5c2	-0.036596067
127	0xbda1eab8	-0.07906097
128	0x3d7a6dea	0.06113998
129	0x3df70244	0.12060979
130	0x3ddcc59e	0.1077988
131	0xbce4cbca	-0.027929205
132	0xbd197b67	-0.0374712
133	0x3e0a94c0	0.13533306
134	0xbdd144c4	-0.10218194
135	0x3de360da	0.11102457
136	0xbd5e88a2	-0.054329522
137	0x3c547fea	0.01296995
138	0xbd8a3891	-0.067490704
139	0xbdfc05d5	-0.123058
140	0x3b60c20a	0.0034295344
141	0x3de10841	0.109879024
142	0xbde4890c	-0.11158952
143	0xbda2c2aa	-0.079472855
144	0xbd20e178	-0.039277524
145	0xbd86e768	-0.06587106
146	0x3bd2938f	0.0064262818
147	0x3dc9222f	0.09820973
148	0xbde02030	-0.10943639
149	0xbce07daf	-0.02740368
150	0xbbca2026	-0.006168383
151	0x3cba1d66	0.022719096
152	0x3c6b0225	0.014343773
153	0xbceb48ce	-0.02872124
154	0x3de1ed89	0.11031634
155	0x3bff43d9	0.0077900705
156	0xbd8b602b	-0.06805452
157	0xbdee9c44	-0.11650899
158	0xbce7a00e	-0.028274562
159	0x3d91a083	0.07110693
160	0x3cfb6669	0.030688481
161	0xbdd26fab	-0.10275205
162	0x3c36c6c6	0.01115579
163	0xbd9d347b	-0.076760255
164	0x3d72666e	0.059179716
165	0x3d946d7d	0.07247446
166	0xbd346c40	-0.044048548
167	0x3d5b4075	0.053528268
168	0x3d7ca7c8	0.061683446
169	0x3cfb3cab	0.030668577
170	0x3dbd2bdd	0.09236882
171	0xbdf7d289	-0.12100703
172	0xbdfab154	-0.12240854
173	0x3b8fb22f	0.004385255
174	0xbd63ccb6	-0.05561515
175	0x3dc5c907	0.096574835
176	0xbdb07341	-0.08615733
177	0xbdb177bd	-0.086654164
178	0x3c8ba090	0.017044336
179	0x3dced39c	0.10098955
180	0x3c4b376b	0.012403349
181	0x3b986fdd	0.004652007
182	0x3b11c849	0.0022244623
183	0xbd939bd7	-0.072074585
184	0xbd5b7dcd	-0.05358677
185	0x3c16cee3	0.009204599
186	0x3d9a7060	0.07540965
187	0x3ca6d1d4	0.020363726
188	0x3d856c5e	0.0651481
189	0x3ce93eb0	0.028472275
190	0x3d8fb277	0.07016461
191	0xbd939e6f	-0.07207953
192	0xbde43de2	-0.11144616
193	0xbd301394	-0.04298742
194	0x3dc93681	0.09824849
195	0x3cf5cfb2	0.030006263
196	0xbc268a14	-0.010164756
197	0xbded1095	-0.115754284
198	0xbd9d4dee	-0.076808795
199	0x3ddb57d0	0.10710108
200	0x3d1defd8	0.03855881
201	0xbdc5c01c	-0.096557826
202	0xbdc3b801	-0.0955658
203	0x3d982dfa	0.07430644
204	0x3dbbf8e6	0.09178333
205	0x3c0a06e9	0.008424499
206	0x3d2c6f0f	0.0420981
207	0x3d5ab2f8	0.053393334
208	0x3cdaf487	0.026727928
209	0x3d375113	0.044755053
210	0xbd33c111	-0.043885294
211	0x3de43d77	0.11144536
212	0xbc237be7	-0.009978271
213	0xbde0adfe	-0.109706864
214	0xbd3d2dbb	-0.04618619
215	0xbc756c8e	-0.014979495
216	0x3d965d72	0.07342042
217	0x3d914336	0.070928976
218	0xbcb58ac1	-0.02216089
219	0x3c742f74	0.014903892
220	0xbdc1a0ff	-0.09454536
221	0x3e0196d1	0.12655188
222	0xbdc6e9d9	-0.09712572
223	0x3d499780	0.049216747
224	0xbde1639f	-0.11005329
225	0x3d6e3a14	0.058160856
226	0x3d65a75d	0.056067813
227	0x3c6e77f5	0.014554967
228	0xbc8fbd25	-0.017546246
229	0xbd2a8303	-0.04162885
230	0xbd904e09	-0.07046134
231	0xbdbfdc09	-0.0936814
232	0xbdfad215	-0.12247101
233	0xbd937341	-0.07199717
234	0x3d1621aa	0.0366532
235	0xbda6d093	-0.08145251
236	0x3df53a7f	0.11974048
237	0x3db8e9a6	0.0902894
238	0xbe045dd6	-0.1292642
239	0x3d23d9de	0.040002696
240	0x3d19c066	0.037537
241	0x3d8f0191	0.06982721
242	0xbc18eaf6	-0.009333363
243	0x3d11a8ef	0.0355615
244	0xbceacc35	-0.028661827
245	0x3c139674	0.009008039
246	0x3d56d761	0.052451495
247	0xbd850e5b	-0.06496879
248	0x3cbbe013	0.022933995
249	0x3d8ecd09	0.06972701
250	0x3bb9054d	0.005646384
251	0x3de4059f	0.11133885
252	0xbc8e306d	-0.017357076
253	0x3dfb136e	0.12259565
254	0xbde1abff	-0.11019134
255	0xbd90b299	-0.07065315

lstm.bias_ih_l1 f4 [256]
0	0x3db20e66	0.086941525
1	0xbd72fbe5	-0.059322257
2	0xbdc4ab9b	-0.09603044
3	0xbd92a20a	-0.07159813
4	0x3d807cab	0.062737785
5	0x3d2c1724	0.042014256
6	0x3c924f43	0.01786006
7	0x3d833b7f	0.06407832
8	0xbd16aeee	-0.03678792
9	0x3d883c4b	0.06652125
10	0x3dfe9240	0.12430239
11	0x3d99c121	0.075075395
12	0xbd779813	-0.060447764
13	0xbda26cc6	-0.07930903
14	0x3e06c950	0.13162732
15	0x3da104e2	0.078622594
16	0xbd7c3457	-0.061573353
17	0x3d8144a0	0.06311917
18	0x3da077f9	0.07835383
19	0x3d5bdfac	0.053680107
20	0x3d5619df	0.052270766
21	0xbdd1e39e	-0.10248493
22	0x3d313b38	0.043269366
23	0x3de6a3f2	0.11261739
24	0xbb5a50ad	-0.0033312247
25	0x3df83a99	0.121205516
26	0xbbadafcd	-0.005300498
27	0x3bad2364	0.00528376
28	0xbdf6342e	-0.12021671
29	0xbda41d9e	-0.080134615
30	0x3c0d0943	0.008608165
31	0x3d1589b8	0.036508292
32	0xbd61a803	-0.05509187
33	0xba8f4047	-0.001092919
34	0xbc47e217	-0.0121999
35	0xbdbe6aa0	-0.09297681
36	0xb9e6ce49	-0.00044022713
37	0xbd3df571	-0.04637665
38	0xbd96fb88	-0.073721945
39	0xbde08da7	-0.10964518
40	0x3dd963be	0.106147274
41	0xbd3a4578	-0.045476407
42	0x3dd0ac1e	0.10189079
43	0xbd0beff1	-0.034164373
44	0xbb172342	-0.0023061787
45	0xbdba3c94	-0.090935856
46	0x3b2f0dca	0.00267111
47	0x3c708bca	0.014681766
48	0xbd7b33b4	-0.061328605
49	0xbd24a99b	-0.04020081
50	0x3d945aca	0.07243879
51	0xbbe3904b	-0.0069446913
52	0xbdb41f71	-0.087950595
53	0xbd3215c0	-0.043477774
54	0xbdf9a064	-0.12188795
55	0xbdc6508b	-0.09683331
56	0xbd34a5b2	-0.044103332
57	0x3d4ce867	0.050026324
58	0xbd907324	-0.07053211
59	0xbe0a52b2	-0.13508108
60	0x3dde2c64	0.108483106
61	0x3d58927d	0.052874077
62	0x3d010b58	0.03150496
63	0xbd5116d2	-0.051047154
64	0xbde5d66d	-0.11222539
65	0xba637c98	-0.00086779287
66	0xbb8ded04	-0.004331233
67	0xbd6065e0	-0.054784656
68	0x3d599096	0.053116404
69	0x3d98e06c	0.0746468
70	0x381501a4	3.5525896e-05
71	0x3d7274d4	0.059193447
72	0x3bfbf27b	0.007688818
73	0x3e0d035d	0.13770814
74	0x3d602b6b	0.054728907
75	0x3e0027b9	0.12515153
76	0xbdf44448	-0.11927086
77	0xbd25b97c	-0.040460095
78	0xbd50e46c	-0.05099909
79	0x3d593fe5	0.05303945
80	0xbc3f99e6	-0.011694407
81	0x3cc9a895	0.024616519
82	0x3be70496	0.0070501072
83	0xbda0621f	-0.07831215
84	0xbde0f194	-0.10983577
85	0x3de6e22e	0.11273609
86	0xbdad6c9e	-0.08467983
87	0x3d987049	0.07443292
88	0xbda25713	-0.07926764
89	0xbdc1c7a2	-0.09461905
90	0xbd35ae77	-0.044355836
91	0xbdebeb2a	-0.11519463
92	0x3d888389	0.06665713
93	0x3d86b0b8	0.06576675
94	0xbd216df1	-0.03941149
95	0x3bd688df	0.006547078
96	0x3e086f96	0.13323817
97	0xbcf2a778	-0.029620871
98	0xbdd1e5bc	-0.102488965
99	0xbce7f01c	-0.028312735
100	0xbdb025fb	-0.08600994
101	0xbb939e5d	-0.0045049624
102	0x3c04506e	0.008075817
103	0xbd777ddc	-0.060422763
104	0xbc4eb4e9	-0.0126163745
105	0x3d1e2917	0.038613405
106	0xbd584bcf	-0.05280667
107	0x3dea889e	0.11451839
108	0x3d9e146e	0.077187404
109	0x3d73ab85	0.059489746
110	0x3dbdbc49	0.09264428
111	0x3bca3f89	0.0061721248
112	0xbdbd8df4	-0.09255591
113	0xbdaa4784	-0.08314422
114	0x3dd6875b	0.10475036
115	0x3c656143	0.01400024
116	0x3dfd4da3	0.12368324
117	0x3b49d05d	0.003079436
118	0xbd993262	-0.07480313
119	0x3cbce6fa	0.023059357
120	0x3dd79779	0.10526938
121	0xbd3e8558	-0.046513885
122	0x3d22f027	0.03977981
123	0xbc284a77	-0.01027166
124	0xbdfffcb8	-0.12499374
125	0x3e005d15	0.12535508
126	0x3d9706ba	0.0737433
127	0x3cdae50b	0.026720544
128	0xbda606b0	-0.08106744
129	0x3c83e20a	0.016098995
130	0xbd6a7f8e	-0.057250552
131	0xbdfd54dd	-0.12369702
132	0x3b5ad4c8	0.0033390988
133	0xbdc2bdb4	-0.09508839
134	0xbe011af8	-0.12607944
135	0xbd4fee05	-0.050764102
136	0x3c2bcc59	0.010485732
137	0xbd73f658	-0.059561104
138	0xbd9af2dc	-0.07565853
139	0x3d2d59e6	0.042322062
140	0xbd2e4094	-0.042542055
141	0x3dd473c9	0.10373647
142	0x3dabf13f	0.083956234
143	0xbd255909	-0.040368114
144	0x3d13fb2d	0.03612821
145	0x3d976ae3	0.07393434
146	0x3c0f2d09	0.008738765
147	0x3de09c75	0.10967342
148	0xbd9b6990	-0.07588494
149	0xbde52885	-0.11189369
150	0x3d5486a5	0.05188622
151	0x3da3f3c3	0.08005478
152	0xbc37bb6d	-0.011214119
153	0xbca7e5db	-0.020495346
154	0x3dd92dd6	0.10604446
155	0xbd0c1eef	-0.034209188
156	0x3c9c5274	0.019082285
157	0x3da27c04	0.0793381
158	0x3dd78b08	0.10524565
159	0x3bf1107c	0.0073567014
160	0xbdf98f24	-0.12185505
161	0xbd973ce0	-0.07384658
162	0x3dc1fd9e	0.09472202
163	0x3cad8a50	0.021184117
164	0xbbc3c935	-0.0059749135
165	0x3d6fe60f	0.05856901
166	0xbde14c8d	-0.11000929
167	0x3dd3bca2	0.10338713
168	0xbd005cd6	-0.031338535
169	0x3c1eb2f1	0.009686218
170	0xbd9d6818	-0.0768587
171	0xbc41fd2a	-0.011840144
172	0x3da4bba5	0.08043603
173	0x3d58ee22	0.052961476
174	0xbd093101	-0.033494
175	0xbddcd092	-0.10781969
176	0xbd98cced	-0.074609615
177	0xbe0b9b34	-0.13633424
178	0x3cd7f733	0.026362991
179	0xbc383487	-0.011242992
180	0x3d69cd82	0.057080753
181	0xbcca3d0f	-0.024687318
182	0xbd108641	-0.035284285
183	0xbccce765	-0.025012681
184	0xbdde9cd4	-0.10869756
185	0xbd460664	-0.04834594
186	0xbdc32426	-0.09528379
187	0x3d376a1b	0.044778924
188	0x3d9e2fe6	0.0772398
189	0x3dc7a776	0.097487375
190	0xbcdc63a0	-0.026902974
191	0xbdc5b08c	-0.09652814
192	0x3cbeb4b6	0.023279529
193	0xbdedc45d	-0.11609719
194	0xbd815576	-0.063151285
195	0xbdc80ca3	-0.09768035
196	0xbdd9ccb8	-0.1063475
197	0xbcec660d	-0.028857255
198	0xbd822ffc	-0.063568085
199	0xbdccd3bf	-0.10001325
200	0xbc0b3f6a	-0.008499006
201	0xbc0b3428	-0.008496322
202	0x3cf38304	0.029725559
203	0x3ddc4de5	0.10757045
204	0xbde5e5c6	-0.112254664
205	0xbde6505d	-0.11245797
206	0xbdb8891c	-0.090105265
207	0x3d043f84	0.032287136
208	0x3d536149	0.05160645
209	0x3dbdfacf	0.092763536
210	0xbdfd25af	-0.12360703
211	0x3d123abb	0.03570054
212	0xbcd92ff8	-0.026512131
213	0xbd861231	-0.065464385
214	0x3d9e45ee	0.07728182
215	0x3d39fd0a	0.045407332
216	0xbdde54e1	-0.10856033
217	0xbd86160c	-0.06547174
218	0x3d02a047	0.031891134
219	0xbd0e2bb0	-0.034709632
220	0xbdda55bc	-0.10660884
221	0x3db5d11e	0.088777766
222	0x3c8047e6	0.015659284
223	0x3cfd694b	0.030933997
224	0xbd215e06	-0.03939631
225	0x3d1759a5	0.036950726
226	0xbdde5f01	-0.10857964
227	0xbd264091	-0.04058892
228	0xbdd4b31b	-0.10385724
229	0x3df43cf3	0.11925688
230	0xbda74cc8	-0.08168942
231	0x3d7f69ee	0.06235688
232	0x3d09f819	0.03368387
233	0x3d0443c7	0.0322912
234	0xbc93ff1e	-0.018065985
235	0xbd232e98	-0.039839357
236	0xbdcc9621	-0.09989572
237	0x3df2b988	0.118517935
238	0xbdceccd3	-0.10097661
239	0xbd252147	-0.04031494
240	0xbdb5c954	-0.08876291
241	0xbb1de5eb	-0.002409334
242	0xbde4df44	-0.11175397
243	0xbcd9e16f	-0.026596753
244	0xbcbff098	-0.023430154
245	0x3d750f21	0.05982888
246	0xbe049176	-0.12946114
247	0xbd309adb	-0.04311643
248	0xbd912d4f	-0.0708872
249	0x3cdc2edc	0.026877813
250	0x3dbada55	0.09123675
251	0xbe049521	-0.12947513
252	0xbdfa8a6b	-0.122334324
253	0x3db14f68	0.08657724
254	0x3dbf8495	0.0935146
255	0xbe034339	-0.12818612
