backup_before_cleanup/artifacts/models/simple_optimized/simple_lstm_fold_0.pt (torch, 292005 bytes, 15 tensors)

lstm.weight_ih_l0 f4 [256, 10]
000000 8e 56 b5 3d be 39 17 bd 47 f8 93 3d 45 5f 40 bd
       0.088543996 -0.0369203 0.072250895 -0.046965856
000010 f3 df 87 bd e7 ed ce 3d 01 70 bd bd ac 5f 10 bd
       -0.06634512 0.1010397 -0.09249879 -0.03524749
000020 07 45 d5 3d 16 1f 52 bc 33 bf 03 3d 2e 3c f3 3d
       0.104135565 -0.012824794 0.032164764 0.11876713
000030 23 b2 bc bd ec 0a aa bd d2 e1 b2 3b f2 b3 91 bd
       -0.092136644 -0.083028644 0.005459049 -0.071144
000040 27 9d eb 3c 06 e7 59 3c 03 2a a8 3b 5c 6b 64 bd
       0.02876146 0.013299709 0.0051319613 -0.05576645
000050 90 4c 19 3d fc c9 f8 3d d8 49 c9 3d 3e 32 4e 3d
       0.03742653 0.121479005 0.09828538 0.050340883
000060 7a ea a9 3d 57 5c a1 3b 83 71 0a 3c d2 7f ed bd
       0.08296676 0.004924338 0.008449915 -0.115966454
000070 0c a3 a0 3d e9 a4 d8 3d 1f e1 b1 3d 33 c6 8e 3d
       0.07843599 0.10578329 0.086855166 0.06971397
000080 04 a1 83 3d 5d 28 97 bb 86 6f bd 3d 1c 66 41 bc
       0.06427196 -0.004612966 0.09249787 -0.01180413
000090 51 f9 8c 3d 0c cc d3 bd b6 0a 24 3d 17 15 3c 3d
       0.06883491 -0.10341653 0.040049277 0.04591855
0000a0 94 60 08 3d 82 ac 05 bd 55 79 e5 3d 9e 02 33 3d
       0.03329523 -0.03263522 0.11204783 0.043703668
0000b0 40 fa 26 3c b3 46 f6 bd 4d aa 35 3d d1 82 ec 3d
       0.0101915 -0.120252036 0.044351865 0.11548389
0000c0 54 19 3e 3d 6a 70 be bd b6 b0 bd ba 0a 29 d1 3c
       0.046410874 -0.09298785 -0.001447222 0.025532264
0000d0 57 6e c9 bd 47 86 c2 3d e0 ec b0 bd f7 6e ac 3d
       -0.09835499 0.094982676 -0.0863893 0.08419602
0000e0 1f 7a cc 3d 26 91 ee bd 3c 30 ab 3d b6 7f 8b 3d
       0.0998423 -0.116487786 0.08358809 0.06811468
0000f0 89 ec 86 3c f6 ca fc bd 77 8c cc bd d4 ab 50 3d
       0.01647021 -0.12343399 -0.09987729 0.050945118
000100 14 b3 3e 3d 98 8e 9d bd ba a1 82 bd 7d b0 78 3d
       0.0465575 -0.07693213 -0.06378503 0.060715187
000110 bd 41 cd bd a9 cf 56 bc 53 23 79 bd db 4f 05 be
       -0.10022304 -0.0131110335 -0.060824703 -0.13018744
000120 fb 84 93 3d b7 8a b8 3d 7f 08 f1 bd 7e 3f 3d bd
       0.072030984 0.09010833 -0.117691986 -0.04620313
000130 78 df fb 3d 60 9a d7 3c 22 33 82 bd 62 d1 43 bb
       0.12298483 0.026318729 -0.06357409 -0.002987944
000140 fc d5 d1 bc 35 a7 ed ba 5a ae 35 3b a3 89 e2 bd
       -0.025614731 -0.0018131497 0.002772233 -0.11061408
000150 66 1a b8 3d 38 78 8f bd e2 1e dc 3d f4 5e 5d 3d
       0.0898941 -0.07005352 0.10748078 0.054045632
000160 10 63 78 3d 32 05 84 3d 20 34 88 bd 20 ca e0 3c
       0.06064135 0.064463034 -0.06650567 0.02744013
000170 73 2e 6b bd 98 2b dc 3d e2 bb 9c bd 92 81 1e 3d
       -0.057417344 0.10750502 -0.07653023 0.038697787
000180 bf b9 c3 3d f0 6b bc bd b6 93 e7 bd b4 01 be bc
       0.09556913 -0.09200275 -0.113074705 -0.023194171
000190 7d a4 68 3d c8 68 53 bd b1 73 81 bc 95 1e 5e 3c
       0.056797493 -0.0516136 -0.015802236 0.013557096
0001a0 b6 07 8c bb b7 2f cc 3d 42 2e 1c bd 1a ab 12 bc
       -0.00427338 0.099700384 -0.038130052 -0.008951927
0001b0 1a 80 3f 3d c4 64 d9 bc 0d a1 4f 3c 30 5b 4e 3d
       0.046753027 -0.026537307 0.012672675 0.050379932
0001c0 d7 8c b4 3d da 16 56 bd da f0 ad bc 9c 4e c4 bb
       0.088159256 -0.052267887 -0.021233011 -0.0059908163
0001d0 02 b2 cd 3d 16 24 25 bd 55 7f 41 bd 0f 33 a1 3d
       0.10043718 -0.040317617 -0.047240574 0.07871067
0001e0 8b a8 bf 3d 84 7f f3 3d 62 7e 98 3d ec c0 8b bd
       0.09358319 0.11889556 0.074459806 -0.06823906
0001f0 6d ce e2 bd a8 6f cc bd cd 1f 58 3d 9a aa 7d 3d
       -0.11074529 -0.09982234 0.052764703 0.061930276
000200 26 bf 7d 3d 27 8c 1b bb 90 37 c6 3d a1 ac ad 3d
       0.06194987 -0.002373466 0.096785665 0.08480192
000210 40 60 a7 bd 2c ba c5 bc 52 bc ee 3d a8 26 5a bd
       -0.08172655 -0.024136625 0.11657013 -0.05325952
000220 17 ec 94 3d c6 8c 92 3d 1b 67 a6 3c da 27 aa 3d
       0.07271593 0.07155757 0.020312836 0.08308382
000230 46 67 14 ba e7 3e 82 bb 9e d3 59 bd f0 70 4f 3b
       -0.0005661141 -0.0039747837 -0.05318033 0.003165301
000240 23 4d 86 bd de 2f e3 bd 4c 88 a2 3d 3c 7b c6 bd
       -0.065576814 -0.11093114 0.07936153 -0.09691474
000250 ac 83 c9 3c ab 3a 81 bd 77 39 09 3d 94 34 42 3d
       0.024598919 -0.06310018 0.03350207 0.047413424
000260 00 a4 0b 3d 14 4b 35 bd 52 96 9f 3d de 07 7a 3d
       0.03409195 -0.044261053 0.07792343 0.06104266
000270 65 4b 80 3d bd 00 4e 3c c6 8a 44 3d c3 9b 8e 3c
       0.0626438 0.012573418 0.047983907 0.017408257
000280 12 7b 31 3d dd b4 8c 3d 5d c8 b5 3d 89 78 4a bd
       0.04333026 0.068704344 0.08876107 -0.049431358
000290 00 d9 92 3d 48 a2 3b bc c8 af f1 bd fa 1e da bd
       0.07170296 -0.011452265 -0.11801106 -0.106504396
0002a0 cf b4 cf 3d 3a 4d eb 3d ac 58 3f bd 7c 60 d5 3c
       0.101419084 0.11489339 -0.046715423 0.026046984
0002b0 cc 5c 01 be 1e f5 c3 bd eb f4 10 3d 2c 12 0f bd
       -0.12633055 -0.09568237 0.035389822 -0.03492944
0002c0 8f 4f 08 bd 52 f9 4e 3d 4e 2d 8d bc 80 99 86 bd
       -0.033278998 0.05053074 -0.017233517 -0.065722466
0002d0 76 03 3f bd 70 a2 81 bd 24 09 08 3e a2 b9 55 bd
       -0.04663416 -0.063298106 0.13284737 -0.052178986
0002e0 9c 74 7a 3d 0e 4d 92 bd b9 82 5c bd fc f4 f7 bd
       0.061146364 -0.07143603 -0.053835604 -0.12107274
0002f0 38 8a fd 3d 8f 50 ce bc fa 60 86 bd 7d 05 b4 3d
       0.12379879 -0.025184898 -0.065614656 0.08790109
000300 33 81 b3 bc ea d8 00 3d 01 24 f0 3d 65 be 8b bd
       -0.021912193 0.031456865 0.11725617 -0.06823424
000310 0c 7d 05 3d c8 82 e4 bc c3 e7 af 3d 0d d5 b2 3d
       0.032589957 -0.027894393 0.08589127 0.087320425
000320 bb 8c b8 3d 8f ad 37 3d f2 1d b4 3d da 84 6f bb
       0.09011217 0.044843253 0.08794774 -0.0036547692
000330 f6 00 9a bd 3d 38 79 3d 6b 30 17 3b 07 34 35 bd
       -0.075197145 0.06084465 0.002306963 -0.04423907
000340 f1 02 5c bd 44 28 b6 3d 2d 61 3d 3c f1 bb a6 3d
       -0.053713743 0.08894399 0.011558813 0.08141316
000350 25 ee a8 bd 33 0b 95 3d 2b 93 c7 bd e9 15 fb 3d
       -0.082485475 0.07277527 -0.09744867 0.122600384
000360 2e 08 af bd ec 9d 61 bd af 10 c3 bd 3a 98 fc 3d
       -0.08546482 -0.055082247 -0.095246665 0.123337224
000370 a8 25 02 3d ce 0a 9b bd 55 4b a6 3c f8 d8 c0 3d
       0.031774193 -0.0757042 0.020299593 0.094163835
000380 ba cb 39 bd c9 70 4d 3d 40 af b9 3c a8 cf 75 bd
       -0.045360304 0.05015639 0.022666574 -0.06001249
000390 bb d8 65 bc 16 6f 26 3d 39 e5 1a bd fe 59 bc 3d
       -0.014028723 0.040633284 -0.03781626 0.09196852
0003a0 28 86 6d bd 3d 5c a7 3d 4c 74 1c 3d 7a c8 f8 3c
       -0.05798927 0.0817189 0.038196847 0.030369032
0003b0 5a 22 97 3d 5a f6 a1 3d 19 d6 81 bd 0b 8b ca bd
       0.07379599 0.07908316 -0.06339664 -0.098898016
0003c0 33 74 c9 3c 01 21 f2 bd 27 fe 87 3d d9 ae 67 bd
       0.02459154 -0.11822701 0.066402726 -0.056563232
0003d0 9d 48 7e bd 6b 01 b5 3c b5 5b 60 bc 73 f0 5f bc
       -0.06208097 0.022095403 -0.01369374 -0.013668167
0003e0 c0 03 1f 3d 5a 7b a9 3d df 2f 5c bc df 12 d2 3c
       0.038821936 0.082754806 -0.013439148 0.025643764
0003f0 02 32 15 3d df 08 e7 bd 2c d2 9f bd 81 5e ba 3d
       0.036424644 -0.11280989 -0.07803759 0.091000564

lstm.weight_hh_l0 f4 [256, 64]
000000 45 4b d5 bd af fc 85 3d 13 75 f1 bd 2b c0 e7 bd
       -0.10414747 0.06542336 -0.11789908 -0.1131595
000010 b3 5c 85 3b e9 07 2d 3d 9e d2 b7 bd 6c 9c a4 3d
       0.0040698885 0.04224387 -0.08975719 0.080376476
000020 b9 20 cb 3d eb a4 59 bd fe 51 5f 3d aa ff eb bd
       0.09918351 -0.053135794 0.054521553 -0.115233734
000030 12 6f 7c bd e9 0c 90 3d 2e 5e 09 bd f7 21 93 bd
       -0.061629362 0.070337124 -0.033537082 -0.07184213
000040 e2 45 99 bc b2 98 9e bc 69 fc 82 bc 7d 2a 17 3d
       -0.01871008 -0.01935992 -0.0159895 0.036905754
000050 55 2e bb 3d ef d7 ea 3d c7 7d a7 3d 55 af f3 bd
       0.091396965 0.11466967 0.08178287 -0.11898676
000060 71 ec b7 bd 06 1f a4 3d 75 a8 80 3d 41 07 d0 3d
       -0.089806445 0.0801373 0.06282131 0.101576336
000070 61 95 ef 3d 60 35 b6 bd 8f 47 eb bd 02 07 7a bb
       0.11698414 -0.08896899 -0.11488258 -0.003815115
000080 5f d2 27 3d d4 d9 97 bc 0f 17 b0 bd 34 9e d7 3d
       0.04097211 -0.018536486 -0.08598148 0.10528222
000090 07 cb 0b bd 33 0c d9 bb 92 29 02 3d 58 24 76 3d
       -0.03412917 -0.0066237687 0.031777926 0.060093254
0000a0 06 f3 a2 bd b2 dc 89 3d 3f 4c 7a bd f4 32 eb bd
       -0.07956509 0.067315474 -0.06110787 -0.11484328
0000b0 22 23 9c 3d 9b 98 ba 3c 89 48 6d 3d 4d d2 9e bd
       0.076238886 0.022777846 0.057930503 -0.077549554
0000c0 18 93 42 3b bb 1b 39 3d aa cc cb 3d 78 dc a1 bd
       0.0029689725 0.04519246 0.09951146 -0.07903379
0000d0 96 1f 07 bd d8 83 21 bd 52 21 d2 bc 2c 2d bf 3d
       -0.032989107 -0.039432377 -0.025650654 0.09334788
0000e0 79 3c e4 bd f0 56 a8 bd 58 d7 be bc e6 48 d7 3c
       -0.11144347 -0.08219707 -0.023296043 0.026279878
0000f0 f0 63 14 bd fb f8 ff 3d da f8 0c bd e4 e4 d9 3d
       -0.03622812 0.12498661 -0.03441701 0.106393605
000100 bb 31 da bd ca 7b a4 3c 3a 2c 2a 3c f2 7c a3 3d
       -0.106540166 0.020078558 0.010386521 0.07982816
000110 b4 50 bf bd 26 32 8d bd 91 27 35 bd 67 39 11 3d
       -0.09341565 -0.06894331 -0.044227187 0.035455134
000120 06 df b8 3d 31 8b b6 3d ce c4 8e bd a0 94 72 3d
       0.09026913 0.089132674 -0.06971131 0.05922377
000130 1b 6c ea 3d b1 4f e1 bd cc 85 97 3d 87 e7 af bd
       0.11446401 -0.11001528 0.073985666 -0.08589082
000140 9a 09 66 3d 82 6f 7a 3d fe 49 60 3d c4 0c 31 bd
       0.0561615 0.0611415 0.054758064 -0.043225065
000150 b1 b6 b2 bd 69 d7 93 3d ba 4d 97 bd 15 53 eb 3d
       -0.08726252 0.072188206 -0.07387872 0.11490456
000160 09 07 73 3d c7 c2 ab bd 8f da 31 bd e5 29 fa bd
       0.05933288 -0.0838676 -0.043421324 -0.12215022
000170 2b 42 f9 3d 11 97 b2 3c 2f 69 c5 bc 7b 3a 56 3c
       0.12170824 0.02180055 -0.024098007 0.013075466
000180 72 12 8a bd 34 35 f2 3c 3d f0 a9 3d b0 b4 4a 3d
       -0.067417994 0.029566385 0.08297775 0.049488723
000190 aa 1f 14 bd e5 f4 61 bd ec 3c 82 bd 27 da a5 3d
       -0.03616301 -0.05516519 -0.06359276 0.0809825
0001a0 77 65 67 3d 3f 0d 4a bd c2 70 63 bc 97 25 a8 bd
       0.05649325 -0.04932904 -0.013881864 -0.08210295
0001b0 91 56 b3 bd 6f 1e 41 3d ee 58 55 3c 01 f0 cc 3d
       -0.087567456 0.047148164 0.013021691 0.100067146
0001c0 b4 52 b8 3d 63 38 c2 3d 08 b9 e9 bd f1 f8 f8 bc
       0.09000149 0.09483411 -0.11412245 -0.030392142
0001d0 88 37 b5 3c 2c 6e c3 bd 27 aa c1 3c 3d 94 bc 3d
       0.022121206 -0.09542498 0.023640705 0.09207962
0001e0 b7 ba be 3d 44 27 82 bd b1 f8 46 bd 15 65 5f 3d
       0.09312957 -0.063551456 -0.048577014 0.05453976
0001f0 38 44 ec 3b d2 c9 f0 3d c8 de b4 3d c5 a1 10 3d
       0.0072102807 0.11757244 0.08831555 0.035310525
000200 47 03 ac 3d 6c 4f 32 3d ef f9 c2 bd fa 76 d8 3b
       0.083990626 0.043532774 -0.09520327 0.00660598
000210 9e d3 b7 bc fd 6a d5 bd 23 81 33 bd 46 5a e7 3d
       -0.022439774 -0.10420797 -0.043824326 0.11296515
000220 ab 5f b9 3c f1 6c 5b bd 7e 26 53 3d 2d 9b da bc
       0.022628626 -0.05357069 0.05155038 -0.026685322
000230 b2 c7 58 bd e1 6f 00 3e f2 25 d4 bd cf 36 c8 3d
       -0.05292482 0.12542678 -0.103588 0.09776079
000240 d4 b1 13 bd a7 97 46 3d c3 20 35 bd 73 45 c7 3c
       -0.036058262 0.04848447 -0.044220697 0.024325108
000250 de 95 01 bd da 5c d7 3b 58 b7 b3 3d ba 5b d2 3c
       -0.031637065 0.006572348 0.087752044 0.025678504
000260 76 7f b3 3d ff 5c 65 bd 64 3d fa bc a8 56 b4 3c
       0.087645456 -0.05599689 -0.030546851 0.022013977
000270 61 7b 8c 3d 10 fa 25 3c 9c 6a 99 3d 22 17 8d 3b
       0.0685947 0.01013042 0.07491037 0.004305736
000280 b2 72 a9 3d 85 28 45 bd a4 32 ac 3c 0e 4c 86 bd
       0.082738295 -0.048134346 0.021020241 -0.06557475
000290 87 1e 80 bd 03 95 76 3d 8e 15 28 3d e1 16 9d 3d
       -0.06255823 0.060200702 0.04103618 0.076703794
0002a0 b3 46 e9 bd cc 12 9c bd 15 7b f5 bc 87 0a c6 bd
       -0.11390438 -0.07620773 -0.029965917 -0.09669977
0002b0 74 52 b7 bd 7e 13 28 bd 0d ab 99 bd 86 cd ee 3d
       -0.089512736 -0.041034214 -0.075033285 0.11660294
0002c0 bf 19 e5 3d 20 08 00 3e 37 23 e6 3c 0e c7 52 bd
       0.11186551 0.125031 0.028092964 -0.051459365
0002d0 e4 32 0a 3c 20 b1 ad bd 58 1d 04 be 49 4d e5 3d
       0.008434985 -0.084810495 -0.12901819 0.111963816
0002e0 95 82 50 bd cb 71 8d bd 62 af a8 bd 64 15 e9 3d
       -0.050905783 -0.0690647 -0.082365766 0.11381033
0002f0 90 ee f7 bc 31 bf b5 bd be 1f ec bd 8d 6d b2 bd
       -0.030265123 -0.088743575 -0.11529492 -0.087123014
000300 be 54 04 be 57 c7 86 3d f0 33 77 bc 78 c4 f1 bd
       -0.12922952 0.0658099 -0.015088066 -0.118050516
000310 10 ac a9 3c d7 49 8e bd 50 95 88 bc e4 24 d4 bd
       0.020711929 -0.069476776 -0.01667276 -0.10358599
000320 68 26 6e 3d c4 4c e4 bd f5 c0 03 3d 24 ea 28 3b
       0.058142096 -0.111474544 0.03216644 0.0025774324
000330 08 c3 20 3d 2d 9f a1 bd a4 98 c8 bb 37 fc a9 bd
       0.039248496 -0.078916885 -0.006121712 -0.08300059
000340 69 84 18 bd ed 00 ac 3d 00 60 07 3e 96 a6 0b 3e
       -0.03723565 0.08398614 0.13220215 0.13637766
000350 d1 a5 94 3d ae 57 a6 bd 88 03 32 bd a8 f4 08 3c
       0.072581895 -0.08122192 -0.0434604 0.008359112
000360 05 01 65 3d c1 a6 01 be a6 e9 a2 bd 86 78 7f 3d
       0.055909175 -0.12661268 -0.07954721 0.0623708
000370 61 2b ea 3d 44 b4 bc bd 2b fe 0e bc eb 70 aa bd
       0.11434055 -0.092140704 -0.008727591 -0.08322319
000380 ff c7 d6 bd 1d ab 1a 3d c7 6c 00 3e c3 68 e7 3c
       -0.10487365 0.037760843 0.12541495 0.028248196
000390 58 2e ec bd a2 50 02 bc 77 8f 8e 3d 2a a7 8a 3d
       -0.11532277 -0.007953795 0.069609575 0.06770165
0003a0 04 34 9f 3d 0d b8 a3 3d cf 28 61 3d ad ea c4 3d
       0.07773593 0.07994089 0.05497056 0.09615073
0003b0 c4 21 62 3d 0b 0b ad 3c 0d 01 18 bd be bc 20 bd
       0.055207983 0.02112343 -0.037110377 -0.0392425
0003c0 79 0c c4 3d 02 e2 c4 bd f6 52 f2 bd 9e 5f 3e 3d
       0.095726915 -0.0961342 -0.1183223 0.046477906
0003d0 04 1c ce bc 92 c6 9f 3d b9 73 aa bd 2b 97 27 bd
       -0.025159843 0.07801546 -0.083228536 -0.04091565
0003e0 5a e8 28 3d 1c 29 c4 3d 8c 80 5e bd d9 8a 61 bd
       0.041237213 0.095781535 -0.05432181 -0.055064056
0003f0 60 cb 8e 3c d5 2c bd 3c e7 c0 e4 bb c0 91 3b bd
       0.017430961 0.023092667 -0.0069810036 -0.045793295

lstm.bias_ih_l0 f4 [256]
000000 e3 6f 98 3d 5a 84 54 bd f0 09 e7 3d 51 87 05 bd
       0.07443216 -0.051884033 0.11281192 -0.03259975
000010 28 c3 ec bd a9 21 b4 bd 17 81 76 bd d3 1a 2d 3d
       -0.115606606 -0.08795483 -0.060181703 0.04226191
000020 1e 00 1f bd d4 51 dd bd 05 24 04 bd 89 87 a0 bd
       -0.03881847 -0.10806623 -0.032260913 -0.07838351
000030 35 35 66 3d 6f 74 0b be df a8 90 3d c5 75 2b bd
       0.056203086 -0.13618635 0.070634596 -0.04186036
000040 0a 40 19 3d f2 95 94 bd 8c 71 bc 3d b5 20 b2 3d
       0.037414588 -0.07255162 0.09201345 0.086976446
000050 b7 f6 ec bd dc 12 9e bd b0 d9 be 3d bc 4f 06 3e
       -0.115704946 -0.07718441 0.09318864 0.13116354
000060 60 74 07 3d c6 98 9e 3d 49 ee a5 bd df c6 78 3d
       0.03306997 0.07743983 -0.0810209 0.060736533
000070 bc 70 c0 bd b1 bc 7c bd b7 da f9 bd 11 4e 2c 3d
       -0.093965024 -0.061703388 -0.1219992 0.042066637
000080 eb f4 b9 3d a6 0f bf 3d 41 bc df 3c 79 13 10 bd
       0.090799175 0.093291566 0.027311446 -0.03517482
000090 02 e6 56 bd fd 64 a3 3d b9 b9 86 bc cb 08 87 bd
       -0.052465446 0.07978246 -0.016445981 -0.06593474
0000a0 a4 2c e6 bd d5 34 96 bd 68 21 cc bd 1c 8e 70 3d
       -0.11238983 -0.07334296 -0.09967309 0.058729276
0000b0 cf 1e 6e bd 2e 32 d6 bd 6d 2c 84 bd 9f ea 0c bd
       -0.05813485 -0.1045879 -0.06453786 -0.03440344
0000c0 4e 1a f8 3c 55 44 4e bd 1a 39 d7 3c ab 0b a5 bd
       0.03028598 -0.050358135 0.026272345 -0.08058866
0000d0 01 33 e3 3c ee 9c 07 3e 29 29 67 3d 6b 7e f8 bc
       0.027734281 0.13243458 0.056435738 -0.030333718
0000e0 9a 6d 10 3d 61 a9 84 3d db 49 97 bc 6c 32 e2 bb
       0.035260774 0.06477619 -0.018467834 -0.0069029834
0000f0 40 8d c2 b6 d7 0f 3d bd 3a d8 82 3d 73 2d c9 bd
       -5.798094e-06 -0.046157684 0.06388898 -0.09823122
000100 53 ef d9 bd 7b e5 40 bd 22 3a 7f bd 14 30 da bd
       -0.106413506 -0.04709385 -0.0623113 -0.106537014
000110 24 7a 5f 3d f8 65 d7 bd 5c 5a c5 bd ee 28 ce bc
       0.05455984 -0.10517496 -0.09636375 -0.025166001
000120 9d df de bd 80 a1 eb 3d 03 0e 91 3d 73 3e 86 bd
       -0.108824946 0.11505413 0.07082751 -0.0655488
000130 0a 63 6f bd 24 1d b9 bd ab b0 f9 bc 28 53 c3 3d
       -0.05844406 -0.09038761 -0.03047975 0.09537345
000140 3b 07 4b bc 36 4f 4f bd b2 c3 f6 3d 01 fe 00 3d
       -0.012391861 -0.05061265 0.12049045 0.031492237
000150 00 be bd b6 cc 12 c9 3d 63 da 56 bd 6b 44 c9 bd
       -5.654758e-06 0.09818038 -0.052454364 -0.09827503
000160 6c 70 43 bd 8c 76 bf bd 16 5f a9 3d 03 1f d4 bd
       -0.047714636 -0.09348783 0.08270089 -0.103574775
000170 1a 3c 36 3d 17 67 60 3d 81 54 e1 3d 53 22 77 3d
       0.04449091 0.054785814 0.11002446 0.06033547
000180 64 c9 2d 3a d0 6f b6 bd 50 3a d8 3d a3 c3 47 bd
       0.0006629436 -0.08908045 0.10557997 -0.048770558
000190 62 ac 1c 3b c7 15 2f 3d 83 6a 53 bd 80 9a 37 bd
       0.002390646 0.042745378 -0.05161525 -0.044825077
0001a0 f5 38 b1 bd 9c 88 c0 bd 95 c7 87 3d 72 9b 47 3d
       -0.08653442 -0.09401056 0.06629864 0.04873223
0001b0 ab 3f 6f 3b 75 e6 9b 3d a2 00 91 3c cb 31 f0 3d
       0.0036506455 0.076123156 0.017700497 0.11728247
0001c0 65 6a 04 3e 13 a0 97 3d 2e b7 09 3d 8c c9 ca 3d
       0.12931211 0.074035786 0.03362196 0.09901723
0001d0 0e 30 a8 3c 29 17 be 3c 6e 7e de bc b2 56 87 3c
       0.020530727 0.023204403 -0.027159896 0.016520832
0001e0 b4 9b 8a 3d ed 2b d8 bd 14 eb 4b 3d e3 d4 d4 3d
       0.06767979 -0.10555253 0.049784735 0.103921674
0001f0 48 38 f7 bc 28 09 e5 3b 03 bf db bd c5 6a e4 3d
       -0.030178204 0.006989617 -0.10729792 0.11153177
000200 f5 2f e9 3d 59 cc de bd 21 e1 69 bd 0e 23 d1 3d
       0.113861 -0.1087882 -0.057099465 0.10211764
000210 d7 cc ba 3d 36 cc 9b bc 25 7e 9e 3d ee cd 0c bd
       0.09121101 -0.019018274 0.07738904 -0.034376077
000220 75 0d 02 3d 11 4e 36 bd c8 30 e5 3c af de ad bd
       0.031751115 -0.044508044 0.027977362 -0.08489739
000230 cc da af 3d 6d 53 ae 3d 1a 3a 13 3d fe 8d 10 3c
       0.08586654 0.08512006 0.03594408 0.008822916
000240 0d 39 e5 bd de b3 cc bb aa 6d aa 3d e1 b4 6b 3d
       -0.11192522 -0.006247028 0.08321698 0.057545546
000250 11 48 9f 3d ac e0 8c 3d 16 01 01 be 83 61 e8 bd
       0.077774175 0.0687879 -0.1259807 -0.11346724
000260 05 e4 42 3d b9 3f 8a 3c 5b 3f c7 bd ab 81 18 bd
       0.047580738 0.016876088 -0.09728881 -0.037233036
000270 17 6d d3 3d 44 59 f6 3a e1 73 63 bd f5 4c 3b 3c
       0.103235416 0.0018794914 -0.055530433 0.011431922
000280 a7 b0 2f 3d 50 7d 97 bd 0b c6 fd 3d 11 42 a3 bd
       0.04289308 -0.07396948 0.12391289 -0.079715855
000290 19 56 bb bc 0b fd 83 bc 85 7e 44 bc 66 a7 1f 3d
       -0.022868203 -0.016111871 -0.011993055 0.038978003
0002a0 01 ae e3 bd 56 3f 9a bc 6b 19 ed 3d 98 05 d7 bd
       -0.11117173 -0.018829029 0.11577114 -0.10499114
0002b0 5d 79 21 bc e1 df 42 3d 18 c9 94 bd 45 ee c1 3c
       -0.009855595 0.04757679 -0.07264918 0.023673186
0002c0 56 b7 d3 bd d7 9d ea bb ec 81 84 3d 92 7c c7 bd
       -0.10337703 -0.0071599293 0.06470093 -0.09740557
0002d0 07 93 f7 3b 02 16 0b bc 43 85 c2 3c 2b 74 ba 3d
       0.007555369 -0.008489134 0.023745185 0.091041885
0002e0 80 ea 69 bc 3c 04 cf 3d c5 a2 39 bc ee 67 8e bd
       -0.014277101 0.101082295 -0.011330311 -0.06953417
0002f0 60 ad 84 bd ad d7 8e bd 1d 18 c3 3c e2 50 90 3d
       -0.06478381 -0.06974731 0.023815209 0.07046677
000300 fc 39 ef bd ce 7d 6a 3d 6c 93 c4 3d 9a 6e 3b bd
       -0.116809815 0.057248883 0.09598431 -0.045759775
000310 a4 c7 fa 3d 8a 9a ad bd 27 3e 3f bd 85 4a d3 3d
       0.1224511 -0.084767416 -0.046690132 0.10316948
000320 72 f4 01 3d 99 f8 72 3d 95 f2 e8 3c 0d 44 b7 3d
       0.03172726 0.059319112 0.028435985 0.089485265
000330 08 68 e3 bc d5 41 ca bd 78 13 96 bd 32 7e b9 3d
       -0.027759567 -0.09875838 -0.07327932 0.09057273
000340 f2 cd 2c 3c 12 54 2e 3c 34 09 c3 3d 28 d0 be 3c
       0.010547148 0.010640161 0.0952324 0.023292616
000350 86 47 b0 bd 9e 11 f5 3a ac 1a 01 3d 80 4c 6b 3a
       -0.08607392 0.0018697267 0.031519577 0.0008975938
000360 c3 da 63 3d 9c de 97 bd ee 1e 6d 3d d6 1f d0 3d
       0.05562855 -0.07415506 0.057890825 0.10162322
000370 72 9a d0 3d c9 ef 44 bd 16 44 14 3c c3 af 91 3d
       0.10185708 -0.04808024 0.009049436 0.07113602
000380 23 56 e7 3d 92 75 e9 3b da d3 35 bd 12 45 f3 3d
       0.11295726 0.007124611 -0.04439149 0.118784085
000390 fb 11 ca bc e8 ab 9b bd 53 89 03 be fd 59 97 3c
       -0.024666777 -0.07601148 -0.12845354 0.018475527
0003a0 2e f4 91 bd b1 31 d6 bd db ec f1 3c 75 92 46 3d
       -0.07126652 -0.10458697 0.029531887 0.048479516
0003b0 08 16 9e 3d b9 18 fe 3d 2c a0 03 3d 52 9e 1c bd
       0.07719046 0.12407059 0.032135174 -0.038236924
0003c0 80 1e 2c 3c 75 e7 f3 bd 84 45 00 3e ad d3 67 3d
       0.010505319 -0.11909381 0.12526518 0.056598354
0003d0 d9 97 04 be 5f cb c9 bd 92 02 9c 3d f9 27 0c 3c
       -0.1294855 -0.09853243 0.07617678 0.008554452
0003e0 91 08 0e 3e aa 81 90 bd 02 77 49 bd 3e 72 cc 3d
       0.13870455 -0.070559815 -0.04918576 0.099827275
0003f0 25 31 be bd 2f d6 ac 3a 38 d5 43 bc 59 62 f0 3c
       -0.09286717 0.001318639 -0.011952691 0.02934377

lstm.bias_hh_l0 f4 [256]
000000 37 34 4e 3d a5 03 14 bd 24 33 37 bd 3f e9 88 3d
       0.050342765 -0.03613629 -0.044726506 0.06685113
000010 eb 64 af bc 88 71 15 bd 38 f1 23 3d 66 94 09 3d
       -0.021410426 -0.036485225 0.040024966 0.03358879
000020 34 0b 67 3b 1e fe 58 bd 74 3f af 3d 7b f8 c8 3d
       0.003525448 -0.05297672 0.085570246 0.09813019
000030 e4 86 21 3d c0 e0 26 3d 86 83 2a bd 47 56 42 3d
       0.039435282 0.040741682 -0.041629337 0.04744556
000040 f8 56 e2 3d 91 9c 1f 3d 0c b9 bd 3d 4a c2 e4 3d
       0.11051744 0.038967673 0.092638105 0.1116987
000050 61 0a b0 bd bb e3 a2 3c 5c 73 fb bc f0 26 ff 3d
       -0.085957296 0.019883981 -0.030694656 0.124585986
000060 38 7f cf bc 04 44 f0 bd f9 3e be bd 83 d7 bd 3d
       -0.025329217 -0.11731723 -0.09289355 0.09269621
000070 b0 0b 04 be 3d bc e8 bd 24 76 e3 bc f3 0f 49 3d
       -0.12895083 -0.113640286 -0.027766295 0.049087476
000080 17 94 22 3d f1 fe 70 bd 7c b8 ad 3c db d1 dc 3c
       0.03969201 -0.05883688 0.021206133 0.026955536
000090 a2 ad c2 bd fb cf 52 bd 66 82 df bc d3 fd 98 3d
       -0.09505774 -0.051467877 -0.027283859 0.07470288
0000a0 ae 37 b9 bd 13 47 c7 bd 31 d4 75 3d dc 93 96 3b
       -0.09043823 -0.09730353 0.060016815 0.004595263
0000b0 c6 b2 04 3e 34 60 f5 bc cd 3d b6 bd e5 c4 15 3d
       0.12958822 -0.0299531 -0.08898506 0.036564726
0000c0 0a c0 0d bc 88 cf 9b bd 3a 21 6b bd ff 47 da 3d
       -0.008651743 -0.07607943 -0.057404734 0.106582634
0000d0 90 03 a6 3d c7 18 03 3c 61 f7 09 3d e6 2c b7 3d
       0.08106148 0.008001513 0.033683185 0.089441106
0000e0 23 be 6f bd d5 42 03 3e 45 b2 30 bd c3 af a0 3c
       -0.058530938 0.12818463 -0.04313876 0.01961506
0000f0 35 6c 14 3d 47 b9 90 bd a6 43 b1 3d 67 18 a0 3d
       0.036236007 -0.07066589 0.08655481 0.078171544
000100 9f b6 00 3e 11 d1 e9 bd c2 4d 73 bd af ea 6a 3d
       0.12569664 -0.114168294 -0.059400328 0.057352718
000110 be 3b 04 3d ec 1c a1 3d 56 11 1b 3d 78 2f b4 3d
       0.032283537 0.078668445 0.03785833 0.087981164
000120 f7 97 f5 3d cf 2a 33 3b b9 36 f3 3d d1 ef 9d 3d
       0.119918756 0.0027338748 0.11875672 0.07711757
000130 a7 ff ce bd 61 f9 33 bd 06 85 66 3d e5 65 82 3c
       -0.101073556 -0.043938998 0.056279205 0.015917728
000140 2c 7e 3e bc da dc 6d 3d 91 85 9b bb 0e c6 f1 bb
       -0.011626761 0.05807195 -0.004746147 -0.0073783463
000150 9c 1a 9b 3d d0 36 87 3b f2 23 cd bd 16 a8 21 3b
       0.07573435 0.004126407 -0.10016622 0.0024666837
000160 4b ab f2 3d 53 d5 c9 bd 54 38 de 3d 1d ef a8 bd
       0.11849078 -0.098551415 0.108505875 -0.08248732
000170 02 2c b3 bd 93 cd 3c 3d fb 7a fc 3d 39 cb 4b bd
       -0.08748628 0.04609449 0.12328144 -0.049754355
000180 d8 34 85 3d 56 ec c0 bd 8a b9 8e 3d 60 ed f6 bd
       0.0650422 -0.094200775 0.069689825 -0.120569944
000190 31 30 f1 3c a1 9f c9 bc fe 08 bf bd 99 f6 09 3e
       0.029441925 -0.02461225 -0.09327887 0.13472976
0001a0 ed 28 89 3d 16 e3 36 3a 5e 0e c8 3c e9 0c a9 3c
       0.06697259 0.00069765875 0.024420913 0.020636039
0001b0 12 20 ae bd 34 58 51 3c 1c c8 65 bd e8 1d 75 3b
       -0.08502211 0.012777377 -0.056099042 0.0037401859
0001c0 57 d8 a3 bb d5 7c e2 bd 77 1d b0 3c e3 4c 3d 3d
       -0.005000155 -0.11058966 0.021498425 0.046215903
0001d0 92 67 bf bd 7c 59 d3 3c 97 ef 73 3c 0d f7 22 3d
       -0.09345926 0.025799505 0.014888666 0.039786387
0001e0 7b e6 1d 3d c2 62 cf 3d 48 09 be bd a2 0b d8 3c
       0.03854988 0.101262584 -0.09279114 0.026372734
0001f0 23 7f bf bd f0 6c 7d 3c 0b 51 4e 3d 6b ab b2 3d
       -0.09350421 0.015467867 0.050370257 0.08724102
000200 d1 ff c9 bd d1 96 d0 3d 1f e4 05 3d c6 28 99 bc
       -0.09863246 0.10185016 0.032688256 -0.0186962
000210 37 93 90 3d b6 46 b8 3d 5f 21 8e 3d 40 be fe bd
       0.07059329 0.08997862 0.06939959 -0.12438631
000220 14 b4 82 bc 01 97 5b 3c 78 8c b6 3d 74 a2 a2 3d
       -0.015955009 0.013402701 0.08913511 0.07941142
000230 5f 77 5e 3d b3 7f 9b 3d 18 48 da bd bd f4 f3 bd
       0.05431306 0.07592716 -0.10658282 -0.119119145
000240 33 ef a6 3d da ee 98 b8 8e 7e 91 3b 59 c5 2a bd
       0.081510924 -7.2924144e-05 0.0044401353 -0.04169211
000250 fb 97 41 3d 21 00 af 3c 5c 41 32 3c f3 88 ac 3c
       0.04726408 0.021362366 0.010879841 0.021061396
000260 f8 92 37 3d 2c 6e c2 3c cb c1 af 3d a9 a2 bf bd
       0.044817895 0.023734175 0.08581885 -0.09357197
000270 b1 aa f7 bd ed 73 93 bd ec 28 b0 bd 83 85 69 bc
       -0.12093104 -0.071998455 -0.08601555 -0.014253023
000280 81 91 e6 bd 53 4a 5b 3d c8 2e 7e 3d e5 dc d7 3d
       -0.112582214 0.053537678 0.062056333 0.10540179
000290 83 60 9d bc 8f c4 a0 3d e2 30 5b bd be 8f 66 bd
       -0.01921106 0.078499906 -0.053513415 -0.056289427
0002a0 69 86 99 bd 7a fb 7c 3c 75 02 c6 bd 54 7b 7f ba
       -0.0749634 0.015440816 -0.096684374 -0.00097458554
0002b0 b8 31 02 bd 9f c0 28 bd 94 63 b4 3d 78 71 a9 3d
       -0.031785697 -0.041199323 0.088080555 0.082735956
0002c0 b6 3f ae 3d c5 1b 81 bd e7 cb ab bc 79 e2 a1 3c
       0.08508246 -0.06304125 -0.020971252 0.01976131
0002d0 40 58 c7 3d 4f 3e 66 3d b3 d6 30 bd 94 43 71 bd
       0.09733629 0.056211766 -0.043173503 -0.05890234
0002e0 9d bc 72 bd 20 8e ee bd 6f 96 77 3c dc 17 cd 3d
       -0.059261907 -0.11648202 0.01511155 0.100143164
0002f0 74 9c d8 3c b9 7c ef bd 59 04 e0 bc 44 4d 16 bd
       0.02644179 -0.11693711 -0.027345823 -0.03669478
000300 ea a0 ea 3d 2a c7 0d 3d fe c1 d4 bd ef f9 80 bd
       0.11456473 0.034613766 -0.103885636 -0.06297671
000310 09 e9 9f bd ea f9 eb 3c 67 9f 01 3e dd 79 fa 3d
       -0.0780812 0.028805692 0.12658463 0.12230275
000320 94 dd d9 bc 25 04 e4 3d 95 e4 2b 3d b0 75 ca bd
       -0.026594914 0.11133603 0.04196604 -0.09885728
000330 98 97 5c bc f8 be 96 bc 3a da dc bd 36 03 ea 3d
       -0.013463877 -0.018401608 -0.10783811 0.11426394
000340 a2 48 da 3c eb 41 06 3d 7d 72 9d 3b 1b cd 56 3d
       0.026645962 0.032777708 0.004804908 0.052441698
000350 2a d6 df 3d 67 a5 b7 3d 4a 74 20 3c 1d 2a ea bd
       0.109295204 0.08967095 0.0097933505 -0.11433814
000360 02 30 81 bc ec 76 48 bd fe cd 83 3c 9a 59 9e bd
       -0.015769962 -0.048941538 0.016089436 -0.07731934
000370 fb 90 22 bd a5 26 ea bd 1f 15 ad bd 40 9c 06 3e
       -0.039689045 -0.11433152 -0.08451294 0.13145542
000380 8e f1 06 3e 37 4a 1d 3d d2 9b c1 3d ec fa 10 bc
       0.13178083 0.038400855 0.094535485 -0.008848887
000390 a2 79 b8 3d 14 29 6b 3b db 21 58 bd 20 29 e0 ba
       0.090075746 0.0035882639 -0.052766662 -0.00171021
0003a0 a5 35 8d 3c 67 f7 cb bd 2a ae f5 3d e1 9e 45 bc
       0.017237494 -0.099592976 0.1199611 -0.012061805
0003b0 c2 05 bb 3d c4 a5 ab 3d 39 53 78 3d 0e 5a a9 bd
       0.091319576 0.08381227 0.060626242 -0.0826913
0003c0 fb f3 80 bc 5c bf 88 3c b1 3a 09 3e 23 bb e9 3d
       -0.015741339 0.01669281 0.13401295 0.114126466
0003d0 a2 9b 9d bd cb a3 c8 bd 48 a6 8e bd 95 d2 b1 bc
       -0.076957 -0.09796866 -0.069653094 -0.021706859
0003e0 6c 11 65 3b 84 13 d1 bd a3 d2 a5 3d 97 eb 88 bb
       0.0034953011 -0.102088004 0.080968164 -0.004178475
0003f0 cf b2 b5 3d b8 26 b5 3d b6 59 85 3c b8 32 87 bd
       0.08871996 0.08845276 0.01627813 -0.06601471

lstm.weight_ih_l1 f4 [256, 64]
000000 ac 62 f6 3c 8b 41 b2 bc bd bd ed bd e6 5a 93 3c
       0.030076347 -0.021759769 -0.11608455 0.01798768
000010 99 d8 91 bd bd af 23 ba 8a e1 56 3d bc 08 d8 3d
       -0.07121391 -0.00062441436 0.052461185 0.10548541
000020 5f a3 c7 3d f3 83 b1 3d 5e 83 06 3e 28 c0 85 3d
       0.097479574 0.086677454 0.1313605 0.065307915
000030 6c e8 59 3d a4 94 d6 bd 82 4b ed bd 88 1d c3 3d
       0.05320017 -0.1047757 -0.115866676 0.09527117
000040 0e 4d 92 bc 98 5c 67 3d 66 44 bb 3d aa 4f fa bd
       -0.017859008 0.05648479 0.09143905 -0.12222226
000050 8b 3b a0 bd 0c 91 c3 bd 00 1f e7 3d d9 c4 8b 3d
       -0.07823857 -0.0954915 0.1128521 0.06824655
000060 c0 d8 11 3c 5e 16 49 bd b4 02 da 3d 24 c9 86 3d
       0.008901775 -0.049093597 0.10645047 0.06581333
000070 a2 d2 1e 3d 7c 73 e3 bc 9d c8 c4 3d 13 70 e0 bd
       0.038775094 -0.027765028 0.096085764 -0.109588765
000080 33 0e a0 bd 69 a0 c8 bd 93 5e 17 3d 7c 8a 92 3d
       -0.07815208 -0.09796221 0.036955427 0.0715532
000090 0f 1e 9f 3d a1 b7 82 bd d4 57 1d bd 66 44 d6 bd
       0.07769405 -0.06382681 -0.038413838 -0.10462265
0000a0 9f 05 38 bd c5 62 1e bb c8 1d f9 3c c8 9d 24 3d
       -0.044927236 -0.0024167758 0.030409709 0.040189534
0000b0 02 6d d2 bd 70 56 a5 bd 63 1f e5 3c 8b d0 c8 bd
       -0.10274698 -0.08073127 0.027969068 -0.098054014
0000c0 e9 ba e8 3c 36 a8 91 bd ec 4f a2 3d ee c9 82 bd
       0.028409438 -0.07112162 0.079254 -0.06386171
0000d0 49 db 66 bd e1 84 80 bd dc 28 4c 39 42 0d d9 3d
       -0.05636147 -0.06275345 0.00019470177 0.10598232
0000e0 c0 c3 b4 3d 49 be 87 3d 7f 43 ad bc ae 07 02 3d
       0.08826399 0.06628091 -0.021150349 0.031745605
0000f0 b2 76 89 bd 43 ce fd 3c 95 7d fb bc ce 73 e8 3d
       -0.067120925 0.030982142 -0.03069953 0.11350213
000100 c2 3b ca bd f9 d2 11 3d ab ae 7d 3c 63 90 d5 3b
       -0.09874679 0.03560159 0.015483539 0.0065174564
000110 bb 8e 30 3d aa 32 a3 3d 6a e5 6d 3c d0 b9 d7 ba
       0.04310487 0.07968648 0.014520029 -0.0016458575
000120 ec 06 04 3c e8 af 17 3d 21 e3 22 3d cf 69 39 3d
       0.008058291 0.03703299 0.03976739 0.045266923
000130 56 c2 88 bd 82 3a 02 3e 32 a1 be bc 3b 4c b1 bd
       -0.06677692 0.12717631 -0.023270223 -0.08657118
000140 84 7e f8 bc c3 fa de 3d e2 20 e2 3d bd e5 ca bd
       -0.030333765 0.10887673 0.11041428 -0.099071
000150 af 17 d6 bc 79 b9 a8 bd 90 e3 cb 3d bf 3c 5a 3d
       -0.02613434 -0.08238501 0.099555135 0.05328059
000160 7a 19 01 bb 8a 95 ca bc f1 c0 b8 3c cb 48 fb bc
       -0.0019699023 -0.024729509 0.02255294 -0.030674359
000170 40 2f 86 bc f1 e5 ce bd df 9c 56 3d 8d 2b 5c 3c
       -0.016379952 -0.101024516 0.052395698 0.013438118
000180 dc c6 61 3d e7 d6 93 3d 75 ea 3c bd 81 ab b2 bd
       0.055121288 0.07218724 -0.046122033 -0.08724118
000190 c0 60 dd 3c fe ea db bc 5b 88 32 3d 75 71 aa bd
       0.027023673 -0.026845451 0.04358707 -0.083224215
0001a0 fb 34 8d bd 8d e3 fa 3d dd 37 ef bd 5e cc 9f bd
       -0.06894871 0.12250433 -0.11680577 -0.07802652
0001b0 76 32 c9 bd c4 19 e5 bd d3 2b 99 bd 7a 76 bb 3d
       -0.09824078 -0.11186555 -0.07479062 0.09153457
0001c0 81 a2 4d bd 4e f7 07 3b 14 f2 0b 3d de b1 ad 3d
       -0.050203804 0.002074677 0.03416641 0.08481191
0001d0 fa 88 00 3e 21 8f ea bd 95 08 e6 3d 65 a4 9e bd
       0.12552252 -0.11453081 0.11232106 -0.077461995
0001e0 15 57 89 bd 00 aa f1 bd 6b bb 83 bd 88 0e db 3d
       -0.06706063 -0.11800003 -0.064322315 0.10696131
0001f0 a3 d5 69 3d 28 7c f4 bd 2c e3 93 3d 4b 1f b7 bd
       0.057088505 -0.119377434 0.07221064 -0.089415155
000200 a9 4e 09 3e 94 e5 01 3e fd 40 d6 3d 7f 2f 64 3d
       0.13408913 0.12685233 0.10461614 0.05570936
000210 21 07 c6 bd 20 d8 dc bd 11 5b b4 bc ef 10 69 3d
       -0.096693285 -0.1078341 -0.02201608 0.056900915
000220 cc 9e 83 bd 4a 40 3d 3d a6 cf a1 3d 14 eb a0 bd
       -0.064267725 0.04620389 0.07900934 -0.078573376
000230 9b 2c 67 3d 07 86 bf 3d cc 9c 58 bd 4d 26 06 3d
       0.056439023 0.093517356 -0.05288391 0.03275137
000240 24 9c 89 3d 7b d4 3b 3d 7a c0 90 3c 33 01 af 3d
       0.067192346 0.045856934 0.017669905 0.085451506
000250 91 90 ef 3c 45 b0 ea 3d e4 a4 de bd 1b 00 ce bc
       0.02924374 0.11459402 -0.10871294 -0.025146535
000260 1b 82 c8 bc 5d d0 f5 bc 7c b3 34 bd 12 13 e8 bd
       -0.024476102 -0.030006582 -0.044116482 -0.113317624
000270 bf df 5b 3d b6 ab 89 3c 47 34 ba 3d c2 33 de bc
       0.053680178 0.016805511 0.09092002 -0.02712429
000280 10 8e c9 bc 42 e5 0a be 01 29 55 bc 6c d7 fa bd
       -0.024603873 -0.13564017 -0.013010264 -0.1224812
000290 62 79 5a 3d 82 49 e7 3b 31 2e c2 bd 54 b7 99 bd
       0.053338416 0.0070583234 -0.094814666 -0.0750567
0002a0 c0 1b fc bc 83 88 e8 bd a4 9e 4a bd 69 5f 76 bd
       -0.030774951 -0.113541625 -0.049467698 -0.060149584
0002b0 a0 79 92 3d 2f e4 01 3d 4d 1c b0 3d 5e 83 78 bd
       0.071521044 0.031711753 0.08599148 -0.060672157
0002c0 e5 f4 b7 bd 14 54 c5 3d c8 c2 ab bd 23 8f d6 bd
       -0.08982257 0.09635177 -0.08386761 -0.1047652
0002d0 48 dc ef 3d c2 5b ce 3d e2 47 ae 3c d2 1d 04 3e
       0.11711937 0.10076095 0.02127451 0.12902
0002e0 e1 eb 9f 3d 82 66 92 bd e0 cc 37 bd 77 31 82 bd
       0.07808662 -0.07148458 -0.04487312 -0.06357091
0002f0 fb 87 a0 3d 01 9e b1 bc 7a 73 06 be e9 92 17 ba
       0.07838436 -0.021681787 -0.13129988 -0.0005782084
000300 8e 0b b7 3d ea 90 b9 3d 9e a0 a3 bd 15 d8 c8 3d
       0.08937751 0.09060843 -0.0798962 0.098068394
000310 a3 36 d7 bd ec 95 aa bc bb 86 c3 bd 55 af d8 bd
       -0.10508468 -0.020823441 -0.09547182 -0.10580317
000320 d7 bd d3 3c e0 93 7b 3d 5b 4d d7 bd b2 e4 62 3c
       0.025847359 0.06142032 -0.10512801 0.0138484705
000330 00 d9 9a 3d c8 57 93 3d 6c 51 33 bd cb 0a dc bc
       0.07560921 0.07194477 -0.04377882 -0.026860615
000340 c2 7b c6 bc 27 41 d7 3d 8b d8 5b 3c 77 82 39 bd
       -0.024228934 0.10510474 0.013418327 -0.045290437
000350 f5 37 8c 3d ff af 17 3d da 04 9d 3d d8 8e 5c 3d
       0.068466105 0.037033077 0.07666941 0.053847164
000360 1c 46 ae 3c ee 1d d4 bd 30 2a 53 bd aa f7 13 3d
       0.021273665 -0.10357271 -0.051553905 0.036124863
000370 bb b5 09 3d 86 88 c8 bd 77 f0 f7 3c 9e 75 fa 3c
       0.033620577 -0.09791665 0.03026603 0.030573662
000380 ad d8 f0 3d 49 59 84 bd ef cd c8 bd a6 48 b3 3d
       0.117600776 -0.06462342 -0.09804904 0.08754091
000390 8a 5f a4 bd 83 ca 86 3d 23 5e 0d 3d e8 e9 c3 bd
       -0.08026035 0.06581595 0.034513604 -0.095660985
0003a0 39 e3 98 3d 09 11 25 3d 37 e2 db bb 6e 2b 77 3c
       0.07465214 0.04029945 -0.0067103165 0.015086038
0003b0 fe 9f 24 bd 2a 2f 15 bd 5a cb bf 3d 20 bf b0 3d
       -0.040191643 -0.036421932 0.09364958 0.08630204
0003c0 b2 7d 91 bd 46 31 59 3d f7 7c c0 3d 2b cf 8c 3d
       -0.071040526 0.053025506 0.09398835 0.06875452
0003d0 20 df e0 3c 51 5a 99 bc 72 7d a7 bd 7a 7c 12 3d
       0.027450144 -0.018719824 -0.08178224 0.03576324
0003e0 13 5f ee 3d 3e 42 a5 3d b3 12 33 3d fa 98 da 3d
       0.11639228 0.08069275 0.043719005 0.10673709
0003f0 40 ed bd 3d c2 d3 a8 3c e0 b1 b0 3d c0 aa cc bd
       0.092737675 0.020608786 0.08627677 -0.099935055

lstm.weight_hh_l1 f4 [256, 64]
000000 eb d3 4b 3d 74 d6 c2 3d 86 cb b0 3d b9 f0 9a bd
       0.049762648 0.0951356 0.08632569 -0.075654455
000010 51 d6 38 3d 53 a4 74 bd cd a5 93 bd 02 a9 a8 3d
       0.045126263 -0.059727024 -0.07209358 0.08235361
000020 fd fa 01 be 75 c2 e4 3d 53 8c 8e 3d a5 86 49 3d
       -0.126934 0.11169902 0.069603585 0.049200673
000030 4d ad 7f 3d b5 06 76 bd f8 df 9b bc c0 7d ff bc
       0.062421132 -0.06006499 -0.019027695 -0.031187892
000040 f1 d5 ef bd 80 75 e5 3d 15 24 1e 3d 87 7f 94 bd
       -0.11710728 0.11204052 0.03860863 -0.072508864
000050 31 03 dc 3d 1a 12 ef bd 3e ea 52 3d 03 ee d9 bc
       0.10742796 -0.116733745 0.051492922 -0.02660275
000060 e3 75 4c bd f3 20 5f bd 33 35 83 bd e8 8e 55 3d
       -0.049917113 -0.054474782 -0.06406631 0.05213824
000070 10 04 81 3d e8 14 f8 bd f5 f2 7b bd 91 57 73 3c
       0.06299603 -0.121133626 -0.061511 0.01485242
000080 2a 05 fc 3d 9b b9 e7 3d 2a 2b 1d bc a2 5e dc 3d
       0.123056725 0.11314698 -0.009592811 0.10760237
000090 a8 f6 c8 bc a6 6c 06 3b e8 a8 ae bd 4d bf a1 3d
       -0.024531677 0.0020511537 -0.0852831 0.07897816
0000a0 55 07 a7 3d 73 aa aa bd 87 7f 8f bd 16 58 d1 3d
       0.08155695 -0.08333292 -0.07006746 0.10221879
0000b0 7e f0 ed bd 5c 34 b8 3d 29 2b 14 3d 83 c5 81 bd
       -0.11618136 0.08994362 0.036173973 -0.063365005
0000c0 d1 90 eb 3c ec 13 07 be 4d 70 c0 bc e2 bc 61 bd
       0.028755577 -0.13191193 -0.02349105 -0.055111773
0000d0 b2 05 af 3d fc ab c1 bb 07 30 26 bd 83 c5 6b bd
       0.08546008 -0.0059103947 -0.040573146 -0.05756141
0000e0 c5 58 1a 3d d4 31 58 bd b8 5b 70 3d 78 c7 61 3d
       0.037682313 -0.052781895 0.05868122 0.05512187
0000f0 59 1e 98 bc d9 a5 91 3d f9 f1 e7 3d c2 2d 11 bb
       -0.018569158 0.07111711 0.113254495 -0.0022152518
000100 f6 f0 e1 3d d1 1d f6 bc 6f d0 b9 bd 84 e6 0f 3c
       0.11032288 -0.030043514 -0.09072959 0.008782987
000110 22 32 a5 bd 68 13 84 3c 36 08 81 3d ec e2 fb ba
       -0.08066203 0.016122535 0.06300394 -0.0019217408
000120 09 29 94 bd 1c 37 57 bd e6 fa 14 3d e0 af f5 3d
       -0.07234389 -0.05254279 0.036372088 0.11996436
000130 5c 71 0e bd 68 03 46 3d 2e 3c 4b 3b 9d 6b d2 3d
       -0.034776077 0.048343092 0.0031011212 0.10274432
000140 6c c3 2c bc fa e3 6b bd f5 01 5e 3d bd a6 95 3d
       -0.010544639 -0.057590462 0.054201085 0.073071934
000150 06 f8 c0 3d aa 58 06 bd 0d 77 d3 bd 1b 9b 9e 3d
       0.09422307 -0.0327994 -0.103254415 0.07744428
000160 91 d0 be bd fb 81 92 bc 96 cf de bd c2 1f 2c 3d
       -0.09317125 -0.017884245 -0.108794376 0.042022474
000170 9c e6 50 bd 6a 57 db bd 53 2d 81 bd 01 17 ea 3c
       -0.051001176 -0.10710032 -0.06307473 0.028575422
000180 62 3b 0b bd 3a 25 cd bd 6c ad 22 bd 40 a9 c9 3d
       -0.03399218 -0.10016866 -0.03971617 0.09846735
000190 37 0c dd bc 50 83 e0 bc 6b 70 14 bd 33 ae aa 3d
       -0.026983364 -0.027406365 -0.036240023 0.08334007
0001a0 32 1c b0 bd 09 d5 56 bd 5f 8f b4 3d f3 df d0 bd
       -0.08599128 -0.05244926 0.08816408 -0.10198965
0001b0 34 de 87 3d a4 12 31 3c 58 aa ca 3d cf 59 bd bd
       0.06634179 0.010807667 0.09895772 -0.09245645
0001c0 f8 88 dd 3b 6a 05 1b 3d dd 9b b0 bc 74 de b9 3d
       0.0067607127 0.03784696 -0.021558696 0.09075633
0001d0 6a 5a ea 3d ef 03 50 3d cc 0f f7 bd 0f 78 4b 3d
       0.11443026 0.050785 -0.1206356 0.049675044
0001e0 43 e1 cc bd 80 e4 bd bc e2 35 56 3d dc 5c 3d bd
       -0.10003903 -0.023180246 0.05229748 -0.046231136
0001f0 f6 d1 60 bc 4d 1d 75 3d 6b fd e1 bd 1e b2 d2 3d
       -0.013721934 0.059842397 -0.11034664 0.102878794
000200 8b 04 ff bd 9e 08 9a bd 43 aa 6a 3d b3 9c 2e bc
       -0.124520384 -0.07521175 0.05729128 -0.010657477
000210 d4 7e 53 bd 39 1e 9a 3d e1 c1 d2 bd 29 3d 1c bd
       -0.051634625 0.07525296 -0.10290886 -0.038144264
000220 cf c0 92 3c 70 fc 87 3b 6c 49 90 bc 3d 51 f4 bd
       0.017914204 0.004149966 -0.017613135 -0.119295575
000230 2a c3 09 3e 29 8c b4 bd 42 08 cc 3d 92 c1 c7 bc
       0.13453355 -0.08815796 0.099625126 -0.024384294
000240 17 39 c6 3d a3 2e 5a bd 63 d2 bc 3d 22 21 b9 bd
       0.09678858 -0.053267132 0.092198156 -0.09039523
000250 19 ec b9 bd fc 9c 7f 3c 22 6f 00 3e aa 72 d1 3b
       -0.09078235 0.015601393 0.12542394 0.006391843
000260 43 87 9c bd 5b 2d fe bc f0 73 a3 3d 13 a8 7e 3c
       -0.076429866 -0.031027487 0.07981098 0.015543002
000270 b8 09 c4 3d 59 b9 c2 bd f3 b3 89 bc ed 9f dd bd
       0.09572166 -0.095080085 -0.01680944 -0.10821519
000280 61 48 25 3d 13 b5 3c bc b2 92 c0 bd fe 1b 6a bd
       0.04035223 -0.011517781 -0.0940298 -0.0571556
000290 fe 49 ef 3d c5 70 c2 3d b5 5b c9 bd a0 d4 5b 39
       0.11684035 0.09494165 -0.09831945 0.00020964677
0002a0 54 71 bc 3d 4e c4 d6 3d bb a1 62 bd 59 2b db bd
       0.09201303 0.10486661 -0.05533002 -0.10701627
0002b0 26 f2 88 3d 4b c8 b1 3d cf de 39 3c b3 b7 f0 bb
       0.06686811 0.08680781 0.011344626 -0.0073461174
0002c0 2e 17 ab 3d 34 d6 be 3d 25 36 d9 bd dd e6 89 bc
       0.083540305 0.093182 -0.106060304 -0.016833717
0002d0 c8 dc b1 3d 1f 6d 7c 3d 02 e7 d6 bb 41 84 57 bd
       0.08684689 0.061627503 -0.0065583 -0.05261636
0002e0 ee 41 e6 bd c6 ae f7 3d 5b 5f c0 3d 76 ec f7 3d
       -0.11243044 0.12093882 0.093931876 0.12105648
0002f0 82 ad 61 bd 8f d5 34 bd 45 80 4e 3d d7 1a 87 bd
       -0.05509711 -0.044148978 0.050415296 -0.06596916
000300 1f 81 d7 3d ba 84 9c bd 1e 27 44 3d 86 de 3d 3d
       0.10522675 -0.07642503 0.047888868 0.046354793
000310 da 68 ec bc f7 9e 3f bd f7 32 16 bc 95 85 ab 3b
       -0.02885859 -0.04678246 -0.009167424 0.00523443
000320 be 31 b6 3d 23 1d fb 3b 49 57 ca 3c cf bd de bd
       0.08896206 0.0076633855 0.024699824 -0.10876047
000330 49 5b ba 3d 6c dc 50 3c d5 f8 85 bd d5 bb a8 bd
       0.090994425 0.012747865 -0.065416016 -0.08238951
000340 80 bb 85 bc 3a df bf bc 09 5f 7b 3d 00 64 8a 3c
       -0.016324759 -0.023421872 0.06136993 0.016893387
000350 ac 36 2f bd 39 19 03 be 58 8a 90 bd 12 6c 3f bc
       -0.04277675 -0.1280259 -0.07057637 -0.011683481
000360 8e 4b 3c 39 79 3c 74 bd c6 d0 4e bd dd 71 02 be
       0.00017957223 -0.059627984 -0.05049207 -0.12738748
000370 6d 5f fd 3d ac 93 6a 3d 52 f4 c3 3d b3 91 52 bd
       0.12371717 0.057269737 0.09568085 -0.05140848
000380 a4 8e a2 3d 12 d4 45 bd 32 54 af 3c 51 ad 05 3e
       0.07937363 -0.04829795 0.021402452 0.13054396
000390 cf 21 7b 3d 89 d1 ce 3d e7 42 53 bd 46 1a 49 3d
       0.06131154 0.100985594 -0.051577475 0.049097322
0003a0 4b 5a 93 3d 82 de 55 bd 52 4a a9 3c 00 76 29 3d
       0.071949564 -0.052214153 0.020665321 0.0413723
0003b0 2d cb cb bc f5 a2 03 3c c0 cb 93 bd 34 ec ff bc
       -0.024877155 0.008034457 -0.072165966 -0.03124056
0003c0 59 93 de bd 73 be 67 3d e0 dd 32 bd b7 bd 57 3d
       -0.10867948 0.05657811 -0.043668628 0.05267116
0003d0 c7 1d b2 3b 7f 47 f4 bd 5c 71 03 3e 52 2d 80 bd
       0.0054356786 -0.11927699 0.12836212 -0.06258644
0003e0 30 29 df 3d 69 c7 ef 3b 3e 93 6c 3d 7c 50 d3 bd
       0.10896528 0.0073174727 0.05775761 -0.103180856
0003f0 88 e6 f4 bd a7 93 01 3e ee c9 f0 3c 37 57 d6 bd
       -0.11958033 0.12653981 0.029393163 -0.10465854

lstm.bias_ih_l1 f4 [256]
000000 80 ec f4 3d 11 5f ca 3d 51 0a b9 bd 0e be 8b 3d
       0.11959171 0.09881414 -0.09035171 0.068233594
000010 13 ab b7 3c 38 c5 3f bd 62 96 7e bd 59 a8 84 bd
       0.022420442 -0.04681894 -0.062155135 -0.06477422
000020 2c 22 95 bc 96 7f c6 bd 48 1b 0d 3d c5 c9 eb bd
       -0.018204771 -0.09692304 0.034449846 -0.11513094
000030 ef eb b9 bc a0 e5 01 bc 7c 4f e0 bc dd 0a eb 3d
       -0.02269551 -0.007928282 -0.027381651 0.114766814
000040 f8 37 32 3d a0 18 a2 bd e8 81 fd 3d 48 f2 41 3d
       0.043510407 -0.07914853 0.12378293 0.047350198
000050 11 07 e0 3d d7 f5 45 3d f8 8f dc bd 6b 2c 8b 3d
       0.10938848 0.048330154 -0.10769647 0.067955814
000060 d9 3c 97 bd 15 0c c4 bc 7d b8 78 bd fe 61 8a 3d
       -0.07384653 -0.023931542 -0.060722817 0.06756972
000070 c4 a5 47 3c 9c 60 8d 3d 75 dd fe 3c 67 9c c1 bd
       0.012185518 0.069031924 0.031111458 -0.094536595
000080 a4 2a e7 bd bf de 55 3d 99 3c 70 3c d1 87 d4 bd
       -0.1128743 0.05221438 0.014662885 -0.103774674
000090 d0 f7 cb 3d cf 4b d8 bd 2d a8 98 bd 44 8f e6 3d
       0.09959376 -0.10561334 -0.07453952 0.112577945
0000a0 56 41 59 3d ca c6 b3 3d 4d ff cb 3d ae e0 a4 bc
       0.053040825 0.087781504 0.09960804 -0.020126667
0000b0 94 0f 4c bd d2 fe 8d bd ff dc c5 bd 81 09 29 3d
       -0.049819544 -0.06933369 -0.09661292 0.04126883
0000c0 84 79 d4 3d 25 30 3e 3d 16 19 f4 3d 16 c5 9b 3c
       0.1037474 0.046432633 0.11918847 0.019014876
0000d0 c8 3e 2e bc 44 64 80 3b bc 4b a9 bd b6 1d c8 bd
       -0.010635085 0.0039182026 -0.08266398 -0.09771292
0000e0 9b 16 a3 3d a3 13 d0 3d fe 1f be b9 89 3e a1 bd
       0.07963296 0.101599954 -0.0003626346 -0.07873256
0000f0 ba e4 d6 bb 01 f0 c2 3c 1b 56 c3 3d bd 0f 44 bd
       -0.006558028 0.023796083 0.09537908 -0.04786657
000100 81 8f 84 3d 23 1f 9b bb 05 15 ab bd fd f4 ba bc
       0.06472684 -0.0047339364 -0.083536185 -0.022821898
000110 e3 68 bc 3d 69 05 da 3c ca 3c f5 3d 64 7f 39 3d
       0.09199693 0.026613908 0.11974485 0.045287505
000120 cd 55 8f bd 79 73 b6 bd 6e 09 d7 bd a1 d6 39 bd
       -0.06998787 -0.089087434 -0.104998454 -0.0453707
000130 c4 38 0f bd 76 51 a7 bd af 60 c9 bc 1b a5 91 bd
       -0.034966245 -0.08169834 -0.024582235 -0.071115695
000140 43 6c 1a bd a3 c2 f5 bb 84 77 3c bb c3 2e a2 bb
       -0.037700903 -0.007500009 -0.002875776 -0.004949422
000150 5b f6 6f bd 2f 9e c4 3d 4f 7e 9a bd 36 8c 58 bd
       -0.058584552 0.096004836 -0.07543623 -0.05286809
000160 9a 3b 18 bd 6a 54 d6 bd 5a a4 89 bd 24 b6 aa bd
       -0.037166215 -0.104653195 -0.06720801 -0.08335522
000170 2f 5b 9f 3d b1 f4 b3 bd d3 e1 a3 bd 08 24 b1 3c
       0.07781064 -0.087869056 -0.08002057 0.021623626
000180 70 3a 7d bc 97 2d ee 3d fa 80 0f 3d e3 5d 00 bd
       -0.015455827 0.11629789 0.03503511 -0.031339537
000190 6e 74 b4 3d 97 12 9a 3d 67 4d 9b bd df 12 e2 3d
       0.0881127 0.07523077 -0.07583123 0.110387556
0001a0 6f 50 d7 bd f3 57 a4 3d db cb ec 3d 13 09 8b 3d
       -0.10513388 0.080245875 0.1156232 0.0678884
0001b0 c1 11 4c bd ba 62 9c 3d 11 f8 42 3d 9c c1 fe bd
       -0.04982162 0.07636018 0.047599856 -0.12439272
0001c0 24 f5 8c 3d d8 ce 9c 3b 43 f8 27 3d 37 30 3c 3d
       0.06882694 0.0047854 0.041008245 0.04594442
0001d0 d4 e4 fb bc a0 86 2b 3d 4b 12 8e bb 33 ca 89 3d
       -0.030748762 0.041876435 -0.004335677 0.067280196
0001e0 57 74 e7 3d c9 23 4e 3d 86 dc a8 3d 53 9d 75 3d
       0.11301487 0.050327096 0.082451865 0.05996449
0001f0 e2 0d 17 3c 68 23 f0 bd ab 6e 43 3d b6 6c b9 3c
       0.0092196185 -0.11725503 0.047712963 0.022634845
000200 8c 13 aa bd e5 52 92 3b 36 e7 21 3d 84 e1 a6 bd
       -0.083045095 0.004465448 0.03952714 -0.081484824
000210 98 f9 5a bd 01 b3 a5 3d f5 06 f5 bd 1d e2 87 3d
       -0.053460687 0.08090783 -0.119642176 0.066349246
000220 10 61 e5 bd 82 b9 81 3d 12 bb f5 39 c1 46 c5 bd
       -0.11200154 0.06334211 0.0004686942 -0.09632636
000230 24 88 f2 3d b4 8e 60 3d bc ff a4 3d 3f 2f db 3d
       0.11842373 0.054823592 0.0805659 0.10702371
000240 ab ab 01 3c e5 ac e9 3d 4e 32 f7 bd 3a 8e 12 3c
       0.007914464 0.1140993 -0.12070142 0.008945042
000250 93 96 de 3d 8d 4c db bd 6f 1c bd 3d 48 71 7d bd
       0.108685635 -0.1070796 0.09233939 -0.06187561
000260 9c ee e1 bd 4c 31 36 3b b6 8f 5c 3d c2 b0 83 bd
       -0.11031839 0.002780038 0.05384799 -0.06430198
000270 01 ea df 3c 4d 4f 93 3d ae 31 bf bc e0 a9 99 bd
       0.027333261 0.0719286 -0.023339119 -0.07503104
000280 87 a0 d3 bd 65 b0 ac 3d 9d 60 e2 3d c6 fa 67 bc
       -0.103333525 0.08432082 0.11053584 -0.01415891
000290 5e 44 f7 3d f1 95 94 bd aa 61 4a bd 30 ae 86 bd
       0.12073587 -0.072551616 -0.049409546 -0.065761924
0002a0 e9 49 46 bd ca 25 54 3d 4f 9d e0 3d 77 f4 64 3c
       -0.04841033 0.05179385 0.10967504 0.013974301
0002b0 78 d3 68 bc cb 3f 73 3d 96 47 6c 3c b4 dd 5a 3d
       -0.014210574 0.05938701 0.014421364 0.05343409
0002c0 82 a9 db 3d 63 48 22 bd 79 62 bf bd 57 e5 71 3d
       0.107256904 -0.039619815 -0.09344954 0.059056606
0002d0 4f d5 9e bd a5 1e 00 3e da 80 86 bc 01 86 54 bc
       -0.07755529 0.1251169 -0.016418863 -0.012971402
0002e0 5d 63 b6 3d d0 97 35 3d bf 5e ab bd 13 eb 1c bc
       0.08905671 0.044334233 -0.08367681 -0.00957753
0002f0 88 72 e8 3d 49 5c ad 3d c8 db d3 3c 23 98 fc bc
       0.1134997 0.084648676 0.025861636 -0.030834263
000300 e5 82 11 bd 09 ea ee 3d cb cd 43 3d 09 e3 45 3d
       -0.03552522 0.116657324 0.04780368 0.04831222
000310 2c fb bc 3d dd 52 08 bd 50 22 4f 3b 60 2f ad 3d
       0.09227595 -0.03328215 0.0031606145 0.08456302
000320 13 cf 3b bb 1e 42 ef bd 14 0f b0 bd e5 ff c5 3c
       -0.0028657361 -0.11682533 -0.08596626 0.024169872
000330 51 ef 3d 3b 25 f9 c1 bd 50 01 d1 bd 39 b4 6e 3d
       0.0028981755 -0.09471349 -0.102053285 0.058277342
000340 7c 61 31 3c 92 f4 6d bd 7a 96 d0 3d 95 31 43 3d
       0.010826465 -0.05809457 0.10184951 0.047654707
000350 78 1e d5 bd ca 1a ae bd 58 be 46 bd 69 ec 5d bd
       -0.10406202 -0.08501203 -0.04852137 -0.054180536
000360 ac 38 df 3c cf c0 b7 bd 6a b8 75 bc 20 31 d1 3d
       0.027248703 -0.08972322 -0.014997581 0.10214448
000370 2a 3d c7 bd 21 ef 04 bd ef af e1 3d d5 93 08 be
       -0.09728463 -0.032454614 0.11019885 -0.13337643
000380 1d 14 83 3d 5a af b5 3d 10 2b d6 bd 30 25 6d bd
       0.06400321 0.08871336 -0.10457432 -0.057896793
000390 58 b1 e5 3d 65 28 35 3d ab e0 09 bd 03 cc 62 bd
       0.11215466 0.044227976 -0.033661526 -0.055370342
0003a0 3e 7e 41 3d d4 70 3c 3d 24 b5 ac bc ff 39 02 3d
       0.047239535 0.04600604 -0.021082468 0.03179359
0003b0 c6 b0 a5 3d 3b b5 23 bd bf a1 46 bd 05 d4 f3 bc
       0.080903575 -0.039967757 -0.048494097 -0.029764185
0003c0 2c b9 a5 bd e6 be d9 3c 5c 56 c0 bd 4a d2 98 bc
       -0.08091959 0.026580285 -0.09391472 -0.018654961
0003d0 26 73 74 bd 4a 67 ff 3b 91 af ff 3c 90 6f c8 3b
       -0.059680127 0.0077942954 0.031211646 0.006116815
0003e0 3c 0b fb bc b8 bc 21 3c 2b 5d c0 bd d5 a5 b2 3d
       -0.030645005 0.009871654 -0.093927704 0.08723036
0003f0 57 0d a7 3d 07 f8 8e 3b d3 ef fd 3d 5a 02 f9 3d
       0.08156841 0.0043630633 0.123992585 0.12158652
