artifacts/models/best/gru_fold_1.pt (torch, 190524 bytes, 9 tensors)

gru.weight_ih_l0 f4 [192, 48]
0	0xbd71ca49	-0.059030805
1	0x3e10fb5b	0.14158385
2	0x3dcffc3d	0.101555325
3	0xbd167f0d	-0.03674226
4	0x3dd90ff2	0.105987445
5	0x3d478859	0.048714016
6	0xbd3eed6a	-0.046613134
7	0xbe107825	-0.14108332
8	0x3d880117	0.06640833
9	0x3d78d654	0.060751274
10	0xbde7c135	-0.11316148
11	0xbe10d52a	-0.14143816
12	0x3d83fafd	0.064443566
13	0xbd1fd054	-0.039017037
14	0x3e0caf68	0.13738787
15	0x3d92e5c9	0.07172734
16	0x3daae000	0.08343506
17	0xbdd273de	-0.10276006
18	0xbdea0d38	-0.114283025
19	0x3dd346a1	0.10316206
20	0xbdda4960	-0.106585264
21	0xbe079f9b	-0.13244478
22	0x3da0664e	0.07832013
23	0x3dff8292	0.12476076
24	0xbde3fd07	-0.111322455
25	0xbde2ce95	-0.11074559
26	0xbd724c43	-0.05915476
27	0x3cbd9f8f	0.023147373
28	0x3cd05f20	0.025435984
29	0x3e153899	0.14572372
30	0xbdf0ef38	-0.11764377
31	0xbd0b174f	-0.033957776
32	0x3d914d9e	0.070948824
33	0x3e05a795	0.13052209
34	0xbcd3b1ff	-0.025841711
35	0xbdcdad7f	-0.100428574
36	0x3d09eaf5	0.033671338
37	0xbcff0b45	-0.031133303
38	0xbd0e60a9	-0.03476015
39	0xbd6c7605	-0.05772974
40	0xbd867d4c	-0.06566867
41	0xbe146664	-0.14492184
42	0x3d9664b5	0.07343427
43	0x3c011e75	0.007880797
44	0xbc85cf5a	-0.016334224
45	0x3d9e4203	0.077274345
46	0xbd2cc35e	-0.042178504
47	0xbe0902fd	-0.13380046
48	0x3d28f47d	0.041248787
49	0x3e1507a6	0.14553699
50	0xbd145ab4	-0.036219314
51	0xbd4efa89	-0.050531898
52	0x3cbe5e25	0.023238251
53	0x3dcfdd9d	0.10149691
54	0xbdf3bd1e	-0.119013056
55	0xbe1717fd	-0.14755245
56	0x3e1d8e11	0.15386225
57	0x3db41842	0.08793689
58	0xbd3ebb9d	-0.04656564
59	0x3cff559d	0.031168753
60	0x3da68111	0.08130086
61	0xbd5722b0	-0.052523315
62	0xbd25ecea	-0.040509142
63	0xbd9507ca	-0.07276876
64	0x3d2eb382	0.04265166
65	0x3dec8473	0.115487
66	0xbe1f3ad7	-0.1554979
67	0x3d4ac278	0.049501866
68	0x3e011bd0	0.12608266
69	0xbdf92ff1	-0.12167347
70	0x3e1f6869	0.15567173
71	0xbd84e2b7	-0.06488555
72	0xbd1cb1e9	-0.038255606
73	0x3df35935	0.11882249
74	0xbe106cbd	-0.1410398
75	0xbd840c4c	-0.06447658
76	0x3e060497	0.13087688
77	0xbd6afc0f	-0.057369288
78	0x3d012427	0.03152862
79	0x3e1e78a5	0.1547571
80	0x3ca28af9	0.019841658
81	0xbde7998d	-0.11308584
82	0xbdf3e1ec	-0.119083256
83	0xbda0f459	-0.078591056
84	0xbe102c90	-0.14079499
85	0x3df11bf6	0.11772911
86	0xbc994df1	-0.018713923
87	0x3d8c9bca	0.06865652
88	0xbdb794bd	-0.089639165
89	0x3cc4be5a	0.024016548
90	0xbcd424dc	-0.025896482
91	0xbd313d76	-0.043271504
92	0xbda29c28	-0.07939941
93	0x3d74497d	0.059640396
94	0xbe10e20c	-0.1414873
95	0x3dd97878	0.10618681
96	0x3e184150	0.14868665
97	0xbd44fc88	-0.048092395
98	0xbcc2f019	-0.023796128
99	0x3dbc2a84	0.09187797
100	0xbddacc68	-0.10683519
101	0x3d4ad9bb	0.04952405
102	0xbe0288f9	-0.12747563
103	0x3df7b409	0.12094886
104	0x3dc703e3	0.09717538
105	0x3a226a18	0.0006195619
106	0xbd836762	-0.06416203
107	0x3dc1a2f0	0.09454906
108	0xbdd8e69d	-0.10590861
109	0xbe17ee29	-0.14836945
110	0xbe05412a	-0.1301314
111	0xbde0bf77	-0.10974019
112	0xbc9ce5d1	-0.019152554
113	0x3e136109	0.14392485
114	0xbe1b63d2	-0.15174797
115	0x3dcf8081	0.10131932
116	0x3e0c16b6	0.13680539
117	0x3e05b687	0.1305791
118	0xbdcb3fb3	-0.09924259
119	0x3e159db8	0.14610946
120	0x3da72e8d	0.08163176
121	0x3d8860b4	0.0665907
122	0x3e14ba72	0.14524248
123	0x3d80dafd	0.06291769
124	0xbe10cd1d	-0.14140745
125	0x3dc26306	0.094915435
126	0xbceed7ab	-0.029155573
127	0xbe18c181	-0.14917566
128	0xbe0d9970	-0.13828063
129	0xbe0830e6	-0.13299903
130	0xbcebb1d2	-0.028771315
131	0xbd079377	-0.033099618
132	0xbe1b9d5c	-0.15196747
133	0xbcb633df	-0.022241531
134	0x3d862429	0.06549866
135	0xbcfdb047	-0.030967845
136	0xbdccb950	-0.09996283
137	0x3d7eac8d	0.062176276
138	0x3c7dd34d	0.015492273
139	0xbde64199	-0.112429805
140	0xbdc07a24	-0.093982965
141	0xbe0871b3	-0.13324623
142	0xbd9666ce	-0.07343827
143	0xbe0a5aa2	-0.13511136
144	0xbd1fe441	-0.03903604
145	0x3dd15757	0.10221737
146	0x3da13377	0.07871144
147	0xbbd0d196	-0.006372641
148	0x3dc82f91	0.097746976
149	0x3d329e7e	0.04360818
150	0xbd4a5546	-0.04939773
151	0x3d8bba8f	0.068226926
152	0x3e007b0d	0.1254694
153	0xbe01aa8b	-0.12662713
154	0x3bdd0b3d	0.0067457245
155	0xbd737ceb	-0.059445303
156	0xbd959466	-0.073036954
157	0x3c2c90d8	0.01053258
158	0x3e0a64e3	0.13515048
159	0x3de7c6a2	0.11317183
160	0xbdd40ae7	-0.10353642
161	0x3dcd301d	0.100189425
162	0xbb93f017	-0.004514705
163	0xbd8a2396	-0.06745069
164	0x3daa94d0	0.08329165
165	0xbdd9438e	-0.10608588
166	0x3e13221c	0.1436848
167	0xbdb3479f	-0.08753895
168	0x3c15a041	0.009132446
169	0x3aac45e0	0.0013143383
170	0x3e172a1e	0.1476216
171	0xbd5530ea	-0.0520486
172	0xbe0f20ef	-0.13977407
173	0xbd5a618c	-0.053315684
174	0xbdaa9d6a	-0.083308056
175	0x3e1b2a0e	0.15152761
176	0xbdbdbb40	-0.09264231
177	0xbcdb2a0b	-0.026753446
178	0xbd965909	-0.07341201
179	0xbc34d73f	-0.011037647
180	0x3de84ca0	0.1134274
181	0xbe21e65a	-0.15810528
182	0xbc54444f	-0.012955739
183	0x3e1a0f7a	0.15044966
184	0xbcff7bb4	-0.031186916
185	0x3e1d1e3c	0.15343565
186	0xbe187a52	-0.14890411
187	0x3e036e53	0.12835054
188	0xbd18041a	-0.037113287
189	0x3e146fdb	0.14495794
190	0xbd9c144b	-0.07621058
191	0x3e0e9c31	0.1392677
192	0xbdc529ac	-0.09627089
193	0x3e2127a8	0.15737784
194	0x3d607e43	0.054807913
195	0xbd90b5b1	-0.07065905
196	0x3d3cdc31	0.04610843
197	0xbdca310e	-0.09872638
198	0x3e1b2d82	0.15154079
199	0xbe018c62	-0.12651208
200	0x3db963ef	0.09052264
201	0x3def9a51	0.116993554
202	0xbe1c3b81	-0.15257074
203	0xbda5cec4	-0.08096078
204	0x3d84c8c6	0.06483607
205	0x3dda88e4	0.10670641
206	0xbd1ecc61	-0.03876913
207	0x3e04e51c	0.12978023
208	0xbd2ecaac	-0.04267375
209	0x3de62af2	0.1123866
210	0xbd814183	-0.063113235
211	0xbdde7f69	-0.10864145
212	0xbd95d22b	-0.07315477
213	0xbcde6c7c	-0.027151339
214	0xbe10b61f	-0.14131974
215	0xbddb2f30	-0.1070236
216	0x3db4c925	0.08827428
217	0xbdaca98b	-0.08430775
218	0x3e01b74c	0.12667578
219	0xbdbd3e05	-0.09240345
220	0xbda986d3	-0.08277669
221	0x3e0d90b2	0.13824728
222	0x3d0d2df7	0.034467664
223	0xbdb0d6d6	-0.08634727
224	0xbd80f2cb	-0.06296309
225	0x3d96d436	0.07364695
226	0xbe069ce3	-0.13145785
227	0x3d4074a3	0.046986233
228	0x3d461294	0.04835756
229	0x3d834c99	0.06411094
230	0x3c346ea9	0.011012712
231	0xbabdff80	-0.0014495701
232	0xbd2dd2bf	-0.04243731
233	0x3e0d6ce2	0.13811067
234	0x3d4fa149	0.050690923
235	0x3e20ae35	0.15691455
236	0x3e1ef609	0.15523542
237	0xbdbb11ff	-0.09134292
238	0xbddf6db8	-0.10909599
239	0xbcfe77b0	-0.03106293
240	0x3dacc68f	0.084363095
241	0xbc9ab7d9	-0.018886494
242	0xbd203562	-0.03911341
243	0x3df14a88	0.11781794
244	0x3d4da2ab	0.05020396
245	0x3d916771	0.07099808
246	0xbd4523fe	-0.048130028
247	0x3e0f85b4	0.14015847
248	0xbdde293f	-0.10847711
249	0xbe22ba75	-0.1589144
250	0xbddd77e5	-0.10813884
251	0x3dcddd2d	0.100519516
252	0xbdcc1a1b	-0.09965917
253	0x3dcff6b2	0.10154475
254	0xbe0fec66	-0.14055023
255	0xbdebbe1e	-0.11510871

gru.weight_hh_l0 f4 [192, 64]
0	0xbd49d5c9	-0.049276147
1	0xbdecd850	-0.11564696
2	0xbd9c40c2	-0.07629539
3	0x3d08f3ca	0.03343562
4	0x3dc6f09a	0.0971386
5	0xbd1861db	-0.037202697
6	0x3dc300d2	0.09521641
7	0x3ccfb00d	0.025352502
8	0xb991bbc8	-0.00027796463
9	0x3c8fbf80	0.017547369
10	0xbdd29e04	-0.10284045
11	0x3de69626	0.11259107
12	0x3dc72da3	0.097255014
13	0x3dae734a	0.085180834
14	0xbdc853b0	-0.09781587
15	0x3dc8161e	0.097698435
16	0xbe0592dd	-0.13044305
17	0x3cacad3b	0.021078696
18	0xbe1366d4	-0.14394695
19	0x3d8ba5f8	0.068187654
20	0xbdcef9e0	-0.101062536
21	0x3bf8167b	0.0075710393
22	0x3b81d982	0.0039626965
23	0xbbcb08b8	-0.0061961077
24	0xbccafca3	-0.02477867
25	0x3d453886	0.048149608
26	0xbd7428e8	-0.059609324
27	0xbdc83831	-0.09776343
28	0x3da782a3	0.08179214
29	0x3d37fd81	0.044919495
30	0x3de633d8	0.11240357
31	0xbe182bfa	-0.14860526
32	0x3df5cfa6	0.120024964
33	0x3d73c0f0	0.05951017
34	0xbb215a86	-0.0024620607
35	0xbda572d9	-0.08078546
36	0x3d9a9cec	0.07549462
37	0x3dec2c3d	0.11531875
38	0x3de7f58a	0.1132613
39	0x38b3aae2	8.5672145e-05
40	0x3d91d2c2	0.07120277
41	0x3d3a8358	0.045535415
42	0x3d1766ff	0.03696346
43	0x3d12c477	0.035831895
44	0x3d905225	0.07046918
45	0xbe0ecf10	-0.13946176
46	0xbdcd03a5	-0.10010461
47	0xbdedeecb	-0.11617812
48	0xbdd9e215	-0.10638825
49	0x3e0eab1b	0.13932459
50	0x3e069e10	0.13146234
51	0xbd55e4cb	-0.052220147
52	0xbdd12ef4	-0.10214034
53	0xbe14eecd	-0.1454422
54	0xbd49e151	-0.049287144
55	0xbd5b31e5	-0.05351438
56	0x3d35021e	0.044191472
57	0x3d5e3ff9	0.054260228
58	0x3dec0c35	0.11525766
59	0x3da51fd2	0.0806271
60	0x3dcd21e0	0.10016227
61	0x3da20168	0.079104245
62	0xbddad0ad	-0.10684333
63	0xbda38919	-0.07985134
64	0x3c7c686e	0.015405757
65	0xbe0f5e36	-0.14000782
66	0x3d959e32	0.07305564
67	0x3b8225d7	0.003971796
68	0xbd867ab0	-0.065663695
69	0x3da6ed94	0.08150783
70	0xbe0ec7e8	-0.13943446
71	0xbd87ce5d	-0.066311575
72	0xbddb2b05	-0.10701565
73	0xbd87c502	-0.06629373
74	0xbe03ff81	-0.12890436
75	0x3ca2fa8e	0.019894864
76	0x3e183e90	0.14867616
77	0x3e0012e0	0.125072
78	0xbcf56f95	-0.029960433
79	0xbdb3b4dc	-0.087747306
80	0x3ddecb85	0.10878662
81	0xbd928517	-0.07154291
82	0x3e0cc161	0.13745643
83	0x3c8ec56e	0.017428126
84	0xbd945315	-0.07242409
85	0xbdf59442	-0.119911686
86	0xbb27219a	-0.0025502206
87	0xbdae112f	-0.08499371
88	0x3d5a6fa0	0.05332911
89	0xbda14d6c	-0.07876095
90	0x3dc4bd63	0.09606435
91	0x3e09bec5	0.13451679
92	0xbda24a82	-0.079243675
93	0xbd1fd12e	-0.03901785
94	0x3df5acb2	0.1199583
95	0x3e06c988	0.13162816
96	0x3e1233c0	0.14277554
97	0xbcb19ba3	-0.021680659
98	0x3cbd052f	0.02307376
99	0xbe0c8e45	-0.13726147
100	0x3c7bc7fc	0.015367504
101	0x3db81b9c	0.08989641
102	0xbbcc069a	-0.006226373
103	0xbd17fdb5	-0.03710719
104	0x3dae3199	0.08505554
105	0xbdf9ba07	-0.12193685
106	0xbc8a142d	-0.016855324
107	0xbd858a5e	-0.06520532
108	0xbddb4907	-0.10707288
109	0xbd5ff813	-0.05467994
110	0xbcf1d9c3	-0.029522782
111	0x3ddf81c5	0.109134234
112	0xbd953f57	-0.07287472
113	0x3d2e32c7	0.042528894
114	0x3d704e49	0.05866841
115	0x3cee20e6	0.029068422
116	0x3df7d0c9	0.121003695
117	0xbe1255ac	-0.14290494
118	0x3d38b03b	0.04508994
119	0xbdb2157a	-0.086955026
120	0x3da1943e	0.07889603
121	0xbd800e0d	-0.0625268
122	0x3be0d14f	0.006860889
123	0xbde16653	-0.11005845
124	0x3dd14621	0.10218454
125	0x3dbc7918	0.09202784
126	0x3d92365e	0.07139276
127	0x3da159e2	0.07878472
128	0x3e1dbf05	0.154049
129	0x3db2009a	0.08691521
130	0xbe0f288e	-0.13980314
131	0x3e15edfb	0.14641564
132	0x3e1d954f	0.15388988
133	0x3deb327f	0.11484241
134	0xbd1cd3cb	-0.03828792
135	0x3dcecae7	0.10097294
136	0xbcccd2c9	-0.025002854
137	0xbd3b5abb	-0.045740824
138	0x3cfeaea6	0.031089138
139	0xbd8d4b8d	-0.06899176
140	0x3d0e299c	0.03470765
141	0xbd5319c5	-0.051538248
142	0x3d193053	0.0373996
143	0xbcebba8f	-0.028775482
144	0x3d7cca5d	0.061716426
145	0xbc170f13	-0.009219903
146	0xbe0f42a7	-0.1399027
147	0xbdcd17f6	-0.10014336
148	0x3d5fe913	0.054665636
149	0xbe063f15	-0.13110001
150	0xbe094bfe	-0.13407895
151	0xbdd8a493	-0.10578265
152	0xbcb56e63	-0.022147363
153	0xbe0d541c	-0.13801616
154	0x3bb5f7c5	0.005553218
155	0xbdbf97a8	-0.09355098
156	0xbe0399d6	-0.12851653
157	0x3cf862bd	0.03032052
158	0xbda3e3d4	-0.08002439
159	0x3e0d0fbb	0.13775532
160	0x3d9ffd53	0.0781199
161	0x3d4d6af7	0.050150838
162	0xbdaf285f	-0.08552622
163	0xbdea61e9	-0.11444456
164	0x3e129aa6	0.14316806
165	0xbe0d85db	-0.13820593
166	0x3bd10b93	0.0063795536
167	0xbbfe75aa	-0.0077654915
168	0xbd768232	-0.060182758
169	0x3d1f1519	0.03883848
170	0x3cec41ca	0.028839964
171	0x3e0478cb	0.12936704
172	0xbcca82b9	-0.024720537
173	0xbd3b22e7	-0.045687582
174	0x3d57a111	0.05264384
175	0xbe178ea0	-0.14800501
176	0xbe127da3	-0.14305739
177	0x3df56bcd	0.11983452
178	0xbd314966	-0.04328289
179	0x3db19eae	0.08672844
180	0x3ddb0d8d	0.10695944
181	0x3dc2472c	0.09486231
182	0xbb0e9cf5	-0.0021761034
183	0xbe1d6bb2	-0.15373114
184	0xbd5fa473	-0.05460019
185	0xbdf5ee69	-0.12008364
186	0x3df781f3	0.12085333
187	0x3e03bb02	0.12864307
188	0xbc75ca3d	-0.015001831
189	0x3d565b1d	0.052332986
190	0x3dd2adc2	0.10287048
191	0xbcee198f	-0.029064922
192	0x3d803090	0.062592626
193	0xbe0af0e9	-0.13568462
194	0xbbaadc2c	-0.005214235
195	0x3d1ee496	0.038792215
196	0xbdc5854d	-0.09644566
197	0xbe0427ba	-0.1290578
198	0x3d9f6091	0.077820905
199	0x3d8e89bc	0.069598645
200	0x3dc6e6d2	0.09711994
201	0x3e0700fb	0.13183968
202	0xbdf58b12	-0.11989416
203	0x3d78af40	0.060714006
204	0x3d9e1e71	0.0772065
205	0xbdd49b8e	-0.10381232
206	0xbc9eb617	-0.019373937
207	0xbdd2e5d4	-0.102977425
208	0x3bfd3a80	0.007727921
209	0x3e133799	0.14376678
210	0xbdcf34a7	-0.101174645
211	0x3cfeadda	0.031088758
212	0xbd8fc453	-0.07019868
213	0xbdce7469	-0.10080797
214	0x3dfeb4e8	0.12436849
215	0xbdfa177c	-0.122115105
216	0x3e0a08e1	0.1347995
217	0xbd0dd2aa	-0.034624733
218	0xbe0560c6	-0.13025197
219	0xbd432e53	-0.0476516
220	0xbd138553	-0.03601582
221	0x3d92c2c3	0.07166054
222	0xbe113a2c	-0.14182347
223	0xbe065447	-0.13118087
224	0xbd0de302	-0.03464032
225	0xbe1a1ccc	-0.15050048
226	0xbd5671c5	-0.052354593
227	0x3a65014d	0.00087358506
228	0xbdb691b7	-0.08914512
229	0x3d0585d8	0.032598346
230	0xbdff097b	-0.1245298
231	0x3d38de15	0.04513367
232	0xbdf270bc	-0.118379086
233	0x3df83eb5	0.121213354
234	0xbd897037	-0.067108564
235	0x3d75afbf	0.059982058
236	0x3d1b8283	0.037966263
237	0x3da02d5f	0.07821154
238	0x3c2160a8	0.009849705
239	0x3e095f9a	0.13415375
240	0xbde98cdf	-0.11403822
241	0x3e165a72	0.1468294
242	0xbc6293fc	-0.013829228
243	0xbde8c1f7	-0.11365121
244	0x3ddbdf14	0.10735908
245	0xbde0f259	-0.10983724
246	0xbe119d62	-0.14220193
247	0x3dda65f8	0.1066398
248	0xbdfc4d81	-0.1231947
249	0xbd569a98	-0.052393526
250	0xbc46fbf2	-0.012145029
251	0x3dcca682	0.09992696
252	0xbcadfb3e	-0.021237966
253	0x3dcc2a4b	0.09969004
254	0x3e028bc2	0.12748626
255	0xbdc0ba37	-0.09410518

gru.bias_ih_l0 f4 [192]
0	0x3983ad89	0.0002511556
1	0x3b68e533	0.0035537004
2	0x3b77efb0	0.0037832074
3	0xb93203be	-0.00016976797
4	0xbb112ff1	-0.002215382
5	0x3aa636b3	0.0012681097
6	0xbb9d8625	-0.004807251
7	0x3b0306b4	0.001999301
8	0xbbb1f7ae	-0.005431137
9	0xb3931f93	-6.850964e-08
10	0x3aa23a84	0.0012377058
11	0x3a838367	0.0010033668
12	0xbb0af585	-0.002120347
13	0x3bb697c6	0.005572292
14	0x3b59abc3	0.003321395
15	0xbb03bead	-0.0020102665
16	0xbbc4c639	-0.0060050753
17	0xbba85193	-0.0051366775
18	0xba672766	-0.00088178215
19	0xbbd5c57c	-0.006523786
20	0xbbab7c33	-0.0052333116
21	0xbbaf55b7	-0.005350794
22	0xba7ab2b5	-0.00095633726
23	0xb925e650	-0.00015821424
24	0x3ae1d51a	0.0017229647
25	0x3b35fe47	0.002776997
26	0x3acc4eb2	0.0015587418
27	0x3b6178a7	0.003440419
28	0xbb505a2f	-0.0031792035
29	0xbbb10a53	-0.005402842
30	0xbbc2e9cb	-0.0059482804
31	0x3bb68eca	0.005571221
32	0xbae20ffd	-0.0017247197
33	0xbb1e033f	-0.0024110822
34	0xbbc3551a	-0.0059610726
35	0xbb5624b4	-0.0032675685
36	0x3b5043bc	0.0031778654
37	0xbb06426f	-0.0020486375
38	0xbb305df9	-0.002691148
39	0x3adbebb3	0.0016778618
40	0x3b297be1	0.002586119
41	0x3b5fe2ab	0.0034162204
42	0x3852c066	5.0247087e-05
43	0x3a2f2800	0.00066816807
44	0xbbb2fd7b	-0.005462346
45	0xbb4f601b	-0.0031642977
46	0x3bdd41e8	0.0067522414
47	0x3a3b457c	0.0007143838
48	0x3a26d32e	0.00063638657
49	0xbb4dd78b	-0.0031408991
50	0xbbcae16e	-0.006191424
51	0x39ca295e	0.00038559263
52	0xbbefecbb	-0.0073219216
53	0xbb98a920	-0.004658833
54	0x3b910846	0.004426035
55	0x3b62cbc6	0.0034606322
56	0xb92f97f4	-0.00016745907
57	0x3aff22e7	0.0019465358
58	0x3ac83093	0.0015273265
59	0xbb8ee561	-0.00436084
60	0xbb759b09	-0.0037476441
61	0x3a69b98a	0.0008915892
62	0xbac0aa33	-0.0014699161
63	0x3a384103	0.00070287305
64	0x3bdb38a6	0.0066901026
65	0xbab386db	-0.0013696806
66	0xba008121	-0.0004902054
67	0x3bc46c99	0.005994391
68	0xba56adc7	-0.0008189347
69	0x3ad2a6fc	0.0016071494
70	0x3b02c4a4	0.0019953633
71	0x3b770f06	0.0037698164
72	0xba619f68	-0.0008606822
73	0x3b48c4cd	0.003063488
74	0x3984d7b8	0.00025337725
75	0x3bd68180	0.0065461993
76	0xbb6a9d90	-0.003579948
77	0xb9b7f0b0	-0.00035083806
78	0xba9fbc7d	-0.0012186911
79	0xbb1c97d0	-0.0023894198
80	0xbaf717da	-0.0018851713
81	0xb9dc9566	-0.0004207298
82	0xbb1f86cd	-0.0024341822
83	0x3b0e54f1	0.002171811
84	0x3b41902d	0.0029535398
85	0x3b1e3494	0.0024140226
86	0xbb587fe3	-0.003303521
87	0x3bfe4782	0.0077599892
88	0x3bb77d0f	0.005599625
89	0x3bb0f986	0.0054008393
90	0xbb5faf2e	-0.0034131515
91	0xba932a66	-0.0011227846
92	0xbb929cd0	-0.00447426
93	0x3b653fca	0.0034980648
94	0x3baf2565	0.005345034
95	0xbbb8e2ea	-0.0056422846
96	0x3620bca9	2.3951673e-06
97	0xb96c77fc	-0.00022551412
98	0x3b724765	0.0036968824
99	0x3b15318f	0.0022765135
100	0x3bd81208	0.0065939464
101	0x38713181	5.750498e-05
102	0x3ae65e59	0.0017575725
103	0xbad77b9b	-0.0016440036
104	0xbb01fdca	-0.0019835108
105	0x3bd1c457	0.0064015794
106	0xba03e445	-0.0005031268
107	0x3ba2d3c7	0.0049690935
108	0x38d99940	0.000103759114
109	0xbb57b283	-0.0032912798
110	0xbadce0bc	-0.0016851644
111	0x3a0d40f1	0.00053884
112	0x3a6b41d6	0.0008974349
113	0xbb44a57b	-0.003000586
114	0x3a8801b4	0.0010376484
115	0xb93b5b8c	-0.00017867814
116	0x3ba8aa36	0.005147244
117	0x3b2fc98d	0.0026823014
118	0xbb05a6d3	-0.0020393624
119	0x3b07218b	0.0020619358
120	0x3b1e152d	0.0024121508
121	0x39b81aec	0.00035115273
122	0xbb7c3c42	-0.0038488065
123	0x3b077375	0.0020668183
124	0x3adb4e1e	0.0016731655
125	0x3b28fe6e	0.0025786418
126	0x3b5dfdd2	0.0033873213
127	0x3bd939ee	0.00662922
128	0x3a05ed83	0.00051089394
129	0x39fa3aa4	0.00047727406
130	0x3b618a26	0.0034414618
131	0x39a1eb6a	0.0003088371
132	0xbaa33f98	-0.0012454866
133	0xbaefa719	-0.0018284052
134	0xba8389eb	-0.001003561
135	0x37e5e215	2.7404205e-05
136	0x39fa34ff	0.000477232
137	0x3a31d533	0.00067837833
138	0xba29daaf	-0.0006479425
139	0xbaf225a7	-0.0018474356
140	0x3ae50c1e	0.0017474925
141	0x3a87abfa	0.0010350936
142	0x39043bf9	0.00012610843
143	0xba99d967	-0.0011737765
144	0x3badaa94	0.0052998755
145	0x3a2e3e12	0.00066468224
146	0xba90d780	-0.0011050552
147	0xbab83bbf	-0.0014055892
148	0xba2827e3	-0.0006414635
149	0xbb5b4321	-0.003345676
150	0x397b45f2	0.00023963282
151	0x3a937660	0.0011250488
152	0x39e7ad35	0.00044188803
153	0xbb0fa379	-0.0021917506
154	0xbb2c5629	-0.0026296473
155	0xba7400b3	-0.00093079655
156	0x3afe15b4	0.001938513
157	0xbb052fe9	-0.0020322746
158	0xbb621cbe	-0.0034501995
159	0xbabb8c18	-0.0014308719
160	0x3b52dd65	0.0032175418
161	0xbab3732f	-0.0013690944
162	0x38f31b79	0.0001159226
163	0xb99057d7	-0.00027531266
164	0xba6c9cca	-0.0009026049
165	0xbb0d51f4	-0.002156374
166	0xbb14443f	-0.0022623686
167	0x3a89afac	0.0010504625
168	0xba829f53	-0.0009965695
169	0x3a4af15a	0.00077416527
170	0xba7dd1d8	-0.0009682453
171	0x3a83e1d5	0.001006181
172	0xbb1d54f7	-0.0024006942
173	0x3a80b580	0.0009819716
174	0x3b35cb24	0.002773949
175	0xbae96fea	-0.0017809842
176	0xb916af03	-0.00014370312
177	0xbad30b41	-0.0016101376
178	0x3b46644a	0.003027218
179	0xbad90b4d	-0.0016559154
180	0x390c3300	0.0001337044
181	0xbb3d7226	-0.002890715
182	0xba9a9f06	-0.001179666
183	0xbb0a977b	-0.0021147418
184	0xbb35bc96	-0.0027730814
185	0x3a2618c1	0.0006336086
186	0xbad7432f	-0.001642322
187	0xba416d0d	-0.00073786156
188	0x3b4264db	0.0029662165
189	0x396d9bed	0.00022660168
190	0xbb456ab5	-0.0030123417
191	0x3b286218	0.0025693234

gru.bias_hh_l0 f4 [192]
0	0x3983ad89	0.0002511556
1	0x3b68e533	0.0035537004
2	0x3b77efb0	0.0037832074
3	0xb93203be	-0.00016976797
4	0xbb112ff1	-0.002215382
5	0x3aa636b3	0.0012681097
6	0xbb9d8625	-0.004807251
7	0x3b0306b4	0.001999301
8	0xbbb1f7ae	-0.005431137
9	0xb3931f93	-6.850964e-08
10	0x3aa23a84	0.0012377058
11	0x3a838367	0.0010033668
12	0xbb0af585	-0.002120347
13	0x3bb697c6	0.005572292
14	0x3b59abc3	0.003321395
15	0xbb03bead	-0.0020102665
16	0xbbc4c639	-0.0060050753
17	0xbba85193	-0.0051366775
18	0xba672766	-0.00088178215
19	0xbbd5c57c	-0.006523786
20	0xbbab7c33	-0.0052333116
21	0xbbaf55b7	-0.005350794
22	0xba7ab2b5	-0.00095633726
23	0xb925e650	-0.00015821424
24	0x3ae1d51a	0.0017229647
25	0x3b35fe47	0.002776997
26	0x3acc4eb2	0.0015587418
27	0x3b6178a7	0.003440419
28	0xbb505a2f	-0.0031792035
29	0xbbb10a53	-0.005402842
30	0xbbc2e9cb	-0.0059482804
31	0x3bb68eca	0.005571221
32	0xbae20ffd	-0.0017247197
33	0xbb1e033f	-0.0024110822
34	0xbbc3551a	-0.0059610726
35	0xbb5624b4	-0.0032675685
36	0x3b5043bc	0.0031778654
37	0xbb06426f	-0.0020486375
38	0xbb305df9	-0.002691148
39	0x3adbebb3	0.0016778618
40	0x3b297be1	0.002586119
41	0x3b5fe2ab	0.0034162204
42	0x3852c066	5.0247087e-05
43	0x3a2f2800	0.00066816807
44	0xbbb2fd7b	-0.005462346
45	0xbb4f601b	-0.0031642977
46	0x3bdd41e8	0.0067522414
47	0x3a3b457c	0.0007143838
48	0x3a26d32e	0.00063638657
49	0xbb4dd78b	-0.0031408991
50	0xbbcae16e	-0.006191424
51	0x39ca295e	0.00038559263
52	0xbbefecbb	-0.0073219216
53	0xbb98a920	-0.004658833
54	0x3b910846	0.004426035
55	0x3b62cbc6	0.0034606322
56	0xb92f97f4	-0.00016745907
57	0x3aff22e7	0.0019465358
58	0x3ac83093	0.0015273265
59	0xbb8ee561	-0.00436084
60	0xbb759b09	-0.0037476441
61	0x3a69b98a	0.0008915892
62	0xbac0aa33	-0.0014699161
63	0x3a384103	0.00070287305
64	0x3bdb38a6	0.0066901026
65	0xbab386db	-0.0013696806
66	0xba008121	-0.0004902054
67	0x3bc46c99	0.005994391
68	0xba56adc7	-0.0008189347
69	0x3ad2a6fc	0.0016071494
70	0x3b02c4a4	0.0019953633
71	0x3b770f06	0.0037698164
72	0xba619f68	-0.0008606822
73	0x3b48c4cd	0.003063488
74	0x3984d7b8	0.00025337725
75	0x3bd68180	0.0065461993
76	0xbb6a9d90	-0.003579948
77	0xb9b7f0b0	-0.00035083806
78	0xba9fbc7d	-0.0012186911
79	0xbb1c97d0	-0.0023894198
80	0xbaf717da	-0.0018851713
81	0xb9dc9566	-0.0004207298
82	0xbb1f86cd	-0.0024341822
83	0x3b0e54f1	0.002171811
84	0x3b41902d	0.0029535398
85	0x3b1e3494	0.0024140226
86	0xbb587fe3	-0.003303521
87	0x3bfe4782	0.0077599892
88	0x3bb77d0f	0.005599625
89	0x3bb0f986	0.0054008393
90	0xbb5faf2e	-0.0034131515
91	0xba932a66	-0.0011227846
92	0xbb929cd0	-0.00447426
93	0x3b653fca	0.0034980648
94	0x3baf2565	0.005345034
95	0xbbb8e2ea	-0.0056422846
96	0x3620bca9	2.3951673e-06
97	0xb96c77fc	-0.00022551412
98	0x3b724765	0.0036968824
99	0x3b15318f	0.0022765135
100	0x3bd81208	0.0065939464
101	0x38713181	5.750498e-05
102	0x3ae65e59	0.0017575725
103	0xbad77b9b	-0.0016440036
104	0xbb01fdca	-0.0019835108
105	0x3bd1c457	0.0064015794
106	0xba03e445	-0.0005031268
107	0x3ba2d3c7	0.0049690935
108	0x38d99940	0.000103759114
109	0xbb57b283	-0.0032912798
110	0xbadce0bc	-0.0016851644
111	0x3a0d40f1	0.00053884
112	0x3a6b41d6	0.0008974349
113	0xbb44a57b	-0.003000586
114	0x3a8801b4	0.0010376484
115	0xb93b5b8c	-0.00017867814
116	0x3ba8aa36	0.005147244
117	0x3b2fc98d	0.0026823014
118	0xbb05a6d3	-0.0020393624
119	0x3b07218b	0.0020619358
120	0x3b1e152d	0.0024121508
121	0x39b81aec	0.00035115273
122	0xbb7c3c42	-0.0038488065
123	0x3b077375	0.0020668183
124	0x3adb4e1e	0.0016731655
125	0x3b28fe6e	0.0025786418
126	0x3b5dfdd2	0.0033873213
127	0x3bd939ee	0.00662922
128	0x3a1323b8	0.00056129275
129	0x3ab53d82	0.0013827535
130	0x3b7cab3c	0.0038554212
131	0xba7e8ac0	-0.00097100064
132	0xba4e9622	-0.0007880648
133	0xbaa547b5	-0.0012609871
134	0xba23b4dd	-0.0006244907
135	0x3a45d3de	0.0007546524
136	0x3acea1a9	0.0015764731
137	0x39bc9da5	0.0003597561
138	0xb92be9e2	-0.00016394959
139	0xb9ab6ea8	-0.00032698107
140	0x3a9aa5b4	0.0011798651
141	0x3aa76426	0.0012770935
142	0x39739a61	0.00023231797
143	0xbae7f205	-0.0017696029
144	0x3b9fcb22	0.0048765102
145	0xba8ffac3	-0.0010984767
146	0xba8c1954	-0.0010688701
147	0xb88ffef4	-6.86626e-05
148	0xb996dba0	-0.00028773863
149	0xbb24bb19	-0.0025135933
150	0xba25fe74	-0.0006332167
151	0x3aa56cb8	0.0012620902
152	0x39390cf0	0.00017647794
153	0xba886999	-0.0010407447
154	0xbabaaba3	-0.0014241826
155	0x37d121e8	2.493053e-05
156	0x3b3784a6	0.0028002649
157	0xbb37863f	-0.00280036
158	0xbb1c322e	-0.002383362
159	0xbb0d0357	-0.0021516883
160	0x3b66b807	0.0035204904
161	0xb9b353d5	-0.00034204
162	0xba0bd806	-0.0005334619
163	0xb8bfb52f	-9.141338e-05
164	0xb92f972d	-0.00016745618
165	0xba390970	-0.0007058596
166	0xbb1ee896	-0.0024247519
167	0x39b1f9c3	0.00033946158
168	0xba9f0e29	-0.0012134957
169	0x3aca693e	0.0015442742
170	0xbaa1017e	-0.001228377
171	0x3a8945f0	0.0010473114
172	0xba88e3cb	-0.0010443864
173	0x3af67802	0.0018804076
174	0x3b042a8a	0.0020166957
175	0xbacea039	-0.0015764303
176	0xbaeb949f	-0.001797337
177	0xba26f35e	-0.0006368662
178	0x3b462e84	0.0030240128
179	0xba9e4f77	-0.0012078126
180	0x3aac6f09	0.001315565
181	0xbb2cf035	-0.0026388292
182	0xbae59ce9	-0.0017518076
183	0xbad791f8	-0.00164467
184	0xbb10ad53	-0.0022075966
185	0x3a02b9f9	0.00049868185
186	0xbaba795a	-0.0014226839
187	0xb8d8ab47	-0.000103315855
188	0x3b567ea2	0.0032729288
189	0x38ba61a7	8.88736e-05
190	0xbb3bcdd4	-0.0028656619
191	0x3b1e117d	0.002411931

gru.weight_ih_l1 f4 [192, 64]
0	0x3dd3dad0	0.103444695
1	0x3dc4337a	0.09580131
2	0x3d9fa8dc	0.07795879
3	0xbd8be202	-0.06830217
4	0x3d9b7132	0.0758995
5	0x3dccf0fe	0.10006903
6	0x3dc54a7d	0.09633348
7	0x3da26ee6	0.079313084
8	0x3db4e7ef	0.088333
9	0x3d9d74c2	0.076882854
10	0xbe0059a9	-0.12534203
11	0xbe0e058e	-0.13869306
12	0xbc65144b	-0.013981889
13	0xbd9def45	-0.07711653
14	0xbe0476f0	-0.12935996
15	0x3d908bf5	0.07057945
16	0xbda6961c	-0.081341
17	0x3e1c0bb6	0.15238842
18	0xbc912ff6	-0.017723065
19	0x3e0cb14f	0.13739513
20	0xbe00b025	-0.12567194
21	0x3dcd226d	0.10016332
22	0x3d9adc31	0.075615294
23	0x3d778b55	0.06043561
24	0x3d018d43	0.03162886
25	0x3cc64219	0.02420144
26	0xbda0c27c	-0.07849595
27	0x3d3e40ed	0.046448637
28	0x3e0b0f7a	0.13580123
29	0x3dfb1487	0.12259775
30	0x3debab17	0.11507242
31	0x3c490920	0.012270242
32	0x3c914900	0.017735004
33	0x3cd7b2d5	0.026330391
34	0xbd5804d9	-0.052738998
35	0xbd39c57f	-0.045354363
36	0xbd9b2b7e	-0.07576655
37	0xbc2c567f	-0.010518669
38	0x3dcb73a8	0.09934169
39	0xbd36a318	-0.044589132
40	0xbdd468bc	-0.10371539
41	0xbe05be62	-0.13060907
42	0xbd9057f1	-0.070480235
43	0x3df602c6	0.12012248
44	0x3ce86cc8	0.028372183
45	0xbd6840b1	-0.05670232
46	0x3dfa928d	0.122349836
47	0xbde353e8	-0.11099988
48	0xbdff93a7	-0.12479334
49	0xbc92910c	-0.01789143
50	0x3c570820	0.013124496
51	0x3de24197	0.110476665
52	0xbd40e8d8	-0.047097057
53	0xbbc16a31	-0.0059025516
54	0x3d3c5522	0.045979626
55	0x3c518724	0.012788568
56	0x3d16f42a	0.036853947
57	0xbcc5e0e6	-0.024155091
58	0x3d45227f	0.0481286
59	0x3d6e83c3	0.058231127
60	0xbd726cff	-0.059185978
61	0xbd1a05db	-0.03760324
62	0xbc1d6620	-0.009606868
63	0x3e1739fa	0.1476821
64	0xbda9a6cc	-0.08283767
65	0xbd484473	-0.048893403
66	0x3a876656	0.0010330181
67	0x3dcb8f2c	0.09939417
68	0xbddcfd44	-0.10790494
69	0xbccdf77d	-0.025142426
70	0x3d69c56a	0.057073034
71	0xbc56de5f	-0.013114541
72	0xbd56ae73	-0.05241246
73	0xbdf839f1	-0.121204264
74	0xbe18c1e0	-0.14917707
75	0x3d03fd16	0.032223783
76	0xbe02da78	-0.12778652
77	0xbe15d268	-0.14631045
78	0x3c17dfd4	0.009269673
79	0x3dc4fc83	0.09618475
80	0x3e015b33	0.12632446
81	0xbd71bdf3	-0.05901904
82	0x3b80d21f	0.0039312984
83	0xbda6f173	-0.081515215
84	0x3df806c3	0.12110665
85	0x3e0d22a5	0.13782747
86	0xbcc04b3d	-0.023473376
87	0xbde4e43e	-0.11176346
88	0xbdb84ae2	-0.08998658
89	0x3d48f50a	0.049061812
90	0x3e19adac	0.15007657
91	0xbd964e0f	-0.07339107
92	0x3dff3af3	0.124624155
93	0x3e069b70	0.13145232
94	0x3dd098f1	0.10185421
95	0xbdc7168c	-0.09721097
96	0x3cddc157	0.02706973
97	0xbe0695c9	-0.13143076
98	0x3c4fa368	0.012673236
99	0xbad80e68	-0.0016483786
100	0x3d9b72de	0.075902686
101	0xbe026e45	-0.12737377
102	0xbda33703	-0.07969477
103	0x3d9745fe	0.07386397
104	0xbdc0b496	-0.09409444
105	0x3df32d36	0.11873858
106	0xbc0e3bd2	-0.008681254
107	0xbd0c7be4	-0.03429784
108	0x3df3d5e1	0.119060285
109	0x3d1d3432	0.038379855
110	0x3d98d08b	0.074616514
111	0x3e023acf	0.12717746
112	0x3e1a39e0	0.1506114
113	0x3c707df7	0.01467847
114	0x3dff2ccf	0.124597184
115	0xbc7b5355	-0.015339692
116	0x3bb006b8	0.0053718947
117	0x3d3513ae	0.04420822
118	0xbe0c3f37	-0.1369599
119	0x3e1a8e20	0.15093279
120	0xbd057dfc	-0.03259085
121	0x3d41040b	0.047122996
122	0xbe0bfa0b	-0.13669603
123	0xbe1d7d84	-0.15379912
124	0x3e1d9298	0.15387952
125	0xbe046dd1	-0.12932517
126	0x3d78ab0e	0.060710005
127	0xbdb120b8	-0.08648819
128	0xbd2d7f41	-0.042357687
129	0xbe12a88f	-0.14322113
130	0xbdbf7716	-0.09348886
131	0xbdaa443f	-0.08313798
132	0x3d3b94fd	0.045796383
133	0xbdfe968f	-0.124310605
134	0xbd99808e	-0.07495223
135	0xbc649ab6	-0.013952902
136	0x3e154ded	0.14580508
137	0x3d7fde91	0.062468115
138	0xbc00202d	-0.007820171
139	0xbd2f16c0	-0.042746305
140	0x3d7c4631	0.061590377
141	0x3c99fd01	0.0187974
142	0x3dfa421d	0.12219641
143	0x3d667ab9	0.05626938
144	0xbdd09b4b	-0.1018587
145	0x3d8470c1	0.064668186
146	0x3df3c02d	0.11901889
147	0xbde9a9e0	-0.11409354
148	0x3dbce4a2	0.09223296
149	0x3db18664	0.08668211
150	0x3e0a9510	0.13533425
151	0x3d35871c	0.044318303
152	0xbd357109	-0.04429725
153	0xbca20bcb	-0.019781014
154	0x3d13d968	0.036096007
155	0xbde75557	-0.11295574
156	0xbdc1e2c9	-0.09467084
157	0xbcc744bd	-0.02432477
158	0xbe0cdda0	-0.13756418
159	0x3c1ec717	0.009691021
160	0xbc542b68	-0.012949802
161	0xbd6b6a6f	-0.05747455
162	0xbcf521ab	-0.02992328
163	0xbd358683	-0.044317733
164	0xbcf201f5	-0.029541949
165	0x3de8e54d	0.11371861
166	0xbe0f4aa7	-0.13993321
167	0xbd0288c3	-0.031868707
168	0x3ce5365c	0.027980022
169	0x3de463d1	0.11151851
170	0x3d6db0b0	0.05802983
171	0x3d9af45c	0.07566139
172	0x3e13cdb7	0.14433943
173	0x3dd322e4	0.10309389
174	0x3d2ec0c9	0.042664323
175	0xbd855ff5	-0.06512443
176	0xbd831d23	-0.06402042
177	0xbe07ec40	-0.13273716
178	0x3c9aa1b5	0.018875936
179	0xbd4cd266	-0.05000534
180	0x3c64964f	0.013951852
181	0xbe15854e	-0.14601633
182	0xbcb3088e	-0.021854665
183	0x3df84db4	0.12124196
184	0x3c345331	0.0110061625
185	0x3d9328fb	0.07185551
186	0x3deddff8	0.11614984
187	0xbe03591b	-0.1282696
188	0x3d4f2f93	0.05058248
189	0xbde0794e	-0.10960637
190	0xbd89ea5d	-0.067341544
191	0xbe14c204	-0.14527136
192	0xbcb0d098	-0.02158384
193	0x3dd08612	0.10181822
194	0xbcf7f58c	-0.030268453
195	0x3ca8391c	0.020535044
196	0x3db19f4c	0.086729616
197	0xbddea5de	-0.108714804
198	0x3dead5d3	0.11466565
199	0xbd10a8a3	-0.035317075
200	0xbd8b0917	-0.06788843
201	0x3dc29f7d	0.09503076
202	0x3d88ce03	0.066799186
203	0x3cfbe09d	0.030746752
204	0xbdfbbaba	-0.12291475
205	0x3e025d89	0.12730993
206	0xbce683a6	-0.028138947
207	0xbd9c9dc5	-0.0764728
208	0xbd77f656	-0.06053766
209	0x3dc67b14	0.09691444
210	0x3d534ae8	0.051585108
211	0xbd833c53	-0.0640799
212	0x3da87861	0.082260855
213	0xbd01633d	-0.03158878
214	0x3db30d30	0.0874275
215	0x3d7c2812	0.06156165
216	0x3c841931	0.016125293
217	0x3c98512b	0.018593391
218	0x3bf6f0db	0.0075360364
219	0x3d6b605e	0.05746495
220	0x3d38b746	0.04509666
221	0x3d452024	0.048126355
222	0xbdf3560b	-0.11881646
223	0xbe17e9fe	-0.14835355
224	0xbe0fe854	-0.1405347
225	0x3d58ca5f	0.05292737
226	0xbe0b495e	-0.13602206
227	0x3d9d3c9c	0.07677576
228	0x3d8aedae	0.06783615
229	0xba81ba42	-0.0009897428
230	0xbd12e7c9	-0.03586558
231	0xbe19786d	-0.14987345
232	0x3d40cdc3	0.04707123
233	0xbd8ad74e	-0.06779347
234	0x3d64b48f	0.055836257
235	0xbdd1afc7	-0.10238605
236	0x3d388b44	0.04505469
237	0x3ba29e33	0.0049627065
238	0x3cfe5671	0.031047078
239	0xbd9f46bf	-0.077771656
240	0xbdcd5650	-0.100262284
241	0x3c897dd0	0.016783625
242	0x3e1c9436	0.15290913
243	0xbcdd87cc	-0.027042292
244	0x3da6b401	0.08139802
245	0x3df627cc	0.120193094
246	0xbd5ce1ac	-0.053926155
247	0xbdc013c8	-0.09378773
248	0x3c5fb2e2	0.013653489
249	0xbdfe8722	-0.12428118
250	0xbdff6ab3	-0.12471523
251	0x3cc184aa	0.02362283
252	0xbe0145a7	-0.12624227
253	0x3d8c78da	0.06858988
254	0x3d9bfd76	0.07616703
255	0xbe18e9d4	-0.14932948

gru.weight_hh_l1 f4 [192, 64]
0	0x3bfad6b6	0.00765499
1	0x3d6b2312	0.057406493
2	0x3d80db1c	0.06291792
3	0x3c566d85	0.013087635
4	0xbdd485cd	-0.10377083
5	0xbe03d070	-0.12872481
6	0xbe070b91	-0.13188006
7	0x3d1da900	0.03849125
8	0xbd9bb0a1	-0.07602049
9	0xbc144642	-0.009049954
10	0x3d9b382c	0.07579073
11	0xbcbdac97	-0.023153586
12	0x3d8978c8	0.0671249
13	0x3cddd6c1	0.027079942
14	0xbd0ae53c	-0.03391002
15	0xbe05b7ca	-0.13058391
16	0xbd2ceec8	-0.042219907
17	0x3c67aebf	0.014140784
18	0xbd0a1bfa	-0.033718087
19	0x3d714f4c	0.058913514
20	0xbde51ff4	-0.11187735
21	0x3d113194	0.035447672
22	0xbdaca8fe	-0.0843067
23	0xbdc9b1b5	-0.09848348
24	0x3e0e2580	0.13881493
25	0x3e15e27e	0.14637181
26	0xbdab370e	-0.0836011
27	0x3d5dcf3d	0.054152716
28	0x3de6d4a9	0.112710305
29	0x3e1242d8	0.14283311
30	0xbd9cd7e2	-0.07658364
31	0x3cac35b3	0.0210217
32	0xbdc0e47a	-0.094185784
33	0xbde40c14	-0.11135116
34	0x3d95a683	0.0730715
35	0xbde6ff21	-0.11279131
36	0xbd84ebb8	-0.06490272
37	0x3de537c7	0.11192279
38	0x3c7e6c81	0.015528799
39	0x3e1325eb	0.14369933
40	0xbd97b772	-0.07408036
41	0x3d951502	0.072793975
42	0xbdaaa3c7	-0.08332019
43	0x3d0dcd40	0.03461957
44	0xbde7ac89	-0.11312205
45	0x3d4d4004	0.05010988
46	0x3d977ec9	0.07397229
47	0x3d20ab76	0.039226018
48	0x3dc54fc6	0.09634356
49	0xbdf85d82	-0.1212721
50	0x3e0106fa	0.12600318
51	0x3df95894	0.12175098
52	0x3cedf76a	0.02904864
53	0x3c0d2671	0.008615122
54	0xbdec3641	-0.115337856
55	0x3cb4d01b	0.022071889
56	0x3de42c6f	0.111412875
57	0x3d3ef22a	0.046617664
58	0x3ca259a0	0.019818127
59	0xbe1977b6	-0.14987072
60	0x3da66f70	0.08126724
61	0x3e09932d	0.1343505
62	0xbd5bd071	-0.053665582
63	0xbe0961ca	-0.1341621
64	0xba99ae73	-0.0011724964
65	0x3d9440a3	0.07238891
66	0xbdd6fff5	-0.10498039
67	0x3d813bb8	0.063102186
68	0x3c624508	0.013810404
69	0x3df244ae	0.11829506
70	0x3ded5515	0.11588494
71	0xbda627f6	-0.08113091
72	0x3dd0c14c	0.101931185
73	0xbd1ae279	-0.037813637
74	0xbca53984	-0.020169027
75	0x3cefb444	0.029260762
76	0x3e119d6d	0.1422021
77	0xbdf7dd6c	-0.1210278
78	0xbda917a9	-0.08256466
79	0x3e1669aa	0.14688745
80	0xbe184eaf	-0.14873765
81	0x3dc5e4b5	0.09662763
82	0x3e00f258	0.12592447
83	0x3d83c28c	0.06433591
84	0xbdfbe268	-0.12299043
85	0xbe1ccf36	-0.1531342
86	0xbe0d9610	-0.13826776
87	0xbd9acc2f	-0.07558476
88	0xbe1642b1	-0.14673878
89	0xbde29e3a	-0.110653356
90	0xbe141c96	-0.1446403
91	0xbdfe57a7	-0.12419062
92	0xbd915eeb	-0.07098182
93	0x3dd95063	0.10611036
94	0xbe01ca53	-0.12674837
95	0x3d3a6622	0.045507558
96	0x3d10d0a1	0.035355214
97	0x3e0842d5	0.13306744
98	0x3d49cbf4	0.04926677
99	0xbe1ba247	-0.15198623
100	0xbc806b45	-0.01567615
101	0xbc005ef9	-0.007835143
102	0x3bf3e0a1	0.0074425493
103	0xbdfd8ada	-0.123799995
104	0xbe16b83a	-0.14718714
105	0x3ddf9246	0.10916571
106	0xbd787c7d	-0.060665596
107	0x3e07a586	0.13246736
108	0x3d0d5ddb	0.034513336
109	0x3bae46c8	0.0053184964
110	0x3d0a9334	0.03383179
111	0xbdc0ab40	-0.09407663
112	0x3e0df9b1	0.13864781
113	0x3cc45e6d	0.023970807
114	0xbd7f3e1b	-0.062315088
115	0xbda6c88c	-0.0814372
116	0x3daac2b2	0.083379164
117	0x3c102f9f	0.008800416
118	0xbdeb3b05	-0.114858665
119	0xbcfd9283	-0.030953651
120	0x3c758f57	0.014987788
121	0x3df5eff8	0.12008661
122	0x3daa22a6	0.0830739
123	0x3e0cfb42	0.13767722
124	0xbcd46369	-0.025926309
125	0xbd82ab5e	-0.06380342
126	0x3de57ec5	0.1120582
127	0xbdc33849	-0.0953222
128	0x3da71354	0.081579834
129	0xbd812bd7	-0.0630719
130	0x3d7c6c6b	0.061626833
131	0xbc8e851c	-0.017397456
132	0x3cc59126	0.024117064
133	0xbe0b8a1b	-0.13626902
134	0x3c8eb0b9	0.017418252
135	0xbdacffc8	-0.08447224
136	0x3e1892be	0.14899728
137	0xbcb4c2f3	-0.022065615
138	0x3de85783	0.113448165
139	0xbd8a0025	-0.06738309
140	0x3be328d3	0.006932357
141	0xbd336f9f	-0.043807622
142	0xbc90aad3	-0.01765958
143	0xbdf2fae9	-0.118642636
144	0x3dcc620b	0.09979638
145	0x3e013f3f	0.12621783
146	0xbd7a2c60	-0.061077476
147	0xbded1b9f	-0.11577534
148	0x3b8e3cfb	0.0043407655
149	0x3e0b0771	0.13577057
150	0xbd79b779	-0.06096599
151	0xbe0734fb	-0.13203804
152	0x3df5f825	0.120102204
153	0xbbc578dc	-0.0060263705
154	0x3bb92b49	0.005650912
155	0x3c1ae1ad	0.009453219
156	0x3db738ed	0.089464046
157	0x3d34d8ee	0.044152193
158	0x3da81546	0.082071826
159	0xbdc269e7	-0.094928555
160	0x3d3557f2	0.044273324
161	0x3de94dbb	0.11391779
162	0x3e1a2186	0.1505185
163	0xbe19a466	-0.1500412
164	0x3d4621f4	0.048372224
165	0xbc06272a	-0.008188048
166	0x3d7f0ce5	0.062268157
167	0x3cfa802b	0.030578693
168	0x3d9eab3d	0.07747505
169	0x3e18b3f9	0.14912404
170	0x3d71866e	0.058966093
171	0x3d64fc00	0.05590439
172	0xbcffa4fd	-0.031206602
173	0xbdcac141	-0.099001415
174	0xbe1ad85d	-0.15121599
175	0x3b578a28	0.0032888744
176	0xbe17936b	-0.14802329
177	0xbdc7a285	-0.09747795
178	0x3aa476db	0.0012547629
179	0xbdd2acf2	-0.10286893
180	0x3d247527	0.040150788
181	0x3cc61be6	0.024183225
182	0xbd97a423	-0.074043535
183	0x3df6b8b1	0.12046946
184	0xbdaa907a	-0.08328338
185	0x3d5c878c	0.053840205
186	0xbdafc2fb	-0.085821114
187	0xbd20f80c	-0.039299056
188	0x3d9d9bee	0.07695757
189	0xbccf2270	-0.025284976
190	0xbdc17d62	-0.09447743
191	0xbcd476dd	-0.025935585
192	0xbe089ca1	-0.13340999
193	0xbe1b9740	-0.15194416
194	0xbd4b2b64	-0.049601927
195	0x3e0d9354	0.13825732
196	0x3cb23ddc	0.021758012
197	0x3e163319	0.1466793
198	0xbcc87db2	-0.024473999
199	0x3d177f59	0.036986683
200	0x3d981ba2	0.074271455
201	0x3c82c3e8	0.015962556
202	0x3db68101	0.08911324
203	0x3d1e2446	0.03860881
204	0x3d695b2f	0.056971725
205	0x3e189537	0.14900671
206	0xbc53b41f	-0.012921362
207	0xbd34dbdc	-0.044154987
208	0xbd40bf2d	-0.04705732
209	0x3c567b61	0.013090939
210	0x3dac7337	0.08420413
211	0xbd8a5f03	-0.06756403
212	0x3e030e15	0.1279834
213	0xbd430021	-0.047607545
214	0x3d4d0345	0.050051946
215	0x3dc9d030	0.09854162
216	0xbd564c29	-0.052318726
217	0xbdf3cf5e	-0.119047865
218	0xbcaceac1	-0.021108033
219	0xbd198727	-0.037482407
220	0x3e043be0	0.12913465
221	0x3d95c5f4	0.07313147
222	0xbcfc7747	-0.030818595
223	0xbb23a014	-0.002496724
224	0xbdbe34ee	-0.09287439
225	0x3caaf805	0.020870218
226	0x3d9b0645	0.07569555
227	0x3d79df15	0.061003763
228	0x3d600b3d	0.054698218
229	0xbd2d7b0d	-0.04235368
230	0xbdc012b0	-0.09378564
231	0xbe118072	-0.14209154
232	0x3e143678	0.14473903
233	0xbe0978d8	-0.13425004
234	0xbd47c5d2	-0.04877264
235	0xbd41f385	-0.04735138
236	0x3d8a85df	0.06763815
237	0x3bbd540b	0.005777841
238	0xbd6ab19d	-0.05729829
239	0xbdb5414b	-0.08850344
240	0x3e0ccabb	0.1374921
241	0xbe020c5d	-0.12700029
242	0xbca5623e	-0.020188447
243	0x3dda53dc	0.10660526
244	0x3ca2f57d	0.019892449
245	0xbdb19235	-0.08670465
246	0xbda29989	-0.07939441
247	0x3d54e271	0.051973764
248	0x3d5cf53f	0.053944822
249	0xbd91e4fc	-0.071237534
250	0x3ca5449a	0.020174313
251	0x3de17c53	0.11010041
252	0x3def6a46	0.11690192
253	0xbde6ffbc	-0.11279246
254	0xbd94de27	-0.07268935
255	0x3d928246	0.07153754

gru.bias_ih_l1 f4 [192]
0	0xbafefd00	-0.0019454062
1	0x3a9756b3	0.0011546224
2	0xbb6bddcc	-0.0035990356
3	0xbb08ad6a	-0.0020855316
4	0xb9f23ea3	-0.00046204505
5	0xbbd6266e	-0.006535343
6	0xbb6b94c6	-0.003594683
7	0x3a81f9b9	0.0009916342
8	0x3a72b36b	0.0009258303
9	0xbb874613	-0.0041282265
10	0x34d17ddb	3.9020856e-07
11	0x3b6229ba	0.0034509734
12	0xbbbbd056	-0.0057316227
13	0xbb4b9431	-0.003106367
14	0x3ab7277a	0.0013973557
15	0xba4f1183	-0.0007899033
16	0xbb978694	-0.0046241973
17	0x39a5b55c	0.00031606376
18	0xbbd6bf18	-0.006553542
19	0x3bb1b7e1	0.0054235314
20	0xbc1046c5	-0.008805935
21	0x3b470e43	0.003037349
22	0xbba959de	-0.0051681837
23	0xbbf57627	-0.0074908915
24	0xba2d1149	-0.0006602002
25	0x3befed89	0.0073220176
26	0xbbf5f3e3	-0.00750588
27	0xbadef8ca	-0.0017011401
28	0xba781227	-0.0009463154
29	0x3bb7d38d	0.0056099356
30	0xba92db88	-0.0011204341
31	0xbb163324	-0.0022918666
32	0x39aae20c	0.00032593345
33	0xbaecc10c	-0.0018062904
34	0xbbe4df7d	-0.0069846497
35	0xbbd57fb3	-0.006515467
36	0xbc0b8d21	-0.0085175345
37	0x3a851849	0.0010154332
38	0x3b50b933	0.0031848669
39	0xba576afe	-0.0008217542
40	0x3a7cfb58	0.000965049
41	0xbbdfb78e	-0.0068273013
42	0xb9bb733f	-0.00035753284
43	0xbb3835d3	-0.0028108254
44	0x399a933e	0.00029482873
45	0xbb012e79	-0.0019711538
46	0xb8aa9aed	-8.135089e-05
47	0x3b0f5634	0.002187145
48	0x3a3551e5	0.0006916805
49	0xbacb93ca	-0.0015531715
50	0x39b05028	0.00033629057
51	0xba9f5177	-0.0012155016
52	0xbc04300e	-0.008068098
53	0xbb4870ae	-0.003058474
54	0xbc029680	-0.007970452
55	0xba29fd39	-0.00064845715
56	0x3b42932d	0.0029689774
57	0xb93dd2b0	-0.00018102932
58	0xbb123e9f	-0.0022315157
59	0x3b2415da	0.0025037439
60	0xbba52482	-0.0050397525
61	0xba5bd6b3	-0.00083861797
62	0x3b09d254	0.0021029906
63	0xba9ae74e	-0.0011818202
64	0x3b827758	0.003981512
65	0xbbd096c3	-0.0063656284
66	0x3c47e824	0.012201343
67	0x3c20e82c	0.009820979
68	0x3c01b70d	0.007917178
69	0x3c16911c	0.00918987
70	0x3ab69c7b	0.0013932133
71	0x399a65cc	0.00029449014
72	0x3c7652ff	0.015034436
73	0x3c83fe59	0.016112493
74	0x3b096142	0.0020962511
75	0xba158bd0	-0.00057047326
76	0xbaa47167	-0.0012546004
77	0x3c80bb5e	0.015714344
78	0xbafdd5a7	-0.0019366042
79	0x3bf6c41d	0.0075307027
80	0x3b8bcda9	0.00426646
81	0x3b76a9bd	0.0037637793
82	0x3bee4413	0.0072712987
83	0x39440ed2	0.00018697538
84	0x3c6eb937	0.014570526
85	0x3c84562e	0.016154375
86	0x3c4e049f	0.012574344
87	0xbaac8062	-0.001316082
88	0x3a178f24	0.00057815225
89	0x3ad38754	0.0016138353
90	0x3b394695	0.002827083
91	0x3c186b09	0.009302863
92	0xbb9e65ea	-0.0048339264
93	0xbb5078b1	-0.003181022
94	0x3b36fef4	0.002792296
95	0xbb8ae175	-0.0042383024
96	0x3b3fe5d0	0.0029281266
97	0xbb6aabb1	-0.0035807902
98	0xbaf2179a	-0.0018470169
99	0x3b83cbd9	0.0040221033
100	0x3c0cebf0	0.008601174
101	0x3bf7dfcb	0.00756452
102	0xb95cacac	-0.0002104516
103	0x3a0f0056	0.0005455067
104	0xbaef144c	-0.0018240302
105	0x3c29747b	0.0103427125
106	0x3bad39bb	0.005286423
107	0x3bae38bd	0.0053168223
108	0x3ab67d12	0.0013922772
109	0x3bd0c286	0.0063708453
110	0x3ae75af2	0.0017651005
111	0x3c587644	0.0132117905
112	0xbaffc148	-0.0019512558
113	0xba5b3adf	-0.00083629595
114	0x3b8bdfc2	0.0042686174
115	0x3b8e819f	0.004348948
116	0x3c1bb10b	0.00950266
117	0xbafdb8ea	-0.0019357477
118	0x3a0c3ed6	0.00053499395
119	0xbbffbb06	-0.0078042774
120	0x38f121ec	0.00011498094
121	0x3bb209c1	0.0054332917
122	0x3bcc947b	0.006243286
123	0x3bd98043	0.0066376044
124	0xbba338a9	-0.0049811197
125	0x3ae1ff84	0.0017242287
126	0x3aae13ae	0.0013281011
127	0x3b8d0799	0.004303884
128	0x3a5fd5b8	0.00085386215
129	0x3a2da70b	0.00066243176
130	0x39dbdce7	0.0004193552
131	0xba963216	-0.0011459019
132	0x3a966e21	0.0011476913
133	0xba515ebd	-0.00079868344
134	0x399f47d2	0.00030380354
135	0x3b387995	0.002814864
136	0x39be5880	0.00036305562
137	0xbaa98c73	-0.0012935534
138	0xbb18c005	-0.0023307812
139	0x3a0e8989	0.00054373645
140	0xbb83549d	-0.0040078894
141	0x39ac3fa3	0.0003285381
142	0x3b3db5eb	0.0028947543
143	0xbadebee7	-0.0016994149
144	0xb8fc7a49	-0.00012039074
145	0xb959d792	-0.00020775039
146	0xb9e52a96	-0.00043710013
147	0xba5295e3	-0.0008033199
148	0x3b0d2706	0.0021538152
149	0x3b2d8b2e	0.0026480663
150	0x3b0a75ae	0.0021127271
151	0x3a39bcdb	0.00070853316
152	0xbb04eab3	-0.0020281493
153	0x39a08ca2	0.00030622358
154	0xb8a2c332	-7.76112e-05
155	0x3aaebfdf	0.0013332329
156	0xbb6a3d7f	-0.003574222
157	0xbaa13389	-0.0012298684
158	0x3a51e200	0.0008006394
159	0xba50a01a	-0.00079584273
160	0xbab10d05	-0.0013507908
161	0x389cb9ae	7.473245e-05
162	0xba357d17	-0.0006923242
163	0xba8e9931	-0.0010879395
164	0x3afca71f	0.001927588
165	0xba87a92c	-0.00103501
166	0xba352718	-0.00069104275
167	0x39dbfe9b	0.0004196063
168	0x3aabaaf0	0.0013097208
169	0xbb333822	-0.002734669
170	0x3a9558fb	0.0011394316
171	0xbb405010	-0.0029344596
172	0xb9e48b93	-0.0004359154
173	0x39927f38	0.00027942075
174	0x3b36dd99	0.0027903079
175	0x3aaedd48	0.0013341093
176	0xb98b6e1d	-0.00026594187
177	0x3bc639a6	0.0060493527
178	0xb90108dc	-0.00012305699
179	0xba755609	-0.00093588285
180	0x3b632e06	0.0034664883
181	0xbadebfe5	-0.0016994445
182	0x3aa26798	0.0012390492
183	0xb9f2064c	-0.00046162528
184	0x3a62fdde	0.0008659045
185	0xba086452	-0.0005202937
186	0x3adf53c6	0.0017038516
187	0xba5b5f7d	-0.0008368416
188	0x3aea608a	0.0017881554
189	0xba59cb74	-0.000830821
190	0xbb195ab8	-0.002340002
191	0xb7bfdc06	-2.287143e-05

gru.bias_hh_l1 f4 [192]
0	0xbafefd00	-0.0019454062
1	0x3a9756b3	0.0011546224
2	0xbb6bddcc	-0.0035990356
3	0xbb08ad6a	-0.0020855316
4	0xb9f23ea3	-0.00046204505
5	0xbbd6266e	-0.006535343
6	0xbb6b94c6	-0.003594683
7	0x3a81f9b9	0.0009916342
8	0x3a72b36b	0.0009258303
9	0xbb874613	-0.0041282265
10	0x34d17ddb	3.9020856e-07
11	0x3b6229ba	0.0034509734
12	0xbbbbd056	-0.0057316227
13	0xbb4b9431	-0.003106367
14	0x3ab7277a	0.0013973557
15	0xba4f1183	-0.0007899033
16	0xbb978694	-0.0046241973
17	0x39a5b55c	0.00031606376
18	0xbbd6bf18	-0.006553542
19	0x3bb1b7e1	0.0054235314
20	0xbc1046c5	-0.008805935
21	0x3b470e43	0.003037349
22	0xbba959de	-0.0051681837
23	0xbbf57627	-0.0074908915
24	0xba2d1149	-0.0006602002
25	0x3befed89	0.0073220176
26	0xbbf5f3e3	-0.00750588
27	0xbadef8ca	-0.0017011401
28	0xba781227	-0.0009463154
29	0x3bb7d38d	0.0056099356
30	0xba92db88	-0.0011204341
31	0xbb163324	-0.0022918666
32	0x39aae20c	0.00032593345
33	0xbaecc10c	-0.0018062904
34	0xbbe4df7d	-0.0069846497
35	0xbbd57fb3	-0.006515467
36	0xbc0b8d21	-0.0085175345
37	0x3a851849	0.0010154332
38	0x3b50b933	0.0031848669
39	0xba576afe	-0.0008217542
40	0x3a7cfb58	0.000965049
41	0xbbdfb78e	-0.0068273013
42	0xb9bb733f	-0.00035753284
43	0xbb3835d3	-0.0028108254
44	0x399a933e	0.00029482873
45	0xbb012e79	-0.0019711538
46	0xb8aa9aed	-8.135089e-05
47	0x3b0f5634	0.002187145
48	0x3a3551e5	0.0006916805
49	0xbacb93ca	-0.0015531715
50	0x39b05028	0.00033629057
51	0xba9f5177	-0.0012155016
52	0xbc04300e	-0.008068098
53	0xbb4870ae	-0.003058474
54	0xbc029680	-0.007970452
55	0xba29fd39	-0.00064845715
56	0x3b42932d	0.0029689774
57	0xb93dd2b0	-0.00018102932
58	0xbb123e9f	-0.0022315157
59	0x3b2415da	0.0025037439
60	0xbba52482	-0.0050397525
61	0xba5bd6b3	-0.00083861797
62	0x3b09d254	0.0021029906
63	0xba9ae74e	-0.0011818202
64	0x3b827758	0.003981512
65	0xbbd096c3	-0.0063656284
66	0x3c47e824	0.012201343
67	0x3c20e82c	0.009820979
68	0x3c01b70d	0.007917178
69	0x3c16911c	0.00918987
70	0x3ab69c7b	0.0013932133
71	0x399a65cc	0.00029449014
72	0x3c7652ff	0.015034436
73	0x3c83fe59	0.016112493
74	0x3b096142	0.0020962511
75	0xba158bd0	-0.00057047326
76	0xbaa47167	-0.0012546004
77	0x3c80bb5e	0.015714344
78	0xbafdd5a7	-0.0019366042
79	0x3bf6c41d	0.0075307027
80	0x3b8bcda9	0.00426646
81	0x3b76a9bd	0.0037637793
82	0x3bee4413	0.0072712987
83	0x39440ed2	0.00018697538
84	0x3c6eb937	0.014570526
85	0x3c84562e	0.016154375
86	0x3c4e049f	0.012574344
87	0xbaac8062	-0.001316082
88	0x3a178f24	0.00057815225
89	0x3ad38754	0.0016138353
90	0x3b394695	0.002827083
91	0x3c186b09	0.009302863
92	0xbb9e65ea	-0.0048339264
93	0xbb5078b1	-0.003181022
94	0x3b36fef4	0.002792296
95	0xbb8ae175	-0.0042383024
96	0x3b3fe5d0	0.0029281266
97	0xbb6aabb1	-0.0035807902
98	0xbaf2179a	-0.0018470169
99	0x3b83cbd9	0.0040221033
100	0x3c0cebf0	0.008601174
101	0x3bf7dfcb	0.00756452
102	0xb95cacac	-0.0002104516
103	0x3a0f0056	0.0005455067
104	0xbaef144c	-0.0018240302
105	0x3c29747b	0.0103427125
106	0x3bad39bb	0.005286423
107	0x3bae38bd	0.0053168223
108	0x3ab67d12	0.0013922772
109	0x3bd0c286	0.0063708453
110	0x3ae75af2	0.0017651005
111	0x3c587644	0.0132117905
112	0xbaffc148	-0.0019512558
113	0xba5b3adf	-0.00083629595
114	0x3b8bdfc2	0.0042686174
115	0x3b8e819f	0.004348948
116	0x3c1bb10b	0.00950266
117	0xbafdb8ea	-0.0019357477
118	0x3a0c3ed6	0.00053499395
119	0xbbffbb06	-0.0078042774
120	0x38f121ec	0.00011498094
121	0x3bb209c1	0.0054332917
122	0x3bcc947b	0.006243286
123	0x3bd98043	0.0066376044
124	0xbba338a9	-0.0049811197
125	0x3ae1ff84	0.0017242287
126	0x3aae13ae	0.0013281011
127	0x3b8d0799	0.004303884
128	0x3a927d78	0.0011176309
129	0x3a9e3c35	0.0012072386
130	0x398ab306	0.00026454794
131	0xba894222	-0.001047198
132	0x3a4c1d6e	0.0007786368
133	0x3a8bf4aa	0.0010677774
134	0xb8d42a01	-0.000101167716
135	0x3b3687a2	0.002785184
136	0xb7ff250e	-3.0415624e-05
137	0xba4dc9ab	-0.000785018
138	0xbb253b49	-0.0025212339
139	0xb81af9fe	-3.6949285e-05
140	0xbb5028f7	-0.0031762698
141	0x3a56fe10	0.00082013104
142	0x3b46bc07	0.0030324475
143	0xba931f12	-0.001122447
144	0x39643f54	0.00021767366
145	0x39dae4f5	0.00041750786
146	0xb9e0d633	-0.000428842
147	0xba55c2c1	-0.0008154326
148	0x3aff0dc3	0.0019459057
149	0x3b52b66b	0.0032152187
150	0x3b535200	0.003224492
151	0x3a1622c5	0.0005727227
152	0xbb286d29	-0.002569983
153	0x39f17ac7	0.00046058578
154	0xb8e06f56	-0.0001070189
155	0x3a445f7a	0.0007491034
156	0xbb757fba	-0.0037460164
157	0xbac731c0	-0.0015197322
158	0x3a47ebfc	0.0007626412
159	0xba8bf3e4	-0.0010677543
160	0xbb4aa328	-0.0030920003
161	0xb9e5b36b	-0.0004381196
162	0xba7b5122	-0.000958698
163	0xbab3cbaf	-0.0013717319
164	0x3b17b252	0.0023147059
165	0xb91142cf	-0.00013853166
166	0xb9cf1476	-0.0003949736
167	0x3acadcb2	0.0015477149
168	0x3a383516	0.00070269534
169	0xbb6285a3	-0.0034564517
170	0x3aca0012	0.0015411398
171	0xbb6370ed	-0.003470476
172	0xb97929e0	-0.0002376209
173	0x38f9c011	0.000119090204
174	0x3b5244a1	0.0032084363
175	0x3a48c12e	0.00076581805
176	0xb9c4ae87	-0.00037514066
177	0x3bc4fa50	0.006011285
178	0xb9f0200d	-0.00045800247
179	0xba953ff9	-0.0011386863
180	0x3b15a7a4	0.0022835517
181	0xbab948f0	-0.0014136117
182	0x3ab20363	0.0013581332
183	0x3a1368cb	0.00056232203
184	0x3a89a77c	0.0010502185
185	0xba36a856	-0.0006967833
186	0x3a58877c	0.0008259935
187	0xbaadc1df	-0.0013256631
188	0x3b19b23f	0.002345219
189	0xba8e092c	-0.0010836474
190	0xbb3356f9	-0.0027365072
191	0xba7aa591	-0.00095614145
