models/models/simple_optimized/simple_lstm_fold_1.pt (torch, 292005 bytes, 15 tensors)

lstm.weight_ih_l0 f4 [256, 10]
-0.043369915 -0.0031730721 0.07998251 0.059709944 -0.060631752 0.023076005 0.012554584 0.013245617
0.07122938 -0.07854602 -0.03543457 -0.10343745 0.00852729 0.05033058 -0.117630124 -0.107689075
-0.08212004 -0.09115132 -0.05636836 -0.051277194 -0.09726772 -0.084431075 -0.0045337025 0.005278389
0.03921162 -0.00015267241 -0.069685705 0.024156302 0.123599626 -0.06615835 0.042903002 0.0415718
-0.0493066 0.10455082 0.07837789 0.106728375 -0.011026898 0.07356152 -0.015811963 0.012807996
0.1505297 0.10979359 0.15385723 0.13413128 0.167798 0.043581083 -0.0607032 0.098031044
-0.07791372 0.16343151 -0.022081863 0.0766927 -0.08850698 0.054863743 -0.062500484 0.12576704
-0.027365396 0.040474523 -0.09824404 0.06896788 0.16213363 -0.08513183 -0.10308606 0.05794965
-0.08060941 0.07179952 0.0074941767 -0.11603349 -0.025675148 0.04619247 0.080984324 -0.10753578
-0.11071713 0.009822943 0.08215112 -0.04090704 0.024999646 -0.038865626 0.0024776978 -0.13061032
-0.10666242 -0.08155813 0.13499187 -0.10213406 0.113007024 -0.030591637 0.034516554 0.0072634635
0.09531671 -0.04826121 0.13266884 0.06272506 -0.04314513 0.048273545 0.1589496 -0.06379685
0.118386425 -0.025077442 -0.05629551 -0.0792579 0.09560245 0.082550526 0.10513858 -0.050108347
0.09220451 0.0038369037 -0.026438963 0.103629 0.015091346 -0.039794207 0.059117865 -0.06602986
-0.01941493 0.012357981 0.059672356 -0.1338172 0.041414827 0.009764338 -0.0004038118 0.016302526
-0.033800863 -0.11648773 0.017545294 0.030080905 0.023095675 0.037586413 0.0026624794 -0.059083425
-0.058658283 -0.07745749 0.05599503 -0.06317307 -0.0020045014 0.062118895 0.043474276 -0.008605018
-0.096111216 0.092164524 -0.06534568 0.028375179 0.004813249 0.081951864 0.08154954 0.122662455
-0.03994168 0.02380911 -0.041363996 0.02182751 0.043518797 -0.003979689 0.066488765 -0.0144208735
-0.025627062 0.08972299 0.022828866 -0.047200818 0.103657566 0.16327453 0.035620347 0.06133344
-0.12693988 -0.13280612 -0.08411807 -0.09012252 0.08640436 0.026355803 -0.05600979 -0.0117669515
-0.08091545 -0.118772514 0.055690862 0.14365749 0.0005951396 0.10869867 0.13821247 -0.060366906
-0.00081802224 -0.03694818 -0.06765178 0.07050241 -0.07114906 -0.120053 -0.03789534 -0.02924113
-0.14016801 -0.028295489 0.10867827 0.103134714 -0.106718786 0.13922146 -0.009284623 0.010726851
-0.038914677 0.07149262 -0.026914164 -0.00077349454 0.0036761733 -0.06975621 0.14156197 -0.07859989
-0.10871597 -0.0010002374 -0.017063677 -0.124305725 0.071252845 -0.09839385 -0.08134046 -0.1362249
-0.035037052 -0.062168 -0.08003121 -0.006112262 0.03807751 -0.066783324 -0.054513525 -0.09916508
0.030288415 0.10007226 -0.08242051 -0.00810432 0.055897627 0.06867582 0.13020948 -0.12521124
-0.029311882 -0.15248099 0.11309459 0.12920053 -0.0032960395 -0.04038921 0.011859009 -0.06229069
-0.112736315 0.080502 0.09444431 0.10194695 0.05744615 -0.095080905 0.06159732 0.08310008
0.12996578 0.0071044895 -0.039649952 0.0006535129 0.09340975 0.06734159 0.11365569 0.0987305
0.009902041 -0.011659432 0.030944873 -0.069929406 0.09559262 -0.054300927 0.14925773 0.05529466
00000000: a7a4 31bd 51f3 4fbb dfcd a33d 6a92 743d
00000010: 0059 78bd e409 bd3c beb1 4d3c 2504 593c
00000020: b6e0 913d bcdc a0bd d723 11bd 04d7 d3bd
00000030: 0cb6 0b3c 7027 4e3d 10e8 f0bd 178c dcbd
00000040: 8d2e a8bd 8bad babd 82e2 66bd 0908 52bd
00000050: 4c34 c7bd 33ea acbd 748f 94bb 56f6 ac3b
00000060: 5d9c 203d b016 20b9 61b7 8ebd 70e3 c53c
00000070: cd21 fd3d 077e 87bd 0fbb 2f3d 3147 2a3d
00000080: b8f5 49bd be1e d63d 9684 a03d 6894 da3d
00000090: 2aaa 34bc 6ca7 963d 1788 81bc a1d8 513c
000000a0: 7524 1a3e 76db e03d c08c 1d3e b659 093e
000000b0: 3dd3 2b3e 1482 323d eba3 78bd 80c4 c83d
000000c0: 3a91 9fbd 975a 273e 06e5 b4bc 1011 9d3d
000000d0: 2643 b5bd ceb8 603d 4100 80bd 13c9 003e
000000e0: 652d e0bc 9dc8 253d 2c34 c9bd 083f 8d3d
000000f0: 5c06 263e 9959 aebd c91e d3bd 9d5c 6d3d
00000100: 8c16 a5bd a00b 933d b691 f53b f7a2 edbd
00000110: b054 d2bc 5134 3d3d 1cdb a53d b83b dcbd
00000120: aabf e2bd 69f0 203c d93e a83d 248e 27bd
00000130: 0fcc cc3c 9031 1fbd df60 223b b6be 05be
00000140: d471 dabd f307 a7bd 4f3b 0a3e a92b d1bd
00000150: 3a70 e73d 509b fabc 3b61 0d3d 5902 ee3b
00000160: 6835 c33d 8cad 45bd 57da 073e ff75 803d
00000170: f3b8 30bd 7bba 453d afc3 223e eca7 82bd
00000180: 9574 f23d 356f cdbc 1f96 66bd f751 a2bd
00000190: 38cb c33d 4010 a93d e552 d73d 693e 4dbd
000001a0: b8d5 bc3d 9074 7b3b 8696 d8bc 713b d43d
000001b0: b141 773c 40ff 22bd 9325 723d aa3a 87bd
000001c0: 0f0c 9fbc 2179 4a3c 006b 743d 6007 09be
000001d0: 98a2 293d 9afa 1f3c b4b6 d3b9 e08c 853c
000001e0: c672 0abd 1e91 eebd 26bb 8f3c 3b6c f63c
000001f0: 2433 bd3c 36f4 193d fe7c 2e3b 7601 72bd
00000200: ab43 70bd 08a2 9ebd 0b5b 653d e260 81bd
00000210: f45d 03bb 6270 7e3d 1512 323d 10fc 0cbc
00000220: f5d5 c4bd c1c0 bc3d f5d3 85bd 1073 e83c
00000230: 76b8 9d3b 61d6 a73d 7203 a73d 7436 fb3d
00000240: e399 23bd 530b c33c 4b6d 29bd 9bcf b23c
00000250: c440 323d 0d68 82bb 432b 883d 8745 6cbc
00000260: d8ef d1bc b0c0 b73d 9a03 bb3c a555 41bd
00000270: 6b4a d43d 7031 273e a4e6 113d c638 7b3d
00000280: 87fc 01be 54fe 07be 1846 acbd 2892 b8bd
00000290: c5f4 b03d 20e8 d73c 866a 65bd 2cca 40bc
000002a0: 00b7 a5bd 013f f3bd 1a1c 643d f31a 133e
000002b0: 2403 1c3a 699d de3d 9287 0d3e 4a43 77bd
000002c0: 8b70 56ba fa56 17bd 048d 8abd 9163 903d
000002d0: 99b6 91bd 59de f5bd 2538 1bbd 188b efbc
000002e0: 3488 0fbe f1cb e7bc b692 de3d 4b38 d33d
000002f0: 618f dabd 1290 0e3e 881e 18bc adbf 2f3c
00000300: ff64 1fbd b96a 923d 187b dcbc 57c4 4aba
00000310: f4eb 703b 58dc 8ebd 9ff5 103e fbf8 a0bd
00000320: 7aa6 debd 661a 83ba 20c9 8bbc 0094 febd
00000330: 03ed 913d b782 c9bd d495 a6bd 8a7e 0bbe
00000340: 0383 0fbd dfa3 7ebd 67e7 a3bd 5f49 c8bb
00000350: 2af7 1b3d b2c5 88bd 9349 5fbd 1017 cbbd
00000360: 691f f83c aff2 cc3d 16cc a8bd fbc7 04bc
00000370: e9f4 643d e9a5 8c3d a255 053e 6037 00be
00000380: 791f f0bc fa23 1cbe 239e e73d 254d 043e
00000390: 5e02 58bb 286f 25bd 4a4c 423c 8624 7fbd
000003a0: 4ce2 e6bd 3cde a43d 056c c13d 90c9 d03d
000003b0: a74c 6b3d c7b9 c2bd 794d 7c3d 6030 aa3d
000003c0: c015 053e c7cc e83b fd67 22bd 8250 2b3a
000003d0: 9c4d bf3d 63ea 893d 50c4 e83d 3733 ca3d
000003e0: 2c3c 223c 3407 3fbc 1a80 fd3c 2637 8fbd
000003f0: 10c6 c33d a66a 5ebd 05d7 183e a77c 623d

lstm.weight_hh_l0 f4 [256, 64]
0.0071201916 0.05323591 0.15007824 -0.049878452 -0.037288677 -0.061452623 -0.05601972 0.077683575
-0.077238455 0.16037023 0.020881377 0.09853639 0.0408583 -0.03951398 -0.1204183 -0.042240735
0.014944183 -0.158642 0.10909796 0.038596094 -0.11307185 -0.15660751 -0.033074766 -0.112069964
-0.13893142 0.032161374 0.011120099 -0.07457029 -0.0053550135 0.044111043 0.11023285 -0.11366634
-0.1090974 -0.035160463 0.07547766 -0.12986654 0.083194114 0.041040987 -0.07837206 -0.009375884
-0.12751971 0.075049825 0.04178288 -0.039942555 0.0062674526 0.123262346 0.05913939 -0.062340435
0.066084795 -0.007857265 0.0011950601 -0.018272603 0.0517083 0.056261465 0.063976906 -0.04493142
0.07601915 -0.09550619 0.046523474 0.08359902 0.05480104 0.016125306 -0.024426347 0.115727685
0.060410596 0.013737879 0.091871046 -0.02046964 0.016553989 0.054157354 0.07054491 0.10964211
0.08275084 -0.07207352 0.023637658 -0.016504569 -0.14517908 0.1108225 0.054134257 0.08211108
0.10855259 -0.075191796 0.025228605 0.07317247 0.086567655 0.08723097 0.08798583 -0.017264705
-0.05385758 -0.12222935 0.0040286556 -0.099075675 -0.045807347 -0.056405492 -0.07735108 0.08100188
-0.07830841 -0.05235685 0.11456344 -0.010523908 0.09877352 -0.008182479 -0.03476408 -0.0951106
0.054643936 0.01276025 -0.09244692 0.043984365 -0.031535633 0.083608925 -0.13115406 0.05179848
-0.0405552 0.11528259 -0.052276693 -0.046812948 -0.00043786457 -0.062140077 -0.012923072 -0.089812085
-0.0004425759 -0.12283046 0.067095354 -0.004446984 -0.10780974 0.078948125 0.011586209 0.06933295
-0.07534354 -0.045037128 0.111309215 -0.03684788 -0.16202517 -0.03307017 0.04465275 -0.030099465
-0.04121461 0.07936167 0.062462565 0.10150553 0.014599285 0.06364427 -0.115858406 -0.021164209
0.0851118 -0.12704086 0.18020786 -0.0045253276 -0.12193006 -0.11180215 0.16920963 -0.12621796
0.022387085 -0.07834767 -0.07672694 -0.060204193 0.054016687 0.04949368 0.06194175 -0.03933088
-0.13551939 -0.0165883 -0.03979704 0.095800035 -0.017905805 0.024176925 -0.14610453 -0.04631766
-0.063213535 -0.049215782 -0.068370126 -0.04667078 0.03035084 0.1346922 -0.11630529 0.035095863
0.1410797 -0.010023761 -0.055116367 0.022099905 0.07232842 0.08107371 -0.043714944 -0.032733604
-0.057672884 0.0027578818 0.024615092 -0.15074089 -0.02692252 0.16326666 0.05183068 0.018368505
0.03340662 0.10562689 0.058684856 -0.04336854 -0.07021634 -0.08096137 -0.14563654 0.08286647
-0.13190137 0.10299311 -0.032138847 0.015495112 -0.009563649 0.010939479 -0.02765529 -0.07677069
-0.019922093 -0.14930253 0.0013761184 0.04608461 0.02956471 0.07871952 0.106511906 -0.03126153
-0.13011909 0.12291641 -0.0013431837 0.043714877 -0.1315563 0.03233421 -0.021055425 0.01960262
0.09738343 0.13103811 -0.11163643 -0.028576445 -0.07524 -0.04926814 0.033896543 0.02829445
-0.0195023 -0.07614513 0.13631316 -0.1240198 0.1018741 0.09613344 -0.115238905 -0.009634504
0.10261806 -0.073833525 0.07981836 -0.022507966 -0.0938381 0.006496122 -0.08968265 0.011879267
0.026894258 0.031818584 0.15462059 -0.047963545 -0.05695779 -0.04255523 -0.11168949 0.13171732
00000000: 7f50 e93b e60d 5a3d 1cae 193e 594d 4cbd
00000010: 03bc 18bd bfb5 7bbd ef74 65bd 9118 9f3d
00000020: 322f 9ebd 1838 243e 6c0f ab3c 72cd c93d
00000030: 085b 273d 69d9 21bd df9d f6bd 9f04 2dbd
00000040: 72d8 743c 0c73 22be c06e df3d f016 1e3d
00000050: 3792 e7bd b85d 20be 6879 07bd f084 e5bd
00000060: 0a44 0ebe a5bb 033d 1331 363c 4fb8 98bd
00000070: 1c79 afbb c8ad 343d c3c1 e13d e6c9 e8bd
00000080: 756e dfbd 6b04 10bd 0894 9a3d bcfb 04be
00000090: ad61 aa3d 981a 283d 8881 a0bd 4f9d 19bc
000000a0: 8794 02be b9b3 993d 8624 2b3d ce9a 23bd
000000b0: 345f cd3b f870 fc3d 253c 723d af58 7fbd
000000c0: 7757 873d c2bb 00bc 90a3 9c3a 6db0 95bc
000000d0: 15cc 533d 6c72 663d 5306 833d 020a 38bd
000000e0: eeaf 9b3d c098 c3bd 668f 3e3d f735 ab3d
000000f0: 0e77 603d 3819 843c c319 c8bc a302 ed3d
00000100: 1a71 773d d714 613c e326 bc3d f2af a7bc
00000110: 3b9c 873c 1ad4 5d3d da79 903d 0b8c e03d
00000120: 4679 a93d 489b 93bd c3a3 c13c 9734 87bc
00000130: d3a9 14be e8f6 e23d e2bb 5d3d db29 a83d
00000140: d250 de3d 28fe 99bd 38ac ce3c 73db 953d
00000150: 624a b13d 27a6 b23d ea31 b43d b66e 8dbc
00000160: c499 5cbd 6253 fabd d002 843b 30e8 cabd
00000170: 7ca0 3bbd 7209 67bd 3e6a 9ebd 50e4 a53d
00000180: 2960 a0bd 2374 56bd 3da0 ea3d 786c 2cbc
00000190: c549 ca3d ce0f 06bc c864 0ebd 59c9 c2bd
000001a0: 52d2 5f3d 5e10 513c d054 bdbd f328 343d
000001b0: 822b 01bd 283b ab3d 404d 06be a52a 543d
000001c0: 361d 26bd 4719 ec3d 1620 56bd efbe 3fbd
000001d0: 3091 e5b9 9886 7ebd 4bbb 53bc 66ef b7bd
000001e0: 8809 e8b9 898e fbbd 4a69 893d 01b8 91bb
000001f0: 5acb dcbd 8eaf a13d 15d4 3d3c 6ffe 8d3d
00000200: b74d 9abd da78 38bd 16f6 e33d cded 16bd
00000210: ede9 25be 9674 07bd cde5 363d 2793 f6bc
00000220: a7d0 28bd 5f88 a23d bfd8 7f3d 22e2 cf3d
00000230: d731 6f3c ed57 823d 2c47 edbd 9060 adbc
00000240: 184f ae3d 0017 02be 6988 383e 3349 94bb
00000250: 78b6 f9bd 87f8 e4bd 4a45 2d3e 483f 01be
00000260: 1f65 b73c be74 a0bd 0423 9dbd ac98 76bd
00000270: 9a40 5d3d e3b9 4a3d a2b6 7d3d 6b19 21bd
00000280: 98c5 0abe 30e4 87bc 3902 23bd cf32 c43d
00000290: 32af 92bc b00e c63c 6d9c 15be 96b7 3dbd
000002a0: 1976 81bd 7d96 49bd a305 8cbd dc29 3fbd
000002b0: 53a2 f83c c1ec 093e 7831 eebd aec0 0f3d
000002c0: 3277 103e b33a 24bc b3c1 61bd dc0a b53c
000002d0: ec20 943d f909 a63d 710e 33bd ac13 06bd
000002e0: 673a 6cbd 94bd 343b 97a5 c93c d25b 1abe
000002f0: 9e8c dcbc 602f 273e 684c 543d 8c79 963c
00000300: 61d5 083d e952 d83d 885f 703d 36a3 31bd
00000310: 96cd 8fbd 13cf a5bd bf21 15be e5b5 a93d
00000320: 2711 07be 0dee d23d 06a4 03bd 36df 7d3c
00000330: dab0 1cbc 803b 333c 598d e2bc f439 9dbd
00000340: a833 a3bc c3e2 18be df5e b43a 37c3 3c3d
00000350: b131 f23c b337 a13d ea22 da3d 170c 00bd
00000360: f03d 05be 99bb fb3d c40d b0ba 5f0e 333d
00000370: b2b6 06be e070 043d 6d7c acbc ac95 a03c
00000380: f770 c73d db2e 063e a4a1 e4bd 2619 eabc
00000390: 6e17 9abd 64cd 49bd 1ad7 0a3d c3c9 e73c
000003a0: 4ac3 9fbc faf1 9bbd ad95 0b3e 18fe fdbd
000003b0: 5ea3 d03d 9ce1 c43d 6002 ecbd 0ada 1dbc
000003c0: 6b29 d23d 0836 97bd cf77 a33d a062 b8bc
000003d0: 312e c0bd 6cdd d43b 8aab b7bd 42a1 423c
000003e0: 5951 dc3c 3454 023d dc54 1e3e 6c75 44bd
000003f0: 924c 69bd 654e 2ebd 76bd e4bd e8e0 063e

lstm.bias_ih_l0 f4 [256]
0.101395905 -0.092196666 0.10402502 0.018086355 0.12949139 -0.07288844 0.0010247221 0.05872602
0.02649587 0.031377897 0.02921506 -0.04427779 -0.038271092 -0.0062217 0.08315326 0.070098154
-0.006927813 -0.10198247 0.06363043 -0.09366307 0.07945057 0.12446962 0.06979547 0.10584139
0.0039936537 0.09040417 0.006087571 0.0631887 -0.06994192 0.007876107 0.024998609 0.0056743477
0.11977995 0.08239353 -0.013140322 0.14480607 0.02756233 0.007721471 0.10036411 0.10574655
0.027270084 -0.049451582 0.07417526 -0.023845796 -0.09245973 0.08379508 0.05875074 -0.074677125
-0.097479 0.052764352 0.06707754 0.10973009 0.13469869 -0.039646603 0.08039904 -0.048329264
-0.013778405 -0.047424108 0.04055717 0.01003225 -0.07562922 -0.032665864 -0.031149799 0.0990297
0.16194147 0.0077837324 -0.016535496 0.11555449 0.10041395 0.023312269 -0.03065763 -0.039436527
0.04333185 -0.06894037 -0.0799043 0.13094261 -0.060644057 -0.007984989 0.09196749 -0.086613394
0.02149622 0.09786086 0.061828505 -0.07514937 0.061419223 0.06447421 -0.0143601615 0.100411355
0.13966829 -0.07103101 0.059085686 -0.1044599 -0.012153064 0.043769203 -0.032012235 -0.0055256253
0.07523864 -0.07825077 -0.08068435 -0.09067407 0.07826932 0.024695607 0.07299493 0.1172627
0.05817798 -0.027010638 0.099532194 0.015865749 0.08583154 -0.11372267 -0.058956306 -0.008638658
0.0288176 0.008851985 -0.07118195 -0.101153366 -0.020246614 0.15909684 0.011200833 0.04422561
-0.05383748 -0.031001793 0.07259326 -0.04283781 -0.079030015 -0.027897066 -0.011564784 0.1427707
-0.017290847 -0.08734537 -0.04904584 -0.091248475 0.10770994 0.03249137 -0.04953101 0.001767307
0.03989604 0.11752064 0.0091780685 0.06213846 0.09850349 -0.04745234 0.0151545 0.08454053
-0.06503763 -0.06956398 -0.004063783 0.0012710281 0.07855155 -0.058797777 0.08963297 0.07583754
0.037176557 0.046264686 0.044999182 0.039410535 -0.110339284 0.094730556 0.024604276 -0.065913625
0.061109785 -0.06838885 -0.038222563 0.052287586 0.09991038 -0.12036228 -0.11798253 -0.045525767
-0.092472434 -0.05009815 0.09528278 0.01122841 -0.028222792 0.053673062 -0.06372864 -0.10218088
-0.109238826 -0.0350626 0.08964948 0.021895053 0.091496505 -0.06649441 -0.10243288 -0.03669491
-0.060485736 -0.09551017 -0.031201666 -0.031253807 0.068684824 -0.07172481 0.024031855 -0.03563748
0.020276187 0.11880651 0.16062902 0.113853686 -0.03135591 0.05788695 0.021321617 0.030652024
-0.06570098 0.15095527 -0.05209703 -0.107901864 -0.031473335 0.08138525 -0.019830823 0.01170514
0.043115232 0.103914164 0.08846553 -0.08595759 0.013982857 -0.09684705 0.021308683 0.13183883
0.12616815 0.13114528 0.119432524 0.08871079 0.13382 0.108780086 0.055010125 0.11418456
-0.058681127 -0.058390535 -0.065737605 -0.026280757 -0.04465093 0.04657563 -0.10439737 0.018135216
0.104052894 0.10794964 -0.035730604 0.020622749 0.10779678 -0.12001475 0.10035649 0.028793659
0.018970495 -0.028918693 -0.011871216 0.013431017 -0.044013042 0.09913315 -0.034549803 0.058095664
0.034169868 -0.01793848 0.022180771 -0.08464359 -0.09381893 0.04927233 0.050107542 0.16175647
00000000: a8a8 cf3d 9bd1 bcbd 120b d53d d629 943c
00000010: 6499 043e 8946 95bd f84f 863a b28a 703d
00000020: de0d d93c 1c86 003d 6c54 ef3c a15c 35bd
00000030: 26c2 1cbd 67df cbbb 424c aa3d 9f8f 8f3d
00000040: b502 e3bb 2fdc d0bd ac50 823d 6cd2 bfbd
00000050: fbb6 a23d eee9 fe3d edf0 8e3d 5fc3 d83d
00000060: 32dd 823b d225 b93d 3f7a c73b 1469 813d
00000070: b63d 8fbd c90a 013c e2c9 cc3c e1ef b93b
00000080: 314f f53d f0bd a83d 814a 57bc 0b48 143e
00000090: 65ca e13c 6504 fd3b b38b cd3d a691 d83d
000000a0: 8365 df3c be8d 4abd 33e9 973d 4258 c3bc
000000b0: 875b bdbd c19c ab3d 9ea4 703d 52f0 98bd
000000c0: 12a3 c7bd 6f1f 583d f35f 893d 2bba e03d
000000d0: 74ee 093e 7a64 22bd 40a8 a43d e8f4 45bd
000000e0: d2be 61bc c83f 42bd 461f 263d 4e5e 243c
000000f0: 7ee3 9abd a4cc 05bd dd2d ffbc 15d0 ca3d
00000100: fcd3 253e ae0e ff3b 7375 87bc d5a7 ec3d
00000110: d4a5 cd3d 5ff9 be3c b625 fbbc 3288 21bd
00000120: bd7c 313d 9c30 8dbd dea4 a3bd d215 063e
00000130: e765 78bd 79d3 02bc 7459 bc3d 5d62 b1bd
00000140: d718 b03c 466b c83d e33f 7d3d eae7 99bd
00000150: b992 7b3d 0e0b 843d e246 6bbc 78a4 cd3d
00000160: 3405 0f3e b578 91bd d503 723d 12ef d5bd
00000170: a51d 47bc 5647 333d 431f 03bd 4e10 b5bb
00000180: b716 9a3d f141 a0bd d63d a5bd 54b3 b9bd
00000190: aa4b a03d 714e ca3c 5e7e 953d 6d27 f03d
000001a0: 094c 6e3d 6a45 ddbc 89d7 cb3d e3f8 813c
000001b0: 72c8 af3d 6ee7 e8bd 2b7c 71bd 2889 0dbc
000001c0: e312 ec3c eb07 113c d8c7 91bd 7f29 cfbd
000001d0: 3adc a5bc 48ea 223e b383 373c ea25 353d
000001e0: b084 5cbd 79f7 fdbc c6ab 943d b376 2fbd
000001f0: 7dda a1bd 6388 e4bc 387a 3dbc 7b32 123e
00000200: 89a5 8dbc 21e2 b2bd 4ae4 48bd 7be0 babd
00000210: 0797 dc3d ac15 053d 07e1 4abd fca4 e73a
00000220: 086a 233d a9ae f03d 9c5f 163c e684 7e3d
00000230: 33bc c93d 635d 42bd 944a 783c 9623 ad3d
00000240: 7332 85bd 8f77 8ebd 7c29 85bb a098 a63a
00000250: a3df a03d f0d5 70bd 7e91 b73d b650 9b3d
00000260: 7246 183d 0a80 3d3d 1051 383d f16c 213d
00000270: 90f9 e1bd 1802 c23d e88e c93c b9fd 86bd
00000280: 414e 7a3d 740f 8cbd 438f 1cbd 822b 563d
00000290: d09d cc3d 8080 f6bd d3a0 f1bd 3a79 3abd
000002a0: 3062 bdbd b833 4dbd 9e23 c33d 5df7 373c
000002b0: 7c33 e7bc 49d8 5b3d 2984 82bd 3644 d1bd
000002c0: 9bb8 dfbd cd9d 0fbd 269a b73d 415d b33c
000002d0: 8562 bb3d 392e 88bd 54c8 d1bd 674d 16bd
000002e0: e4bf 77bd d69a c3bd a39a ffbc fe03 00bd
000002f0: a1aa 8c3d 75e4 92bd 74de c43c 9bf8 11bd
00000300: 3f1a a63c d450 f33d ef7b 243e 1f2c e93d
00000310: 0e6f 00bd de1a 6d3d acaa ae3c f419 fb3c
00000320: 3c8e 86bd 0594 1a3e b263 55bd a7fb dcbd
00000330: 2fea 00bd 4fad a63d 4074 a2bc eac6 3f3c
00000340: 9999 303d f3d0 d43d 6a2d b53d 880a b0bd
00000350: 5a18 653c bf57 c6bd 8c8f ae3c c200 073e
00000360: 3932 013e f34a 063e 0a99 f43d 01ae b53d
00000370: 1c08 093e 18c8 de3d 4c52 613d 98d9 e93d
00000380: 9f5b 70bd ea2a 6fbd 70a1 86bd be4a d7bc
00000390: e5e3 36bd 16c6 3e3d 4ace d5bd 4e90 943c
000003a0: af19 d53d b314 dd3d 415a 12bd 0af1 a83c
000003b0: 8fc4 dc3d 4bca f5bd b487 cd3d aee0 eb3c
000003c0: 0368 9b3c e5e6 ecbc 7d7f 42bc c50d 5c3c
000003d0: 0547 34bd 5206 cb3d 1884 0dbd b8f5 6d3d
000003e0: b4f5 0b3d b8f3 92bc 73b4 b53c 9e59 adbd
000003f0: 2424 c0bd c8d1 493d 913d 4d3d 7da3 253e

lstm.bias_hh_l0 f4 [256]
0.047256608 0.044640835 0.08914501 0.047858622 -0.013168952 0.011571062 -0.09664544 0.06345365
0.050659962 -0.0037379207 -0.052841764 -0.006457705 -0.062746935 0.011631909 -0.041233633 0.09453675
0.078065746 -0.011286468 0.09850678 -0.04410228 0.1464962 0.07477204 0.10214228 0.14217259
0.15077332 -0.10550433 -0.08517696 0.055587485 -0.06582489 0.10650775 -0.09909584 0.1120355
-0.0820548 -0.05594556 -0.06324691 -0.004859929 -0.08066499 0.03480685 0.07036218 -0.046348367
-0.05109899 0.05411206 -0.08643313 0.024116423 -0.004993402 -0.106731385 -0.08581376 0.023667019
-0.014819455 -0.08281733 0.020050716 0.023012485 0.1117202 -0.015766172 -0.018026166 -0.067640014
0.045731753 -0.013185074 -0.0723268 0.12258045 -0.053121015 0.15977192 0.06803541 0.03899472
-0.057403293 0.08870142 -0.052960943 0.10621596 0.040880892 0.103602685 0.13590255 -0.0023046131
0.06627129 0.015375697 0.07486971 0.027924163 -0.018259212 -0.041463345 -0.058544368 -0.06289003
-0.012985945 -0.037347883 0.1441602 0.032243114 -0.05390891 -0.024611369 -0.06201253 0.06388016
0.084552966 -0.0860903 0.037873335 -0.08478478 -0.0144186 -0.04388974 0.04016412 0.067450084
-0.056568455 -0.076795414 -0.022858188 0.12318008 -0.09412104 0.058454737 0.10450677 0.1220315
0.13851076 -0.052042346 0.064126484 0.07655713 0.05400393 -0.09140949 0.033436213 0.036965862
-0.0854721 0.0114806965 0.11229125 -0.057031937 -0.0392353 0.05600198 -0.08717929 -0.052228868
-0.079071775 -0.06105882 -0.09281931 -0.003954872 0.016445385 0.02675658 0.10673017 0.056840837
0.015125913 -0.10043769 -0.07792652 -0.047767006 -0.0091296965 0.11855048 -0.086395755 0.034433197
0.033087794 -0.041346263 -0.10078292 -0.109094016 0.005411447 0.025721552 -0.101971924 0.08963254
0.11872619 -0.0071138036 0.047158577 -0.003860611 -0.04474813 -0.08292635 0.06633105 -0.0066069146
-0.08580148 -0.101241134 -0.056986194 0.10024867 -0.08916191 -0.06669551 -0.069668375 0.010886759
0.05073224 -0.027527858 0.07096075 0.026078451 0.0149857225 0.06818616 -0.02921765 0.11798898
-0.081072025 -0.10692914 0.06746508 -0.016710812 -0.06889732 0.0038872408 -0.028183632 -0.035233885
0.042606857 -0.07925538 -0.09964327 0.07856616 -0.051754892 -0.0044230465 -0.0654527 -0.0010283977
-0.069191195 -0.0016179234 0.053015705 0.10176265 -0.0011918545 -0.038745493 -0.020956954 0.08778294
0.09864142 -0.04048376 0.08823072 -0.031209407 0.039802663 -0.09304684 0.061976373 -0.070653304
0.11286617 0.086258404 -0.03454685 -0.09961299 0.02433371 0.03946854 -0.06312679 0.091356896
0.12025249 0.050839007 0.15961401 0.08277035 0.07863775 -0.07737829 0.04174448 -0.015526894
-0.08303193 0.11570992 -0.06251107 0.04436529 -0.071912706 -0.09555166 -0.06899691 0.10728739
0.03971473 -0.030303 -0.059736192 0.08043343 -0.023434883 0.08145308 -0.011235511 -0.013160938
-0.08569668 0.040142205 0.007109425 -0.102108814 -0.018575449 0.101917624 0.13804345 0.11428741
0.12249692 -0.08217662 0.040140536 0.0026202884 0.080981754 0.015427301 -0.044101506 -0.032719262
-0.071510516 0.022490297 -0.050182663 -0.03975858 0.099690236 -0.08335038 0.1132887 -0.030398251
00000000: 2590 413d 4fd9 363d a991 b63d 6707 443d
00000010: 97c2 57bc 8d94 3d3c 0bee c5bd fdf3 813d
00000020: d280 4f3d e7f7 74bb 9b70 58bd 289b d3bb
00000030: 7781 80bd c393 3e3c 99e4 28bd 7c9c c13d
00000040: efe0 9f3d e1ea 38bc ecbd c93d 98a4 34bd
00000050: 1a03 163e 1522 993d f92f d13d b195 113e
00000060: 5264 1a3e a712 d8bd 4271 aebd b4af 633d
00000070: 33cf 86bd bc20 da3d c2f2 cabd de72 e53d
00000080: 590c a8bd 2c27 65bd 9987 81bd 0a40 9fbb
00000090: b033 a5bd a191 0e3d 0c1a 903d c9d7 3dbd
000000a0: 2d4d 51bd 9ca4 5d3d da03 b1bd ce8f c53c
000000b0: b19f a3bb fc95 dabd 20bf afbd 56e1 c13c
000000c0: 4dcd 72bc 229c a9bd 6641 a43c ae84 bc3c
000000d0: 8fcd e43d 0f28 81bc 9cab 93bc d986 8abd
000000e0: 3851 3b3d 3506 58bc 1320 94bd 750b fb3d
000000f0: 6c95 59bd 409b 233e 2656 8b3d edb8 1f3d
00000100: b71f 6bbd 17a9 b53d 93ed 58bd c187 d93d
00000110: b972 273d a52d d43d 0a2a 0b3e fe08 17bb
00000120: 3eb9 873d 59ea 7b3c 4a55 993d 37c1 e43c
00000130: 5894 95bc 78d5 29bd 38cc 6fbd 7dcc 80bd
00000140: 00c3 54bc 18fa 18bd bb9e 133e 5b11 043d
00000150: 97cf 5cbd c89d c9bc da00 7ebd 9ad3 823d
00000160: 1b2a ad3d 1c50 b0bd 1221 1b3d a5a3 adbd
00000170: fe3b 6cbc bac5 33bd 2283 243d 4523 8a3d
00000180: 53b4 67bd ea46 9dbd 1841 bbbc d645 fc3d
00000190: 88c2 c0bd 3c6e 6f3d a507 d63d a7eb f93d
000001a0: c4d5 0d3e 5b2a 55bd bf54 833d fcc9 9c3d
000001b0: 3a33 5d3d e634 bbbd 69f4 083d 8469 173d
000001c0: ff0b afbd 8819 3c3c f4f8 e53d 529a 69bd
000001d0: 32b5 20bd 5562 653d 0e8b b2bd f0ed 55bd
000001e0: 62f0 a1bd d018 7abd 0d18 bebd df97 81bb
000001f0: 79b8 863c 9e30 db3c 5995 da3d f0d1 683d
00000200: add2 773c 47b2 cdbd f097 9fbd 56a7 43bd
00000210: b994 15bc 98ca f23d 42f0 b0bd d309 0d3d
00000220: 1187 073d b35a 29bd 4767 cebd af6c dfbd
00000230: 8252 b13b 01b6 d23c a8d6 d0bd 4491 b73d
00000240: b726 f33d e91a e9bb 5a29 413d 4e02 7dbb
00000250: d149 37bd 4ad5 a9bd 93d8 873d d17e d8bb
00000260: b0b8 afbd 8357 cfbd 5b6a 69bd 2d4f cd3d
00000270: 859a b6bd a897 88bd 4bae 8ebd 605e 323c
00000280: 9ccc 4f3d 1a82 e1bc df53 913d 7aa2 d53c
00000290: ad86 753c 2fa5 8b3d da59 efbc 35a4 f13d
000002a0: 1709 a6bd aafd dabd 222b 8a3d 1de5 88bc
000002b0: 0a1a 8dbd 14c1 7e3b 5ce1 e6bc 6851 10bd
000002c0: 8784 2e3d a550 a2bd c511 ccbd 4be7 a03d
000002d0: f0fc 53bd 34ef 90bb 110c 86bd 4dcb 86ba
000002e0: 1db4 8dbd 8010 d4ba ff26 593d f068 d03d
000002f0: 0038 9cba 98b3 1ebd ebad abbc 8bc7 b33d
00000300: 8304 ca3d 4dd2 25bd 4fb2 b43d dfaa ffbc
00000310: 1e08 233d 578f bebd f0da 7d3d aeb2 90bd
00000320: 6126 e73d 3fa8 b03d ff80 0dbd e501 ccbd
00000330: 7d57 c73c c4a9 213d 9e48 81bd 5319 bb3d
00000340: f046 f63d 903c 503d db71 233e 8083 a93d
00000350: d40c a13d 8278 9ebd 43fc 2a3d 8364 7ebc
00000360: a50c aabd 53f9 ec3d ce05 80bd 61b8 353d
00000370: f846 93bd 97b0 c3bd 404e 8dbd 7eb9 db3d
00000380: eaab 223d ff3d f8bc f0ad 74bd 48ba a43d
00000390: 83fa bfbc dfd0 a63d 2615 38bc faa0 57bc
000003a0: be81 afbd 276c 243d 2ef6 e83b 6d1e d1bd
000003b0: 8a2b 98bc 30ba d03d 435b 0d3e 850f ea3d
000003c0: aadf fa3d 374c a8bd 676a 243d 25b9 2b3b
000003d0: c3d9 a53d cac2 7c3c c8a3 34bd a204 06bd
000003e0: 1b74 92bd 923d b83c 568c 4dbd e5d9 22bd
000003f0: 652a cc3d 9bb3 aabd e803 e83d c105 f9bc

lstm.weight_ih_l1 f4 [256, 64]
-0.14996363 -0.13117282 0.14378528 0.011280842 0.07630431 -0.0053740665 0.009002142 0.03897785
0.08876488 0.14455022 -0.08223873 -0.031027472 -0.013021029 0.07031145 0.0076064123 -0.09420954
-0.008434081 -0.0792755 -0.062503956 0.080715984 0.076294824 0.09895255 0.14645302 -0.020150524
-0.023791602 -0.033230837 0.08781267 0.0665667 0.009330257 -0.03672378 -0.017813338 0.04453749
0.11164693 -0.025041549 -0.04437054 0.09512319 -0.11111664 0.081884466 -0.010178617 0.03928049
0.02469967 -0.088331066 0.08035712 -0.012684616 0.10558092 -0.024012523 0.047140136 0.082835555
-0.14353602 -0.089920476 -0.13838682 0.10461804 0.057052337 -0.069313705 -0.046625994 -0.11270306
-0.074380614 -0.12743686 0.09074789 -0.110311955 0.038321726 0.067033626 0.093957335 -0.08562411
-0.07777356 0.056362864 -0.0882836 0.061181642 -0.038813848 -0.032051705 -0.0066761663 -0.089789115
0.010846434 0.08681931 -0.079907686 0.07327014 0.0207073 0.042298917 0.11293034 0.07853365
0.07356499 -0.0697557 -0.0886693 -0.075214684 -0.037276823 0.072069034 -0.0693822 -0.09697378
0.13574104 -0.046491746 -0.02989594 -0.047647726 -0.104975805 -0.06195926 -0.14169672 0.01711733
0.12144547 -0.10811347 -0.13640445 -0.0062324 0.055941842 0.054955054 0.07122194 0.098417126
-0.07158961 0.04961943 0.0716717 -0.10305835 0.08001954 0.119900666 0.018420698 -0.025610669
0.030867347 0.012140414 -0.0127183795 -0.08148846 -0.063713156 0.0018734932 -0.05549969 0.12265751
0.083521925 -0.0715031 -0.06307715 -0.052265454 -0.109566025 -0.011541064 0.017112173 -0.124463946
0.1179508 0.06676015 0.073131174 0.076363266 0.00384354 0.1402833 -0.07094713 -0.10935815
-0.08416433 0.1129139 0.053555973 0.09188589 -0.038790103 -0.055577535 -0.057246275 0.11708013
-0.0734501 -0.09615267 -0.09022091 0.10582728 -0.07382022 -0.017180514 -0.09235341 -0.03176892
0.02389434 0.11245467 -0.10507067 0.06848621 -0.037535824 0.0026497373 -0.06809333 0.06315705
0.1310611 -0.053571515 -0.036319394 0.09241029 0.055708773 0.0031956774 -0.014169031 0.100444265
0.10405092 -0.074951574 0.088543616 -0.07554709 -0.06919978 -0.02964121 -0.099598005 -0.018687148
0.04576673 -0.12032254 -0.08909927 -0.121944524 0.048130676 -0.0059641213 -0.11254825 0.07428445
-0.02354337 -0.015036416 0.061732043 -0.01283583 0.06329898 -0.097964756 0.007337952 -0.055581216
-0.12585558 0.036350533 -0.046343964 -0.0014518747 0.11618953 -0.11383557 -0.1100939 -0.106296875
0.0548679 0.039916072 -0.081620716 -0.069460995 -0.10784875 0.028835492 0.0057000653 0.11867093
0.090649195 -0.11804767 -0.051651996 -0.08021644 -0.13998504 -0.10567288 -0.034574013 0.048751783
-0.06324308 0.12278751 -0.06743731 -0.081360586 0.06196748 0.13277782 -0.026254557 0.031695396
-0.09569668 -0.044260696 -0.060412753 0.11639243 -0.0086887395 -0.09343535 0.073870756 -0.090477295
0.06594846 0.050124794 -0.056696694 -0.11493998 0.0032486925 -0.056157675 0.09593815 -0.10365475
0.09385415 0.0073533645 0.10658773 -0.057730712 -0.067557074 0.09465062 0.06404473 -0.026036536
0.023415038 -0.0012720369 -0.092792585 0.09533485 -0.06713799 0.02634354 -0.05622024 -0.1004699
00000000: 1190 19be 2b52 06be 733c 133e 48d3 383c
00000010: 6f45 9c3d f018 b0bb b87d 133c 3da7 1f3d
00000020: 5dca b53d f904 143e c76c a8bd 532d febc
00000030: 2756 55bc 73ff 8f3d 363f f93b eef0 c0bd
00000040: 1a2f 0abc 315b a2bd 1302 80bd 6c4e a53d
00000050: 7640 9c3d a2a7 ca3d c8f7 153e b612 a5bc
00000060: 9be6 c2bc 0f1d 08bd 21d7 b33d 1f54 883d
00000070: efdd 183c ad6b 16bd 47ed 91bc f16c 363d
00000080: 25a7 e43d ef23 cdbc e2bd 35bd f2cf c23d
00000090: 1f91 e3bd 0bb3 a73d 37c4 26bc 94e4 203d
000000a0: f656 ca3c ebe6 b4bd 4692 a43d 23d3 4fbc
000000b0: cf3a d83d e9b5 c4bc 0416 413d b0a5 a93d
000000c0: 1bfb 12be 3a28 b8bd 46b5 0dbe fc41 d63d
000000d0: b6af 693d 58f4 8dbd e6fa 3ebd ddd0 e6bd
000000e0: dd54 98bd cf7e 02be 08da b93d 3ceb e1bd
000000f0: 3ef7 1c3d ed48 893d b46c c03d b25b afbd
00000100: bf47 9fbd bfdc 663d 08ce b4bd 9a99 7a3d
00000110: 45fb 1ebd a648 03bd bec3 dabb 5be3 b7bd
00000120: 3eb5 313c 53ce b13d a4a6 a3bd a80e 963d
00000130: 5ba2 a93c a141 2d3d 0648 e73d 40d6 a03d
00000140: 3ea9 963d 14dc 8ebd 4098 b5bd 280a 9abd
00000150: 95af 18bd ee98 933d 4118 8ebd 309a c6bd
00000160: b3ff 0a3e 216e 3ebd 55e8 f4bc 432a 43bd
00000170: 8efd d6bd fec8 7dbd f218 11be a539 8c3c
00000180: 67b8 f83d 986a ddbd 9cad 0bbe 2939 ccbb
00000190: 4623 653d 8d18 613d cfdc 913d eb8e c93d
000001a0: 939d 92bd be3d 4b3d 9dc8 923d 4210 d3bd
000001b0: 49e1 a33d 7b8e f53d 01e7 963c 77cd d1bc
000001c0: 85dd fc3c 96e8 463c c060 50bc 6ce3 a6bd
000001d0: 0b7c 82bd 0090 f53a a553 63bd dc33 fb3d
000001e0: 8b0d ab3d 3870 92bd 982e 81bd 4d14 56bd
000001f0: 2764 e0bd bb16 3dbc d42e 8c3c f4e6 febd
00000200: 3090 f13d 8cb9 883d ccc5 953d 5864 9c3d
00000210: e7e3 7b3b 6da6 0f3e bb4c 91bd 2af7 dfbd
00000220: 595e acbd 673f e73d 825d 5b3d ab2e bc3d
00000230: 5fe2 1ebd 45a5 63bd 127b 6abd b5c7 ef3d
00000240: 026d 96bd b1eb c4bd bec5 b8bd f9bb d83d
00000250: 0e2f 97bd 26be 8cbc c923 bdbd 2120 02bd
00000260: 10be c33c a24e e63d 4b2f d7bd 8042 8c3d
00000270: 2abf 19bd 37a7 2d3b 8474 8bbd 7c58 813d
00000280: e234 063e ce6d 5bbd a5c3 14bd 9b41 bd3d
00000290: e22e 643d 926e 513b 3925 68bc b9b5 cd3d
000002a0: a618 d53d 3680 99bd 5b56 b53d 6fb8 9abd
000002b0: 9db8 8dbd 1fd2 f2bc 0afa cbbd ca15 99bc
000002c0: e575 3b3d aa6b f6bd ae79 b6bd 0dbe f9bd
000002d0: ac24 453d ad6e c3bb b27f e6bd 7222 983d
000002e0: 07de c0bc 4d5b 76bc bdda 7c3d 604d 52bc
000002f0: e5a2 813d bfa1 c8bd 3473 f03b 21a9 63bd
00000300: 49e0 00be 4ce4 143d 2bd3 3dbd d54c beba
00000310: c7f4 ed3d a022 e9bd e978 e1bd 2db2 d9bd
00000320: 2abd 603d 097f 233d c328 a7bd 9141 8ebd
00000330: cedf dcbd 6938 ec3c 9dc7 ba3b bf09 f33d
00000340: 49a6 b93d fac2 f1bd 0b91 53bd 8448 a4bd
00000350: 3d58 0fbe 066b d8bd 7b9d 0dbd f3af 473d
00000360: 9785 81bd 0578 fb3d 931c 8abd 61a0 a6bd
00000370: 9dd1 7d3d e9f6 073e cc13 d7bc 08d3 013d
00000380: 9ffc c3bd b44a 35bd 5d73 77bd 285f ee3d
00000390: 375b 0ebc 085b bfbd 8d49 973d 294c b9bd
000003a0: fc0f 873d a84f 4d3d cb3a 68bd a765 ebbd
000003b0: 04e8 543b 9705 66bd 397b c43d f148 d4bd
000003c0: 9b36 c03d 7ef4 f03b ab4a da3d 0a77 6cbd
000003d0: 5d5b 8abd 2fd8 c13d e229 833d 934a d5bc
000003e0: e5d0 bf3c 7aba a6ba 0a0a bebd eb3e c33d
000003f0: a47f 89bd 68ce d73c 3247 66bd 2ac3 cdbd

lstm.weight_hh_l1 f4 [256, 64]
0.070472516 -0.051783055 -0.074730515 0.112102844 -0.062952824 0.064799316 0.128488 0.10418027
0.069652036 -0.026271228 -0.011838903 -0.0727052 0.016591044 0.033000674 -0.08484916 0.053819597
0.06952521 0.018833121 -0.0674907 -0.024568414 0.032708537 -0.032034114 -0.12511894 0.09869387
-0.0076796897 0.07473334 -0.12795559 0.085036166 0.06058212 0.058762625 0.023210412 -0.06990616
-0.122939765 -0.029697508 -0.09186789 -0.012139644 0.08297352 0.112458624 0.011963929 -0.0053874766
-0.066859715 -0.0061629587 -0.094082125 -0.054780234 -0.11217174 -0.062705204 0.062168192 -0.06758324
0.06467472 0.08619565 0.060907014 0.06933607 -0.116028726 0.03049212 -0.10384061 0.018425606
0.055245608 0.09164651 -0.009947772 0.029454345 0.009980004 -0.12092349 -0.04767748 -0.050931387
0.13485575 0.09026148 -0.027755503 0.09617372 0.1310538 0.10022173 -0.10237713 -0.06758938
-0.08923426 0.09174662 0.07025108 -0.029657118 -0.012537585 0.043354254 -0.14030471 -0.090444855
-0.13114433 0.06412791 0.091944344 0.03094258 0.11001094 -0.0963067 -0.05077221 0.09938857
0.122167565 0.038943853 0.051928855 -0.043420665 0.03368126 -0.057112694 0.0039444505 0.008978858
0.017232293 -0.04656663 0.05137806 0.015755927 0.032297768 0.007697271 -0.12238348 -0.006309733
0.028348392 -0.04764381 0.04627504 0.06113096 0.12077818 0.13279073 -0.07982743 -0.10555862
-0.11053421 0.052129526 -0.09681382 0.04316331 0.012238519 0.061320998 -0.11643072 -0.05881374
-0.1193229 -0.17183746 -0.026171658 -0.053731795 0.062137157 -0.0323412 -0.04249425 -0.08890373
0.015549715 0.04922946 -0.10251331 -0.011408535 -0.04483533 0.09634574 -0.029668171 -0.061167832
-0.010958333 0.11337431 -0.10929677 -0.110525265 0.10761981 -0.076856725 -0.104671225 -0.046266895
0.015520118 -0.005222075 0.022025371 0.06514796 -0.03463962 0.07704238 -0.13428706 -0.07696318
0.032025993 0.07828576 0.054999575 -0.09678495 0.043690313 0.013255924 0.004089266 0.09281741
-0.020480571 -0.0992978 -0.067485675 0.07951318 -0.0054957923 -0.093608655 0.013761372 -0.09461157
0.111648574 0.011555995 -0.09492717 -0.078652315 -0.025837494 0.13565306 -0.018726347 -0.10942681
0.08538681 0.09977961 0.03203771 -0.013388189 0.09767366 0.063567705 -0.077577025 0.05574036
0.089857206 0.039626244 0.059864026 -0.07838804 0.028265698 -0.045104858 0.076321326 0.07627384
-0.09721877 -0.03284459 0.09802997 0.014757494 -0.1406338 0.097308755 0.03333317 0.13599224
-0.022250846 -0.053665113 0.10364255 -0.022604875 0.0702376 0.1326791 0.049385935 0.10070291
-0.02843471 -0.11245625 -0.09460735 -0.13199049 0.010774148 -0.019863583 -0.13564913 0.038088292
0.09227625 -0.030196356 0.041032705 0.09404178 -0.019982655 0.018674444 0.0057222126 -0.0919195
0.050944563 0.03283678 0.025630472 -0.027604299 0.035439223 0.09009367 -0.06319381 0.025303544
0.095215514 0.11749449 -0.07926516 -0.02705382 -0.061056696 0.03954334 -0.02755596 -0.0712939
-0.0880941 0.07050634 0.068322465 -0.042825043 0.0038202507 0.08773732 0.120313846 -0.11439496
0.009524344 -0.049450755 -0.069545716 0.10833648 -0.11454184 -0.07318095 -0.023059335 0.12588122
00000000: e553 903d 781a 54bd 500c 99bd 2d96 e53d
00000010: 69ed 80bd 81b5 843d 5c92 033e 775c d53d
00000020: baa5 8e3d c236 d7bc f5f7 41bc 77e6 94bd
00000030: f1e9 873c b72b 073d 65c5 adbd f071 5c3d
00000040: 3c63 8e3d eb47 9a3c 9038 8abd b343 c9bc
00000050: 63f9 053d 3436 03bd 2e1f 00be 0320 ca3d
00000060: e8a5 fbbb cb0d 993d ca06 03be 7127 ae3d
00000070: f524 783d 14b1 703d c323 be3c f62a 8fbd
00000080: d8c7 fbbd 3048 f3bc 3b25 bcbd 5be5 46bc
00000090: 05ee a93d b550 e63d 5b04 443c 6e89 b0bb
000000a0: bfed 88bd a5f2 c9bb 21ae c0bd 3d61 60bd
000000b0: 4cba e5bd 966b 80bd 13a4 7e3d 1569 8abd
000000c0: 2e74 843d 5887 b03d a279 793d 1200 8e3d
000000d0: 78a0 edbd 9cca f93c 63aa d4bd 4cf1 963c
000000e0: 3849 623d 2ab1 bb3d fbfb 22bc 3d4a f13c
000000f0: 2c83 233c bca6 f7bd 7649 43bd 6e9d 50bd
00000100: a017 0a3e 03db b83d 825f e3bc baf6 c43d
00000110: f832 063e 0d41 cd3d 1aab d1bd 4d6c 8abd
00000120: 74c0 b6bd a7e5 bb3d ccdf 8f3d 7cf3 f2bc
00000130: 716a 4dbc 3b94 313d 0aac 0fbe 273b b9bd
00000140: b34a 06be 7e55 833d 514d bc3d 4b7b fd3c
00000150: 6a4d e13d 723c c5bd 85f6 4fbd 3c8c cb3d
00000160: fd32 fa3d 9783 1f3d 5ab3 543d ded9 31bd
00000170: 5cf5 093d 00ef 69bd 7340 813b 0f1c 133c
00000180: bd2a 8d3c a7bc 3ebd cd71 523d 9312 813c
00000190: aa4a 043d 6439 fc3b 31a4 fabd e0c1 cebb
000001a0: e33a e83c 2826 43bd e58a 3d3d 7564 7a3d
000001b0: 8d5a f73d 4bfa 073e 907c a3bd 1e2f d8bd
000001c0: c35f e2bd c585 553d 5346 c6bd 03cc 303d
000001d0: 1284 483c ba2b 7b3d 3b73 eebd ade6 70bd
000001e0: 915f f4bd 29f6 2fbe f265 d6bc df15 5cbd
000001f0: 8883 7e3d 3578 04bd 730e 2ebd 2913 b6bd
00000200: 3bc4 7e3c d5a4 493d 80f2 d1bd ddea 3abc
00000210: 40a5 37bd ea50 c53d aa0a f3bc 1f8b 7abd
00000220: 948a 33bc ca30 e83d fcd6 dfbd 125b e2bd
00000230: c667 dc3d 0f67 9dbd de5d d6bd 5b82 3dbd
00000240: 1848 7e3c f11d abbb 8d6e b43c 4b6c 853d
00000250: 46e2 0dbd 65c8 9d3d 8c82 09be df9e 9dbd
00000260: b02d 033d 4954 a03d 3c47 613d 3037 c6bd
00000270: 9df4 323d 602f 593c 40ff 853b 0e17 be3d
00000280: dfc6 a7bc a55c cbbd ee35 8abd ced7 a23d
00000290: 0c16 b4bb e5b5 bfbd 6177 613c b6c3 c1bd
000002a0: 02a8 e43d 5b55 3d3c 2d69 c2bd 7714 a1bd
000002b0: 27a9 d3bc a3e8 0a3e ff67 99bc 2a1b e0bd
000002c0: 48df ae3d 4159 cc3d f939 033d 225a 5bbc
000002d0: 2109 c83d c92f 823d b4e0 9ebd 0150 643d
000002e0: 0e07 b83d 214f 223d fb33 753d e989 a0bd
000002f0: 778d e73c dfbf 38bd 5b4e 9c3d 7635 9c3d
00000300: a21a c7bd 0c88 06bd f0c3 c83d 6bc9 713c
00000310: 4f02 10be d049 c73d 5d88 083d 8d41 0b3e
00000320: 6847 b6bc f3cf 5bbd 8c42 d43d dc2d b9bc
00000330: bbd8 8f3d 08dd 073e e848 4a3d 543d ce3d
00000340: e9ef e8bc 764f e6bd 80c1 c1bd 8428 07be
00000350: 0d86 303c f4b8 a2bc 9be7 0abe 7802 1c3d
00000360: 55fb bc3d 595e f7bc e911 283d fa98 c03d
00000370: aab2 a3bc 26fb 983c 6681 bb3b 4a40 bcbd
00000380: 3fab 503d dc7f 063d fff6 d13c 6922 e2bc
00000390: b828 113d 0883 b83d c26b 81bd 6149 cf3c
000003a0: 5a00 c33d f4a0 f03d c655 a2bd f99f ddbc
000003b0: 9616 7abd 33f8 213d 09bd e1bc 8902 92bd
000003c0: ae6a b4bd a165 903d a6ec 8b3d 5069 2fbd
000003d0: 2c5d 7a3b a0af b33d 1b67 f63d e847 eabd
000003e0: fe0b 1c3c e08c 4abd fc6d 8ebd 84df dd3d
000003f0: ea94 eabd e5df 95bd eee6 bcbc 02e7 003e

lstm.bias_ih_l1 f4 [256]
0.023895869 -0.06396826 0.0004916073 0.031975873 0.110484324 -0.0546031 0.051539455 0.11022436
0.07026309 -0.009891856 -0.08367623 0.14515829 0.10161339 -0.0153245805 0.056222625 -0.018741593
0.086239316 -0.038644962 -0.03229017 0.059235565 0.102363184 -0.036883116 0.03496451 -0.016763246
0.031780887 0.12393912 0.09200092 0.0963844 -0.019164188 -0.021331094 -0.0007311948 0.13461585
-0.10464346 0.022504799 0.027243905 0.06818975 0.07732315 -0.07043185 -0.10089695 0.054242264
0.058656435 -0.0945021 0.112104535 -0.0712531 -0.0012371833 -0.09305745 0.009361778 0.043232154
0.13597229 0.081712976 -0.06639554 -0.012745271 -0.09319707 0.049994662 -0.033665292 -0.08266077
-0.002845827 0.016557805 -0.0044555445 0.07542932 0.0096062 -0.0890308 -0.07428209 0.019327113
-0.086718015 -0.08693773 -0.11525378 0.034077983 -0.028847456 0.12235155 0.111907475 -0.11376344
-0.037113834 0.0928256 0.06916017 0.04144946 -0.08226927 0.10502073 0.10563431 0.036668357
0.06429111 -0.040866565 0.003812491 0.024243513 -0.010941753 0.043084778 -0.008437764 0.07570083
0.06665884 -0.06551145 -0.031905524 0.016646136 -0.033463538 0.07662001 0.0016800283 0.10896007
-0.06522247 -0.045483314 0.07478519 -0.10480744 0.028336463 -0.13451986 -0.0716711 -0.030839449
-0.03284273 0.10359095 0.027692826 -0.074595146 0.06229568 0.03143115 -0.090175346 0.010544547
0.10413275 -0.021348929 0.1059545 -0.0026147636 -0.06134408 -0.055782128 -0.0749196 -0.12047091
0.024469655 0.113143675 0.067858204 -0.058539007 0.055569716 -0.053053368 -0.0017479644 0.006452188
0.038164016 -0.030772967 -0.087405644 0.12178265 0.035028674 -0.12226535 0.09543676 -0.047715135
0.019130306 -0.10743905 0.055176716 0.06352728 -0.006280887 0.09911848 -0.08825762 -0.028477622
-0.007249186 -0.061867148 -0.0023939223 0.08814306 0.012704634 -0.11691094 -0.027541798 -0.05389494
0.046070166 0.089970574 -0.09685168 -0.003443213 0.022752507 0.02851718 -0.015482306 -0.025150916
-0.0061003016 0.026528334 0.061862744 0.10972466 0.05940734 0.038638733 -0.10496228 -0.086459905
0.076033615 0.05863003 0.058089886 0.11974556 0.050689746 0.09687827 -0.041957084 -0.04986761
0.04327025 0.051777057 0.01138076 -0.016843656 -0.017427428 -0.06639 -0.029922657 -0.06984779
-0.04265196 0.08213438 -0.07663222 -0.0066667083 -0.07832542 -0.0817605 -0.11548416 0.12443352
0.017872004 0.01722233 0.08561409 0.12735443 -0.107521966 -0.091592446 0.06595088 0.07895605
0.12434284 0.05759476 0.059760254 -0.004164956 0.07284511 -0.07963539 0.057240836 -0.043269895
0.030922577 -0.09690191 0.122778624 -0.05681379 -0.033023845 -0.046195023 -0.017627934 -0.041484322
-0.08273635 0.051335525 0.060839053 0.026288064 0.051879328 -0.08112287 -0.057836767 -0.07488954
-0.05580136 -0.046141695 0.116973266 -0.0020475744 0.064673394 -0.13627237 0.05190435 -0.027572505
-0.028688513 -0.07741515 -0.007232555 0.042678997 -0.021703843 -0.02136104 0.034148052 -0.08661253
-0.07405785 0.0015513928 0.055302255 0.09804702 -0.022248797 -0.02747804 0.08839859 -0.11510943
0.08888111 0.14083178 0.07232099 0.015453597 0.11643385 -0.07636687 -0.043438196 0.019858655
00000000: 45c1 c33c cb01 83bd 35df 003a 22f9 023d
00000010: 9b45 e23d 80a7 5fbd 091b 533d 4fbd e13d
00000020: 18e6 8f3d 7411 22bc 715e abbd 60a4 143e
00000030: ae1a d03d f313 7bbc b249 663d f887 99bc
00000040: 3d9e b03d 2e4a 1ebd b342 04bd fea0 723d
00000050: caa3 d13d c012 17bd f236 0f3d 1353 89bc
00000060: ad2c 023d cbd3 fd3d fa6a bc3d 2f65 c53d
00000070: 37fe 9cbc 8cbe aebc a7ad 3fba bdd8 093e
00000080: 4f4f d6bd fc5b b83c 9c2e df3c 11a7 8b3d
00000090: 9a5b 9e3d 933e 90bd 0fa3 cebd 232d 5e3d
000000a0: bb41 703d 518a c1bd 1097 e53d 25ed 91bd
000000b0: fc28 a2ba e894 bebd 2562 193c 3314 313d
000000c0: 523c 0b3e 2259 a73d 63fa 87bd 8bd1 50bc
000000d0: 1bde bebd 34c7 4c3d 9ee4 09bd 0d4a a9bd
000000e0: 0e81 3abb 3ca4 873c d1ff 91bb b07a 9a3d
000000f0: 5363 1d3c c855 b6bd 3521 98bd e553 9e3c
00000100: 3799 b1bd 690c b2bd 2c0a ecbd 5b95 0b3d
00000110: 8051 ecbc 7393 fa3d bf2f e53d cefc e8bd
00000120: ad04 18bd 591b be3d d9a3 8d3d e9c6 293d
00000130: cb7c a8bd 1c15 d73d cd56 d83d 8f31 163d
00000140: 0fab 833d b363 27bd fcda 793b 559a c63c
00000150: 0a45 33bc aa79 303d 8c3e 0abc 0909 9b3d
00000160: 6e84 883d de2a 86bd 5eaf 02bd 7a5d 883c
00000170: 1011 09bd f4ea 9c3d 6534 dc3a 7526 df3d
00000180: 5c93 85bd b64c 3abd fa28 993d 48a5 d6bd
00000190: df21 e83c 93bf 09be 4cc8 92bd 03a3 fcbc
000001a0: 1986 06bd 7e27 d43d 11dc e23c 57c5 98bd
000001b0: c129 7f3d f3bd 003d daad b8bd 09c3 2c3c
000001c0: 8d43 d53d f3e3 aebc acfe d83d 745c 2bbb
000001d0: ee43 7bbd cd7b 64bd 726f 99bd 74b9 f6bd
000001e0: 9674 c83c dfb7 e73d 3ef9 8a3d 99c6 6fbd
000001f0: 129d 633d 7d4e 59bd f41b e5ba e06c d33b
00000200: df51 1c3d 9717 fcbc bb01 b3bd 2f69 f93d
00000210: 3a7a 0f3d 4166 fabd 5974 c33d f270 43bd
00000220: 29b7 9c3c 0109 dcbd fb00 623d 971a 823d
00000230: e6cf cdbb a1fe ca3d 69c0 b4bd e749 e9bc
00000240: 948a edbb 6868 7dbd 5ae3 1cbb 5984 b43d
00000250: 1927 503c 016f efbd 569f e1bc f1c0 5cbd
00000260: 12b4 3c3d 7e42 b83d 2c5a c6bd 87a7 61bb
00000270: 7763 ba3c dc9c e93c 7fa9 7dbc 4b09 cebc
00000280: 0ae5 c7bb f351 d93c ca63 7d3d 53b7 e03d
00000290: 1c55 733d a643 1e3d 77f6 d6bd e411 b1bd
000002a0: 83b7 9b3d 0b26 703d a9ef 6d3d 293d f53d
000002b0: 0da0 4f3d 1d68 c63d 31db 2bbd fb41 4cbd
000002c0: 253c 313d 2e14 543d 5e76 3a3c b5fb 89bc
000002d0: f7c3 8ebc 7bf7 87bd 5c20 f5bc 5c0c 8fbd
000002e0: d2b3 2ebd 1236 a83d 5af1 9cbd 6774 dabb
000002f0: 1469 a0bd 0d72 a7bd f682 ecbd 00d7 fe3d
00000300: 4f68 923c d815 8d3c 7156 af3d 3369 023e
00000310: 7a34 dcbd d294 bbbd 4111 873d b6b3 a13d
00000320: 75a7 fe3d 7ce8 6b3d 2bc7 743d 2f7a 88bb
00000330: d12f 953d e117 a3bd 5e75 6a3d c63b 31bd
00000340: 5851 fd3c 8274 c6bd 5c73 fb3d 94b5 68bd
00000350: 0344 07bd fe36 3dbd 7568 90bc 77eb 29bd
00000360: ad71 a9bd 3345 523d 5f32 793d 115a d73c
00000370: 6b7f 543d bf23 a6bd 3fe6 6cbd b05f 99bd
00000380: f88f 64bd 13ff 3cbd ae8f ef3d 9930 06bb
00000390: 7c73 843d fc8a 0bbe a899 543d bcdf e1bc
000003a0: 2c04 ebbc d68b 9ebd 12ff ecbb 2cd0 2e3d
000003b0: 42cc b1bc 59fd aebc d4de 0b3d e961 b1bd
000003c0: a4ab 97bd 1b58 cb3a 9e84 623d e0cc c83d
000003d0: 1c43 b6bc a019 e1bc 520a b53d 7ebe ebbd
000003e0: 4d07 b63d 3536 103e 071d 943d 1531 7d3c
000003f0: df74 ee3d 3c66 9cbd 40ec 31bd 9eae a23c
